mechinterp_research_project/models/sparse_probes/pythia-2.8b/reg_lambda0.18846716378431197/gpt_neox.layers.4.mlp.act.pt (torch, 42692 bytes, 1 tensors)

linear.weight f4 [1, 10240]
0.011880269 0.0018890033 0.00065906055 -0.01965443 -0.0038931477 0.00011604456 0.0031493076 -0.031413212
0.007330376 -0.00053895393 0.007449837 0.00776974 0.022993663 0.029123362 -0.012849688 0.0017779646
-0.004057563 0.011694231 -0.0030547436 -0.016759032 0.020213278 -0.020628499 0.009306772 -0.0031516885
-0.00415836 -0.0032894034 -0.0044729756 0.0043430845 0.0011443052 0.0063494393 0.0020872508 -0.009376586
0.000249559 0.001444515 0.0035669191 0.009865331 0.0019706297 0.007766865 0.0054877168 -2.8316615e-05
0.011601994 0.011191026 0.0013949934 0.0027921852 -7.828102e-05 0.0101881595 -0.0034099775 -0.00476073
0.004171755 -0.0023328625 -0.0015172167 -0.010004649 -0.002382577 0.012924181 0.006323076 -0.0012703387
-0.0011118103 -0.005977881 0.006773195 0.004446423 -0.01439421 0.008634325 0.008911075 0.0075926073
-0.022942996 -0.0048420713 0.011970855 0.018132832 -0.00028117062 0.008087487 -0.00032939573 -0.022643933
0.007355678 0.0043247505 -0.0040132 -0.0019392233 0.009335948 -0.0038712316 -0.005667823 0.012033864
-0.002311645 0.0009746481 -5.7057237e-05 0.00051266316 0.0044376655 -0.0014307322 -0.023356106 -0.03679281
-0.003325548 -0.003324892 0.008945925 -0.0041445047 -0.0013107837 0.00054713513 0.024933893 0.010003343
-0.019681113 -0.006677886 -0.003245372 -0.0032055096 -0.018858613 -0.012838727 0.0132330805 0.012874965
-0.008732896 0.0052774725 -0.0021106738 -0.0068341233 -0.0012518651 -0.0021471144 0.0017198757 -0.0034766432
5.791353e-05 -0.0025605035 0.009843736 9.36731e-05 0.01976975 -0.0045468817 -0.016964182 0.002547047
0.010202028 6.572685e-05 -0.0012289453 -0.00020304012 -0.0088566085 -0.0033008796 0.01038025 -0.0019096981
0.008596294 -0.00041246484 0.008521297 -0.0043172804 -0.0034473317 0.0026174635 0.0042532478 -0.0045592245
-0.032556552 -0.02392124 0.004200656 -0.0032370738 0.012566499 -0.004371322 0.011017956 -0.003379467
-0.01631451 0.0047567226 -0.007915199 0.004701701 0.0034418402 -0.006463434 0.0057370053 0.0014649472
0.0046925084 0.00072531775 -0.0027086954 0.0055526323 -0.004414955 0.0043351934 0.0036370824 0.0001913417
-0.0021300926 -0.041939802 0.004588931 -0.0038568268 0.0017872371 0.011515275 0.001127461 -0.0037433044
0.004829546 -0.0030915863 0.0070610372 -0.0023848026 -0.0024488738 -0.0055819135 -0.002759686 0.0027306946
-0.01519258 0.005628819 -0.0045247516 0.002587953 -0.009648774 0.0009676923 -0.006571267 0.0036491707
-0.003180564 0.009646575 -0.0010754265 -0.0020617521 0.008007693 -0.0018165124 0.002104424 0.00575296
-0.0030490386 0.010533909 -0.00477432 -0.009468847 -0.002964517 -0.00034468353 -0.004553131 -0.00051198073
-0.00032451225 0.000346344 -0.008178858 0.0047994596 -0.005243472 -0.056780476 0.0067600785 -0.019684505
0.00046049722 -0.0015721896 -0.0020577286 0.014577897 0.00037884316 -0.004812988 0.008534984 0.0044692336
0.0010581202 -0.0027042234 -0.0061673475 -0.050387554 -0.0060837716 -0.008803143 -0.019624256 0.001973126
-0.00040241552 -0.018282022 -0.0042451937 -0.003607639 -0.0015590996 -0.00043976057 -0.0056540277 -0.017971193
0.0095667085 0.00834411 -0.022378443 -0.0050008493 0.008186315 -0.0008733461 -0.005352961 0.00066535803
0.0008064731 -0.00034608622 0.009007087 -0.0032538653 -0.007131759 0.0038841832 -0.0030703368 -0.0027794898
0.0018540408 -0.001491953 -0.034952473 0.010784104 0.0028776948 -0.0018244942 -0.0038865528 0.004944355
00000000: 76a5 423c 6f98 f73a cec4 2c3a 5402 a1bc
00000010: 2e24 7fbb f35c f338 9d64 4e3b 24ab 00bd
00000020: a733 f03b 9648 0dba c31d f43b 4e99 fe3b
00000030: 355d bc3c 1e94 ee3c 7f87 52bc 980a e93a
00000040: 4ef5 84bb 2999 3f3c 1832 48bb 3d4a 89bc
00000050: 5196 a53c 19fd a8bc 6e7b 183c 8f8c 4ebb
00000060: da42 88bb 0893 57bb 0a92 92bb 6f50 8e3b
00000070: 83fc 953a f50e d03b 42ca 083b 41a0 19bc
00000080: 3ed7 8239 e155 bd3a f9c2 693b 33a2 213c
00000090: ae25 013b 3081 fe3b 4ed2 b33b 7889 edb7
000000a0: 4a16 3e3c 915a 373c 36d8 b63a 18fd 363b
000000b0: cd2a a4b8 3dec 263c ee79 5fbb e6ff 9bbb
000000c0: 38b3 883b f0e2 18bb 58dd c6ba 8aea 23bc
000000d0: 0225 1cbb f2bf 533c ce31 cf3b 7e81 a6ba
000000e0: 2aba 91ba 1ae2 c3bb aef1 dd3b 4db3 913b
000000f0: b1d5 6bbc fc76 0d3c c2ff 113c 68cb f83b
00000100: f3f2 bbbc 3daa 9ebb 6821 443c 4e8b 943c
00000110: 156a 93b9 6181 043c bfb2 acb9 c57f b9bc
00000120: e607 f13b a3b6 8d3b 2981 83bb 892d feba
00000130: cef5 183c 7db4 7dbb 25b9 b9bb af29 453c
00000140: f87e 17bb 877f 7f3a be50 6fb8 3e64 063a
00000150: d669 913b 6887 bbba 4e55 bfbc 0fb4 16bd
00000160: 70f1 59bb 6ee6 59bb ee91 123c a0ce 87bb
00000170: 9ace abba 9e6d 0f3a 2a42 cc3c 10e5 233c
00000180: 493a a1bc 2bd2 dabb 4fb0 54bb 8713 52bb
00000190: 617d 9abc 8659 52bc 90cf 583c 84f1 523c
000001a0: 6c14 0fbc a6ee ac3b 3b53 0abb c8f0 dfbb
000001b0: 9f15 a4ba 9ab6 0cbb 746d e13a 65d8 63bb
000001c0: 2ee8 7238 1fce 27bb 9f47 213c 5d72 c438
000001d0: 2cf4 a13c 02fe 94bb 78f8 8abc 5cec 263b
000001e0: 6826 273c d5d6 8938 9014 a1ba 2be7 54b9
000001f0: 4f1b 11bc 9253 58bb ed11 2a3c d64e faba
00000200: 78d7 0c3c 1840 d8b9 e99c 0b3c f977 8dbb
00000210: a1ec 61bb c089 2b3b d45e 8b3b 8c65 95bb
00000220: 055a 05bd 7af6 c3bc a8a5 893b 1625 54bb
00000230: b8e3 4d3c 4f3d 8fbb a884 343c 0c7a 5dbb
00000240: 02a6 85bc 48de 9b3b c0ae 01bc ba10 9a3b
00000250: 7f90 613b 37cb d3bb 7dfd bb3b 7903 c03a
00000260: 9dc3 993b 4023 3e3a 5e84 31bb dbf2 b53b
00000270: 54ab 90bb 3d0e 8e3b 1e5c 6e3b e6a2 4839
00000280: 0699 0bbb 12c9 2bbd be5e 963b d1c2 7cbb
00000290: ba41 ea3a 90aa 3c3c 50c7 933a 3a52 75bb
000002a0: 2b41 9e3b 369c 4abb 4660 e73b 594a 1cbb
000002b0: 497d 20bb 7ce8 b6bb d9db 34bb 74f5 323b
000002c0: 4dea 78bc f571 b83b 5e44 94bb a59a 293b
000002d0: e415 1ebc bbac 7d3a c853 d7bb ed26 6f3b
000002e0: 0271 50bb ab0c 1e3c 53f5 8cba 761e 07bb
000002f0: b332 033c 0b18 eeba 60ea 093b 5483 bc3b
00000300: 61d2 47bb 6b96 2c3c e671 9cbb 3923 1bbc
00000310: 5848 42bb a4b6 b4b9 6e32 95bb 7236 06ba
00000320: 4c23 aab9 8195 b539 9e00 06bc c944 9d3b
00000330: 6ed1 abbb a592 68bd a683 dd3b 6641 a1bc
00000340: e46e f139 ee11 ceba f5da 06bb 22d8 6e3c
00000350: 789f c639 45b6 9dbb 51d6 0b3c a672 923b
00000360: 9fb0 8a3a 5739 31bb 7617 cabb 2e63 4ebd
00000370: 605a c7bb 0f3b 10bc 0cc3 a0bc 904f 013b
00000380: 4cfb d2b9 2ec4 95bc 441b 8bbb 246e 6cbb
00000390: b45a ccba aa8f e6b9 6c45 b9bb 5338 93bc
000003a0: afbd 1c3c bcb5 083c ff52 b7bc 2ade a3bb
000003b0: e51f 063c 44f1 64ba e467 afbb 6c6b 2e3a
000003c0: 7e69 533a e872 b5b9 7692 133c cd3e 55bb
000003d0: 88b1 e9bb c88d 7e3b b437 49bb 1a28 36bb
000003e0: 4903 f33a a38d c3ba 532a 0fbd cfaf 303c
000003f0: b597 3c3b de23 efba 89b5 7ebb 4204 a23b
