mechinterp_research_project/models/sparse_probes/pythia-1.4b/reg_lambda4.481404746557166/gpt_neox.layers.21.mlp.act.pt (torch, 34506 bytes, 1 tensors)

linear.weight f4 [1, 8192]
000000 39 f1 4b 37 7e ab c9 b8 37 75 fa 36 8a f8 25 b8
       1.2155907e-05 -9.61637e-05 7.464226e-06 -3.9570536e-05
000010 f6 0c ea b8 68 71 5a b7 4c c6 51 b8 6c 18 74 b8
       -0.00011160404 -1.3020217e-05 -5.001416e-05 -5.8196878e-05
000020 83 9d ed b7 f7 3a 42 b8 ad b0 b8 b8 47 09 75 b8
       -2.8325949e-05 -4.630812e-05 -8.806712e-05 -5.8421192e-05
000030 66 55 a8 b7 77 0c 61 b8 55 14 a1 38 e1 7c 20 b8
       -2.0066927e-05 -5.365579e-05 7.6808654e-05 -3.8263275e-05
000040 8b a7 c3 b7 63 3c 11 b8 02 97 87 b7 44 d2 47 b8
       -2.332383e-05 -3.4626933e-05 -1.6163573e-05 -4.7641122e-05
000050 e2 38 fc 37 d9 19 0f b9 02 c2 46 b7 df ea 56 b8
       3.0067229e-05 -0.00013647172 -1.1846891e-05 -5.1240317e-05
000060 a1 41 96 39 78 99 1f b8 bc e8 11 b8 22 04 30 b7
       0.00028659127 -3.8051483e-05 -3.4787445e-05 -1.049138e-05
000070 67 12 3b b8 48 dc 59 38 61 9c c4 36 2a 3c 43 b8
       -4.4601413e-05 5.1941985e-05 5.85946e-06 -4.6547655e-05
000080 e9 04 97 b7 36 32 25 b8 c6 b6 34 b8 4b 6a 37 37
       -1.800289e-05 -3.9385828e-05 -4.3085565e-05 1.0932398e-05
000090 a3 d2 40 b8 89 32 18 37 21 4d 6b b8 77 5d 3e b8
       -4.5972538e-05 9.071672e-06 -5.6100198e-05 -4.5386576e-05
0000a0 4c 57 9e b8 aa e5 2f b8 95 69 8c b5 39 15 84 b8
       -7.5502874e-05 -4.1937143e-05 -1.0461541e-06 -6.2982035e-05
0000b0 ba 75 b1 b6 15 aa 80 b8 c2 95 17 b8 e5 5c 9e 37
       -5.2887162e-06 -6.135196e-05 -3.614068e-05 1.8878325e-05
0000c0 9c 8c 1a b8 59 4d ff b6 c4 ef 59 b8 75 74 c3 37
       -3.6847414e-05 -7.6085967e-06 -5.196013e-05 2.3300041e-05
0000d0 3f 77 32 b8 78 60 2b b7 01 33 6d b8 1f ac 09 b8
       -4.2549564e-05 -1.0214855e-05 -5.6552704e-05 -3.2823646e-05
0000e0 08 c8 9d b8 2d 0e 25 b8 87 24 9d b8 9d 50 8f b8
       -7.523602e-05 -3.9352268e-05 -7.493147e-05 -6.833787e-05
0000f0 28 c2 8c b7 98 a0 05 b9 89 16 96 b7 3f 0b 0a 38
       -1.6779712e-05 -0.00012743694 -1.7891887e-05 3.2912238e-05
000100 24 f1 a2 b8 3e de e5 37 57 12 91 b8 b1 33 a7 b7
       -7.769678e-05 2.7402417e-05 -6.917555e-05 -1.9932022e-05
000110 1c 34 92 b8 29 5d 67 b8 40 02 fa b6 0b 28 39 b8
       -6.971529e-05 -5.5161454e-05 -7.4508425e-06 -4.414473e-05
000120 1a 29 ac b7 b9 a1 24 b9 77 dd 8b b8 93 36 f9 b7
       -2.0523137e-05 -0.00015700505 -6.6692875e-05 -2.9708526e-05
000130 99 13 5a b7 a8 9f 49 b7 7c c5 8d b8 97 2f 32 b9
       -1.29983755e-05 -1.20177065e-05 -6.760188e-05 -0.00016993131
000140 02 fe 37 b8 df 9e 57 b8 bf 11 0e b9 64 d2 bd b7
       -4.3867163e-05 -5.1407955e-05 -0.00013548786 -2.2628526e-05
000150 fb 61 0f b8 0f ff be 37 2d 39 1f b9 61 f5 31 b8
       -3.418511e-05 2.2768536e-05 -0.00015184721 -4.2428615e-05
000160 d4 3c 99 b8 8c 6f f2 b8 71 58 a8 b7 44 4c 50 b8
       -7.306939e-05 -0.000115602365 -2.0068344e-05 -4.9662092e-05
000170 7b 63 33 b7 16 96 f9 37 bf de 93 b8 47 f5 01 b8
       -1.06923935e-05 2.9753002e-05 -7.050996e-05 -3.098443e-05
000180 ac 76 59 b8 9c 4c 3c 38 19 0a d5 b8 40 99 32 b8
       -5.1847353e-05 4.489404e-05 -0.00010158512 -4.2581232e-05
000190 18 7a 06 b9 4b 79 04 b8 ac 73 03 b8 79 c4 d0 37
       -0.0001282472 -3.1584215e-05 -3.134056e-05 2.4887022e-05
0001a0 00 62 49 b8 ef b8 2b b7 38 0a a1 36 d9 8b 0c b8
       -4.8013404e-05 -1.02354525e-05 4.7993635e-06 -3.3508844e-05
0001b0 6a 0b 14 38 9a da 90 b7 96 2e a0 b6 64 3a 8a b7
       3.529658e-05 -1.7267932e-05 -4.773795e-06 -1.6478072e-05
0001c0 e0 be 2b b8 97 7b 0a b7 f0 9c 92 b8 06 8b f6 b7
       -4.0947343e-05 -8.2542165e-06 -6.9910544e-05 -2.9390223e-05
0001d0 7a cd 6d 37 15 13 c7 b8 48 ab 38 b8 17 af 0c b7
       1.4174142e-05 -9.492614e-05 -4.4028537e-05 -8.385417e-06
0001e0 11 f3 74 b7 04 33 7a b8 41 ba 70 b8 1f 43 4c b5
       -1.4600127e-05 -5.9652157e-05 -5.739392e-05 -7.6093596e-07
0001f0 7b 25 1d b9 70 5e 14 37 a5 d4 d2 b7 7a 39 4b b8
       -0.0001498665 8.843475e-06 -2.5132971e-05 -4.84525e-05
000200 a7 b4 85 b6 50 a2 76 b7 33 be 39 37 38 08 1a 37
       -3.9847396e-06 -1.4700534e-05 1.10711435e-05 9.181029e-06
000210 cf 21 89 b6 6d 93 db 37 30 99 c5 b7 83 1e 18 b8
       -4.086854e-06 2.6175485e-05 -2.3555564e-05 -3.626804e-05
000220 99 bc c2 b7 3b 3d 00 b8 04 d5 eb b7 84 f0 ed b7
       -2.3214425e-05 -3.0574603e-05 -2.8113376e-05 -2.83646e-05
000230 71 1c 35 b8 cc d2 24 b5 3b 73 4b b8 e5 33 b5 b8
       -4.318025e-05 -6.140151e-07 -4.850629e-05 -8.640419e-05
000240 38 9d 1f b9 af a0 ad b8 9f 1f c7 b7 b4 64 ef 37
       -0.0001522199 -8.2792125e-05 -2.3737373e-05 2.8537914e-05
000250 c0 72 29 b8 64 92 f7 b8 a5 b9 fa 37 30 fa 77 b8
       -4.039961e-05 -0.00011805145 2.988877e-05 -5.9122394e-05
000260 3c d0 b0 37 bd fb 11 b8 4d d3 09 b8 30 d6 c0 b8
       2.1077802e-05 -3.4805144e-05 -3.2860135e-05 -9.195169e-05
000270 5b dd a1 b8 00 82 aa b8 c8 44 b9 b8 36 df 4d b8
       -7.718309e-05 -8.130446e-05 -8.834299e-05 -4.908369e-05
000280 04 a7 c4 b7 89 88 b0 b8 db ae 29 b8 8e ae ae b8
       -2.3442793e-05 -8.417766e-05 -4.0455587e-05 -8.32948e-05
000290 db 74 16 b7 1c 1f c5 b8 6e 05 7d b8 0b 34 ab b8
       -8.967904e-06 -9.3994866e-05 -6.0324957e-05 -8.163609e-05
0002a0 af d4 fe b7 19 0d 30 b9 fd 32 0b b6 09 fa cb b7
       -3.0378198e-05 -0.00016789547 -2.0742293e-06 -2.4315917e-05
0002b0 f3 01 ca b8 9c a8 1f b8 bc 05 19 b8 f0 23 19 b8
       -9.632474e-05 -3.8065584e-05 -3.6483383e-05 -3.6511512e-05
0002c0 02 f8 56 b8 57 55 c4 37 23 9f cf b8 fe c1 1c b8
       -5.125255e-05 2.340476e-05 -9.900171e-05 -3.7373968e-05
0002d0 36 d6 88 b5 9b 22 24 b9 9a c6 a5 36 7d 4e ca b7
       -1.0195133e-06 -0.0001565315 4.9405035e-06 -2.4116825e-05
0002e0 d5 a6 78 b8 45 29 f4 37 9e 96 8b b8 fa 7d c2 b8
       -5.9283182e-05 2.9106284e-05 -6.656091e-05 -9.274106e-05
0002f0 c6 4e 13 b8 55 90 ec b8 50 18 c1 b8 81 6c d2 b8
       -3.5120895e-05 -0.00011280241 -9.207486e-05 -0.00010033791
000300 24 22 87 b8 bb 51 72 b8 e8 c6 16 b8 7f 04 99 b8
       -6.443661e-05 -5.7773414e-05 -3.5948033e-05 -7.296446e-05
000310 0e 30 05 b8 68 48 cd b7 d5 48 83 b7 be 77 ee 37
       -3.1754425e-05 -2.4471621e-05 -1.5650332e-05 2.842757e-05
000320 84 12 92 b8 ab be 85 b8 c6 a3 83 b8 8b 3e 3c b8
       -6.965271e-05 -6.377449e-05 -6.277072e-05 -4.488094e-05
000330 d8 69 a3 b7 7b d6 81 b8 0d d9 1e b8 65 ac f2 b7
       -1.9480402e-05 -6.1911494e-05 -3.787228e-05 -2.8928926e-05
000340 48 e3 9e b8 d7 b2 8b b8 d3 4c 9c b7 1b 57 b2 b7
       -7.5763615e-05 -6.661348e-05 -1.8632423e-05 -2.1259815e-05
000350 0a e1 4f b8 63 88 af b8 2b 2c 66 b8 53 a4 a8 36
       -4.956223e-05 -8.370054e-05 -5.4877408e-05 5.02592e-06
000360 40 48 9e b8 ee 08 1d b9 87 d3 0a b7 01 46 a3 b7
       -7.547485e-05 -0.00014976013 -8.274691e-06 -1.9463712e-05
000370 d1 19 86 b6 44 1c 68 37 53 84 ea b7 3d 75 8e b8
       -3.9965166e-06 1.3834859e-05 -2.7956592e-05 -6.792925e-05
000380 49 00 ab b8 b8 7f ce b8 24 00 0d b9 bb b3 2d b7
       -8.1539685e-05 -9.846635e-05 -0.0001344686 -1.035345e-05
000390 8b 03 68 b8 24 09 13 b8 a1 cd b4 b7 f7 31 bf b7
       -5.531641e-05 -3.5056044e-05 -2.1553426e-05 -2.2792241e-05
0003a0 49 7b 02 b8 9e 79 71 37 73 04 3d b8 12 28 86 b8
       -3.1109234e-05 1.4393036e-05 -4.5065255e-05 -6.3970816e-05
0003b0 99 21 94 b7 d3 26 b7 37 fc 7e 14 36 20 cf 3a b8
       -1.765862e-05 2.1833379e-05 2.2127633e-06 -4.4538756e-05
0003c0 5f 89 ad 37 7b 65 85 b8 4b a4 4b b8 45 be 04 b8
       2.0687175e-05 -6.3608364e-05 -4.855198e-05 -3.1648455e-05
0003d0 5b 2f ac b7 16 42 77 b7 8b 33 1b 37 6e 2b 94 b8
       -2.052605e-05 -1.4737734e-05 9.250721e-06 -7.065279e-05
0003e0 75 d0 da b9 78 63 d4 37 0a a8 07 b7 e2 69 8a b8
       -0.00041735513 2.5318688e-05 -8.085752e-06 -6.600075e-05
0003f0 7b 34 a8 b8 6f ad 18 37 89 1a 92 b7 16 2e 96 b8
       -8.0206395e-05 9.100287e-06 -1.7416913e-05 -7.1611415e-05
