mechinterp_research_project/models/sparse_probes/pythia-2.8b/reg_lambda0.09999999999999999/gpt_neox.layers.0.mlp.act.pt (torch, 42692 bytes, 1 tensors)

linear.weight f4 [1, 10240]
00000000: d7bf 15bb 4138 71b9 9e00 e73b 94a1 efbb
00000010: 41ec 9dba bc86 83bb 9448 39bc f743 dabb
00000020: a858 b4bb 8139 2dbc 86a7 133a f22c 6bbc
00000030: d43f 10bd 00ca 2a3b 1869 393c 4121 83bc
00000040: 75c5 c0ba 416d 9639 ac0f 49bb 38b3 023d
00000050: af9d 7abb 612e c1bb 5100 9d3c 0252 3f3a
00000060: bf64 053c 0619 403b 0f7c 59bc f92d 18bc
00000070: 26ac 893b 134a 7c3c 2c65 a4bb acc5 ad3c
00000080: e2f6 a23b b811 d93b f189 8fba 3c6f d0ba
00000090: c673 f5ba 2646 543c 8be9 d13b 42a8 813b
000000a0: 92aa 803c bf22 7ebb dd87 8b3c 16a4 a13b
000000b0: 7d63 bc3b f397 98b9 1649 3b3c 001e 72bc
000000c0: cdf7 5f3c 9a79 d33b c32e 883b e484 433c
000000d0: 4e5d c03b ee74 5abc fe46 7cbc d497 373b
000000e0: c159 573a 0ee0 dbbc 6698 753a fa85 283b
000000f0: 5368 91bb 0a74 493b fd03 fdbb e85b fcbb
00000100: 59b3 503b d176 9e3c 14f3 f8bb f0a3 223c
00000110: 6e94 983c 9336 26bb 262b 7e3c 8c8d 42bb
00000120: 32d8 44bb 5c81 de3b eb98 cbbb 9aab 7c3b
00000130: 77b6 d83b a7ec e7bb 6ae9 d1bb a7ca a4bc
00000140: c1db e63b 6950 b03b 7607 7abb f74c fcb9
00000150: 0c60 35bb 8ccf 58bc 26d0 6a3c d8d6 873b
00000160: ad47 80bc f8d0 efba 9f69 10bb 3647 4cbb
00000170: 9567 f2bb 9b6a 23ba 13f8 70bc f802 413b
00000180: ed1c aabb dd0e e4bb af5c 06bc fb97 fbbb
00000190: 5295 1cbb 68d0 58bc 7bbb fabc 0fb7 f43b
000001a0: 46b2 253b bb7c 203d aa17 573b 9df3 85bb
000001b0: d469 58bb a736 673a 2cd0 a33c 350b 103c
000001c0: 7973 873b aff5 d8bb 52da 78ba 5076 1f3b
000001d0: e65e 183b 00ef c13b 4e56 833a 81c5 b9bc
000001e0: 8a10 a1bb 0d37 a63a 31df ab3b 290f 97bc
000001f0: 56a1 e33b 3e0f c4bc a61f b7bb 2179 68bc
00000200: 60a7 913b 8d99 a13b 228f e7bb dce8 42bc
00000210: d8fa 7b3c 1071 643a 3fd9 003a 99bd ac3a
00000220: ceba c7ba 98d1 adbc 2804 8bbb 5623 82bb
00000230: 42e2 743b 269e 043b 873a 4e3c 6705 d43b
00000240: f618 b63b aa19 0d3b 482d 9e3a 5187 803c
00000250: c286 f2bb 9ca0 4e3c a94c 6fbc 3022 3dbb
00000260: bf2b 433c 1b58 04bc e9c7 243c e27d 7a3b
00000270: 4188 e1b9 6810 33bb cda4 c8bb acd9 ae3b
00000280: 2297 72bc a671 053a 6ed8 a4b9 4a51 4bbc
00000290: 66ca bcbc 60d6 e8bc 7c85 073a bf8a 8d3c
000002a0: c24a b8ba 293e 943b 1f78 b73c a431 2a39
000002b0: c5ea 5d3c 66a3 a83b 1116 943b 7570 be3b
000002c0: 0cad e33b ee74 ccba 8512 f1bc 7fe9 14bb
000002d0: 8e98 2dbc 38e0 d83b 4e4b b8ba 6d10 723b
000002e0: e837 c0bc 8750 cd3b 305f bc3a 9d82 2eba
000002f0: 8b85 8a3b 340e ae3c 3fd4 8a3b e66e b63b
00000300: c6b2 083a 95fb 20bb fbc8 5dbc c1d2 89bc
00000310: b6cf c83b 193e 8cbc 4130 913a 9bd9 a0bb
00000320: e309 fbbb 1e58 413b 8f7c 303c d46c 903a
00000330: fd6a aa3a 4675 563b 08a9 e7bd e0c7 2f3c
00000340: 0770 873a 9993 263a ca80 b73b a39f 9a3b
00000350: a88c 3ebc 9e6f 0f3c 2b78 1cbc 8c64 343b
00000360: ad5a d4ba 89a7 00bc 7685 a3bb 327c 7f3b
00000370: 4c1d 493c cb33 2d3c 57b1 763b a08f 5abc
00000380: f13a 0abc ab04 a6bc 6800 3abc f5da 303c
00000390: 0d9e 173c a36f 13bb a304 1cbd 510e 1a3d
000003a0: c5c9 ea3b 0be4 67bb 8062 0cbc 8e5e b13c
000003b0: 4503 1a3d 47b3 d5bb b1cc 213c a59e 483b
000003c0: 6ae5 993c fb30 8bbb 9750 903c bbb3 5dbc
000003d0: 9209 543b 64fd 58bc 44ef 50bc 0a33 1e3c
000003e0: 9989 ac3b 0b28 683c 1682 a63b 782d f1bb
000003f0: fb3c a9ba 2f67 0f3c 3f7d 213b 63d3 173c
-0.002284994 -0.00023004507 0.007049634 -0.007312963 -0.0012048559 -0.0040138643 -0.011308808 -0.006660934
-0.0055037327 -0.010572792 0.0005632568 -0.0143539775 -0.03521712 0.0026060343 0.01131656 -0.016007068
-0.0014707284 0.0002869163 -0.0030679507 0.031909198 -0.003824096 -0.0058954214 0.01916519 0.0007298292
0.0081416955 0.002931179 -0.013274207 -0.0092883045 0.00420143 0.01539852 -0.0050169434 0.021212421
0.0049732784 0.0066244267 -0.0010951144 -0.0015902291 -0.001872652 0.012956178 0.0064060143 0.0039568255
0.015706334 -0.0038778035 0.017032558 0.0049328906 0.0057491646 -0.0002910491 0.011430999 -0.01477766
0.01366992 0.006453705 0.004155965 0.011933539 0.005870498 -0.013333542 -0.015397785 0.002801408
0.00082149735 -0.026840236 0.00093687174 0.0025714622 -0.0044374852 0.003073933 -0.0077214227 -0.0077013858
0.003184518 0.019343765 -0.0075973365 0.009926781 0.018625464 -0.0025362119 0.015513217 -0.002968642
-0.003003609 0.006790323 -0.0062132976 0.003855443 0.0066135484 -0.0070777717 -0.006405999 -0.020116163
0.0070452397 0.0053806794 -0.003815142 -0.0004812253 -0.0027675657 -0.013233077 0.014331853 0.0041454844
-0.015659178 -0.001829653 -0.0022035611 -0.0031170375 -0.007397602 -0.0006233842 -0.014707583 0.0029451232
-0.0051914365 -0.0069597797 -0.008200808 -0.0076780296 -0.0023892713 -0.013233282 -0.030606976 0.0074681113
0.0025283261 0.039181452 0.0032820501 -0.004087879 -0.0033022063 0.00088200945 0.019996725 0.008791734
0.0041336385 -0.0066210846 -0.00094929815 0.0024331994 0.0023249923 0.0059183836 0.0010020228 -0.022677185
-0.0049153017 0.0012681201 0.0052451123 -0.018439846 0.006946723 -0.02393305 -0.0055884896 -0.014189036
0.0044450015 0.0049316348 -0.0070666233 -0.011896338 0.01537963 0.00087143574 0.00049151847 0.0013179063
-0.0015238167 -0.021218106 -0.004242439 -0.0039714975 0.0037366305 0.0020235865 0.012587196 0.0064703706
0.005557175 0.002153019 0.0012067938 0.015689524 -0.0074013183 0.012611534 -0.01460568 -0.0028859489
0.011912285 -0.008077647 0.010057428 0.0038222005 -0.0004301686 -0.0027323011 -0.0061231614 0.005336007
-0.014806541 0.00050904823 -0.0003144177 -0.012409518 -0.02304573 -0.028422534 0.0005169732 0.017278073
-0.0014060366 0.0045240116 0.022396145 0.00016230956 0.013544743 0.0051464317 0.004519232 0.0058117458
0.006948119 -0.0015598813 -0.029427776 -0.0022722182 -0.010595454 0.006618526 -0.0014060528 0.003693606
-0.023464158 0.006265703 0.001437163 -0.0006657036 0.0042273453 0.021247007 0.0042367275 0.0055674193
0.00052146276 -0.0024564017 -0.013536687 -0.016824128 0.0061282767 -0.017119454 0.0011077003 -0.004908753
-0.0076610907 0.0029501985 0.010771885 0.0011018761 0.0013001856 0.003272371 -0.11311537 0.010728806
0.0010333069 0.0006354391 0.0056000696 0.004718737 -0.011630215 0.008754639 -0.009550135 0.002752575
-0.001620134 -0.0078524435 -0.004990275 0.0038983938 0.012275051 0.01057143 0.0037642324 -0.013339907
-0.008436904 -0.020265898 -0.011352636 0.010794391 0.009253991 -0.002249696 -0.03809036 0.03761131
0.007165166 -0.0035383727 -0.008568406 0.021651533 0.037600774 -0.0065216157 0.009875462 0.0030612138
0.018786151 -0.0042477823 0.017616553 -0.013531621 0.0032354337 -0.013244007 -0.012752358 0.009655723
0.0052654264 0.014169703 0.0050814254 -0.0073601566 -0.001291185 0.008752628 0.0024641303 0.009266707
