mechinterp_research_project/models/sparse_probes/pythia-14m/reg_lambda1.2616612944575138/gpt_neox.layers.1.mlp.act.pt (torch, 3780 bytes, 1 tensors)

linear.weight f4 [1, 512]
0	0xb8afe8aa	-8.387987e-05
1	0x38447552	4.6839305e-05
2	0x385d35a3	5.274046e-05
3	0xb806e7de	-3.2164033e-05
4	0x34fa15c0	4.6581954e-07
5	0x37aefa54	2.0858984e-05
6	0x382821ee	4.008592e-05
7	0xb8c96fa5	-9.605222e-05
8	0x39318b12	0.00016931843
9	0x36802db8	3.8200196e-06
10	0xb80d2298	-3.3649238e-05
11	0xb825dbac	-3.954365e-05
12	0xb71dbd96	-9.402071e-06
13	0xb4bfef08	-3.575044e-07
14	0xb82d1550	-4.1266263e-05
15	0x38273220	3.9862585e-05
16	0xb7017165	-7.715401e-06
17	0xb708c128	-8.151204e-06
18	0x3833a872	4.2833803e-05
19	0xb5acc3a1	-1.2871934e-06
20	0xb75ab6c8	-1.303637e-05
21	0xb7a074ac	-1.9127816e-05
22	0xb7be9787	-2.2720325e-05
23	0xb8826e9c	-6.219486e-05
24	0x37c4cb96	2.3459823e-05
25	0x374ebeec	1.2323009e-05
26	0x394f06b0	0.0001974355
27	0x36d4c240	6.340706e-06
28	0x36a9c020	5.058959e-06
29	0xb8a725aa	-7.970196e-05
30	0x381271dc	3.4915152e-05
31	0x37c5e737	2.3591898e-05
32	0xb6436950	-2.9118564e-06
33	0xb980b91f	-0.00024551988
34	0x36b13ca8	5.2820724e-06
35	0xb7079578	-8.081428e-06
36	0xb7af3a16	-2.0888674e-05
37	0xb7e19a12	-2.6893835e-05
38	0x3706191c	7.992869e-06
39	0xb87017b4	-5.7242534e-05
40	0xb7f19c14	-2.8802118e-05
41	0xb77326ac	-1.4492933e-05
42	0x38f3d492	0.00011626737
43	0xb824723e	-3.9207043e-05
44	0xb825f36b	-3.9565766e-05
45	0xb73d1690	-1.1270531e-05
46	0x391e2793	0.00015082797
47	0xb7f61628	-2.9335803e-05
48	0xb7e6d00e	-2.751502e-05
49	0xb8a50dbe	-7.870373e-05
50	0xb8f11f32	-0.00011497586
51	0xb7a8f901	-2.0143112e-05
52	0x374599f4	1.177796e-05
53	0x3703b7d8	7.851013e-06
54	0x37544b1f	1.2653675e-05
55	0xb7e3ea5f	-2.7169646e-05
56	0x374c202c	1.2166838e-05
57	0xb65515f4	-3.1752252e-06
58	0xb8b121ee	-8.4463376e-05
59	0x36e667c8	6.866616e-06
60	0xb6ce7768	-6.153179e-06
61	0xb85359e4	-5.0390037e-05
62	0x384896e2	4.7824236e-05
63	0xb4f70c60	-4.601634e-07
64	0xb8d5554f	-0.000101725214
65	0x379036bb	1.7191624e-05
66	0xb7b9c6ca	-2.2146287e-05
67	0x37a2a488	1.938852e-05
68	0xb80b11b4	-3.315667e-05
69	0xb86b45b2	-5.6093275e-05
70	0x38b93203	8.830803e-05
71	0xb7c6a3dc	-2.3679742e-05
72	0x381741e8	3.6062585e-05
73	0xb7cfbac8	-2.47633e-05
74	0xb78a82a4	-1.6511716e-05
75	0xb82a3f3b	-4.0590046e-05
76	0xb5dcc960	-1.6449885e-06
77	0xb5916784	-1.0833469e-06
78	0xb72c52e4	-1.0271298e-05
79	0x391059fb	0.0001376643
80	0x37b7ffb7	2.1934376e-05
81	0xb7dd199e	-2.6357182e-05
82	0x391e71e9	0.00015110489
83	0xb8c4e715	-9.389051e-05
84	0x3637ae30	2.7370515e-06
85	0xb8a5366a	-7.8779485e-05
86	0xb724e0a8	-9.827469e-06
87	0xb8c77d86	-9.51244e-05
88	0x3690d088	4.3158107e-06
89	0xb8869ed5	-6.419203e-05
90	0x38909f0a	6.8960784e-05
91	0x38d1d23e	0.00010005057
92	0x36f9f93c	7.449793e-06
93	0xb9454fe8	-0.00018817151
94	0x386f78f7	5.7094698e-05
95	0xb79da354	-1.8791914e-05
96	0x37648f24	1.36231865e-05
97	0xb710e254	-8.635765e-06
98	0xb83cb83e	-4.499428e-05
99	0x38203d04	3.8203798e-05
100	0x37459c61	1.1778525e-05
101	0x379c9aa2	1.8668656e-05
102	0xb7f8a488	-2.964052e-05
103	0xb8830676	-6.24777e-05
104	0x386dc3fe	5.6687735e-05
105	0xb7f8b53e	-2.9648301e-05
106	0xb8f64a60	-0.000117440475
107	0x3837f70a	4.3860673e-05
108	0x382a70d3	4.0636234e-05
109	0xb83e2392	-4.5332657e-05
110	0xb7f71d87	-2.9458444e-05
111	0x382220ce	3.865436e-05
112	0x37193f0f	9.134193e-06
113	0x3762525a	1.3489824e-05
114	0xb72bdc58	-1.0243697e-05
115	0xb86f20be	-5.7012534e-05
116	0x383a71e3	4.445192e-05
117	0xb8a39b37	-7.801357e-05
118	0xb85907db	-5.1744148e-05
119	0xb724db40	-9.82621e-06
120	0xb7722a8c	-1.443423e-05
121	0xb7c644b0	-2.3635424e-05
122	0xb72fb1dc	-1.0472224e-05
123	0x38a27f8a	7.748518e-05
124	0x349c6a00	2.913439e-07
125	0xb89aa52c	-7.374058e-05
126	0x37a4783c	1.9606312e-05
127	0x37c61180	2.3611588e-05
128	0xb77bf084	-1.5016765e-05
129	0xb7f26a3c	-2.8898117e-05
130	0x38a79a3c	7.991909e-05
131	0x37ab634c	2.0431027e-05
132	0x36ccf544	6.1082264e-06
133	0x3784db5e	1.5837777e-05
134	0x36e5e780	6.851682e-06
135	0xb81ff22d	-3.8134098e-05
136	0xb822c5d0	-3.8808037e-05
137	0x379d5574	1.875565e-05
138	0x37287488	1.0040712e-05
139	0xb80565a0	-3.1804317e-05
140	0x38a3d72f	7.812527e-05
141	0x3901ca1c	0.0001237769
142	0xb7816132	-1.5423258e-05
143	0xb81e9d6e	-3.7816753e-05
144	0xb795adf0	-1.784318e-05
145	0xb797942c	-1.80696e-05
146	0x34aa0000	3.1664968e-07
147	0x380d6237	3.370849e-05
148	0xb7b67160	-2.1748885e-05
149	0xb7f7c6cc	-2.9537267e-05
150	0x35bca038	1.4053721e-06
151	0xb81cb38c	-3.7360514e-05
152	0xb81c5d8d	-3.7280424e-05
153	0xb7293de4	-1.0087595e-05
154	0xb7b686c1	-2.175884e-05
155	0xb59b2fc0	-1.1562297e-06
156	0xb81ee347	-3.7881804e-05
157	0xb7ac163a	-2.0514348e-05
158	0xb6dc2b8c	-6.5615804e-06
159	0x36e62cc8	6.8597474e-06
160	0xb8189bc1	-3.638468e-05
161	0xb69660c0	-4.4816115e-06
162	0xb703a794	-7.847226e-06
163	0x365e54f0	3.3130018e-06
164	0xb8124dad	-3.4881454e-05
165	0xb7846ff0	-1.5787751e-05
166	0x37a2bd80	1.9400148e-05
167	0xb7ef8619	-2.8553464e-05
168	0xb78a12ef	-1.6459699e-05
169	0x38145bbc	3.5371384e-05
170	0xb7c87fa0	-2.3901288e-05
171	0xb7f96013	-2.9727851e-05
172	0xb7c2c499	-2.321815e-05
173	0x37b0f0b6	2.1092925e-05
174	0x380d76f0	3.372779e-05
175	0xb82289d4	-3.8752172e-05
176	0xb79227d6	-1.7423106e-05
177	0xb5a2d4dc	-1.2131891e-06
178	0xb76d3bd4	-1.4140231e-05
179	0xb88ad5e7	-6.620195e-05
180	0x3699123c	4.561878e-06
181	0x36f6a510	7.350587e-06
182	0x38949f66	7.08688e-05
183	0xb683ca0c	-3.9276256e-06
184	0xb87cbeec	-6.025929e-05
185	0xb7fa3c89	-2.9830511e-05
186	0x382aa1fe	4.0682025e-05
187	0x39144cad	0.00014142944
188	0xb7ed8092	-2.8312472e-05
189	0xb6f2d2f0	-7.2367184e-06
190	0xb7bae66d	-2.2280228e-05
191	0xb71db490	-9.39997e-06
192	0x38686f92	5.541702e-05
193	0xb722db76	-9.70705e-06
194	0xb8b98a20	-8.847215e-05
195	0xb74c6606	-1.2183102e-05
196	0x35d2da80	1.5709811e-06
197	0xb87a294d	-5.964311e-05
198	0x383bb5d8	4.475363e-05
199	0x384b3066	4.8444046e-05
200	0x38d16a76	9.9857265e-05
201	0x3631efc8	2.6514626e-06
202	0xb8214697	-3.8451133e-05
203	0xb8829e28	-6.228342e-05
204	0x3809dc66	3.2868607e-05
205	0xb7d1b3d2	-2.4998477e-05
206	0x369b0678	4.620113e-06
207	0xb7cada3e	-2.4181903e-05
208	0xb7aab7d7	-2.0351186e-05
209	0xb8848c1f	-6.32035e-05
210	0xb7a47d00	-1.9608531e-05
211	0x38f0662e	0.00011463124
212	0x382def3f	4.146923e-05
213	0x3798d976	1.8221075e-05
214	0x38152313	3.5557034e-05
215	0xb738310e	-1.0978676e-05
216	0xb7abb6d0	-2.0469917e-05
217	0xb914e590	-0.00014199899
218	0x3811c87f	3.475742e-05
219	0xb64381d0	-2.9132825e-06
220	0x37295bee	1.0094589e-05
221	0xb8a91ea4	-8.064255e-05
222	0x37812a24	1.5397622e-05
223	0x39443ea6	0.00018715355
224	0xb867b776	-5.5245553e-05
225	0x37cf1b80	2.4689129e-05
226	0xb811e6f5	-3.478579e-05
227	0xb7362d38	-1.0858574e-05
228	0xb776e71e	-1.4716554e-05
229	0x377c4528	1.5036472e-05
230	0xb7fe46a0	-3.0312047e-05
231	0xb80d8812	-3.3743745e-05
232	0xb6d05886	-6.2091885e-06
233	0x37556dc1	1.2721343e-05
234	0xb8c516ea	-9.39796e-05
235	0x37da595d	2.6029238e-05
236	0x3554ed80	7.932176e-07
237	0xb90987fe	-0.00013115999
238	0xb8614e96	-5.371737e-05
239	0xb71e1d28	-9.424322e-06
240	0xb84c11c9	-4.8653954e-05
241	0x37ed0523	2.8254994e-05
242	0xb82b1460	-4.0788553e-05
243	0xb76209f8	-1.3472971e-05
244	0x37573df8	1.2829427e-05
245	0xb8167b1c	-3.587744e-05
246	0xb7a02d33	-1.9094534e-05
247	0x38675f4e	5.516345e-05
248	0xb7b81bfa	-2.1947537e-05
249	0xb8331f3d	-4.270602e-05
250	0xb89d3262	-7.495728e-05
251	0xb688a288	-4.072037e-06
252	0xb7c00e7b	-2.2894927e-05
253	0x3567f2c0	8.6407454e-07
254	0xb843849c	-4.6615125e-05
255	0xb7c06bc4	-2.2938366e-05
