mechinterp_research_project/models/sparse_probes/pythia-1.4b/reg_lambda8.445976423531823/gpt_neox.layers.7.mlp.act.pt (torch, 34500 bytes, 1 tensors)

linear.weight f4 [1, 8192]
-2.1520447e-05 -8.595036e-05 -3.6323634e-06 -3.935011e-08 -5.986582e-05 -2.5206257e-06 -1.3019255e-05 -3.0622683e-05
-3.572393e-05 1.2798071e-05 2.330322e-05 -1.1123226e-06 -2.314407e-05 -1.3045124e-06 6.913899e-08 -6.4736564e-06
-2.8381552e-07 -6.781541e-05 2.1060709e-05 -4.945399e-06 -4.668441e-05 1.0684348e-05 -1.1392112e-05 5.1097356e-07
-2.0572264e-05 1.5475121e-05 -3.0833446e-05 2.6322666e-06 1.9570558e-05 -9.893349e-06 -1.6031865e-05 -1.9936257e-05
1.1544471e-05 5.2817744e-05 -4.7813497e-05 -2.0378568e-05 4.4012588e-05 6.85338e-06 -4.9577713e-05 -1.5130718e-06
3.8546852e-05 -1.9198227e-05 -3.7241578e-05 4.3405466e-06 -2.3952774e-05 0.00014296101 -3.3787343e-05 -1.2519455e-05
-2.6091259e-06 -2.5158915e-05 -3.8777457e-06 -5.0082235e-06 -4.6932764e-05 -4.104889e-05 -2.93373e-05 6.9064686e-06
1.3012888e-05 3.1332727e-06 3.4774468e-05 -2.2956874e-05 -1.7196498e-05 -2.789419e-05 -5.560869e-07 -4.2441512e-05
-4.016976e-05 1.0651028e-05 -3.3797245e-05 -4.10632e-05 -7.7500474e-05 7.2964633e-07 2.5505864e-05 -3.8320763e-06
-5.1864245e-06 -2.7622596e-05 6.620028e-06 -4.0993407e-05 -8.395626e-06 4.714928e-06 1.5171553e-05 -1.7202807e-05
1.8205557e-06 1.7310069e-05 -1.723889e-05 -7.564403e-05 -2.9415102e-07 -2.435944e-05 -1.4909328e-05 -2.0946422e-05
2.6433368e-05 6.4886995e-06 1.17720525e-07 -3.8854392e-05 -3.852286e-05 -3.694189e-05 -1.7363263e-05 -2.7759372e-05
-1.4378834e-05 -8.243582e-06 -4.3473456e-06 4.829779e-05 -1.1931344e-05 3.78757e-05 -5.0639455e-06 -1.863756e-05
-3.676932e-05 -1.0483928e-05 6.1758687e-06 2.0891584e-05 -8.659025e-05 -5.720012e-06 -2.1485735e-05 -2.0295309e-05
3.3371172e-05 -1.20442655e-05 -1.8303603e-05 -7.4804855e-05 1.8259162e-06 -2.616728e-05 1.9111743e-05 2.6120932e-05
7.96882e-06 -1.4756383e-05 -1.16023875e-05 -2.9881332e-05 -3.1567426e-05 -3.0007674e-05 -5.0079158e-05 -4.6802706e-05
-4.9062462e-05 -3.1413015e-06 1.0249281e-05 -3.9219518e-05 -3.8612565e-05 2.3297765e-05 3.9386583e-07 7.639455e-06
-5.350721e-06 1.7012968e-05 -1.9535135e-05 -2.1152257e-05 -2.3328783e-05 -1.6681068e-05 -1.7674609e-05 5.5877904e-06
6.342158e-07 -3.3283017e-05 -4.026561e-05 -3.56089e-06 -5.7077792e-05 9.419461e-06 0.00010888679 -1.0674628e-05
2.6342512e-05 5.8160535e-06 4.685947e-05 -1.0855895e-05 -1.0830411e-05 -4.27541e-05 -2.8780845e-05 -1.7492499e-05
3.6153804e-05 -2.2917126e-05 -5.102428e-05 -4.56633e-05 5.333993e-06 1.0822173e-05 -4.3595923e-05 9.946478e-06
2.1111055e-05 -9.81869e-06 -1.83147e-05 1.13628e-05 -5.540344e-06 -4.4992317e-05 -1.2073947e-05 -1.9533029e-05
-1.6744858e-05 -1.7557164e-05 -3.0771374e-05 -1.6206257e-05 9.633073e-07 -1.2334043e-05 3.1300287e-06 8.6054015e-06
-5.1802333e-05 -3.2252843e-05 -3.8482627e-05 2.144566e-05 5.0946246e-06 2.3367265e-05 3.1067875e-06 1.0742453e-05
-3.1101496e-05 -1.4469494e-05 -3.3674154e-05 1.617635e-05 5.731841e-05 -1.2398768e-05 -1.3038315e-05 -1.6451511e-05
5.2531677e-06 -9.120303e-05 3.4787233e-06 1.1058544e-05 -5.594123e-07 -4.546805e-05 -2.6778187e-06 4.6335237e-05
-1.707894e-05 3.0435105e-05 -9.884238e-07 9.96308e-06 -1.2682291e-05 -1.5936761e-05 6.7076185e-06 -8.95668e-05
2.1977298e-06 7.466922e-05 1.8902268e-05 3.0818453e-06 -5.340459e-05 2.576422e-05 -2.6301004e-05 -4.9707254e-05
-2.4886116e-05 -2.408269e-05 -2.260203e-05 -1.27489575e-05 7.4660944e-05 2.2143246e-05 -1.8113291e-05 6.866514e-06
3.92893e-06 4.796223e-05 -5.3550124e-05 -3.127807e-05 -2.6659725e-05 -2.1460151e-05 -1.1196676e-06 -6.667054e-05
3.0506231e-05 6.678382e-06 -4.4546672e-05 -3.9979927e-06 -1.6228637e-06 -1.9745641e-05 -2.0529e-06 1.3288871e-05
-1.1542992e-05 -1.3003639e-05 5.611046e-05 -4.7738282e-05 -0.0001333207 -1.5789166e-05 2.6991934e-06 -1.83143e-05
00000000: cf86 b4b7 4040 b4b8 87c3 73b6 e701 29b3
00000010: 6f18 7bb8 0528 29b6 466d 5ab7 db70 00b8
00000020: 47d6 15b8 4cb7 5637 497b c337 1d4b 95b5
00000030: 8325 c2b7 b416 afb5 9079 9433 4938 d9b6
00000040: 4f5f 98b4 1f38 8eb8 87ab b037 a7f0 a5b6
00000050: 01cf 43b8 ed40 3337 c020 3fb7 d629 0935
00000060: 9a92 acb7 92d0 8137 2953 01b8 ffa5 3036
00000070: 742b a437 9cfb 25b7 2b7c 86b7 c93c a7b7
00000080: 20af 4137 9f88 5d38 5a8b 48b8 a4f2 aab7
00000090: 289a 3838 16f6 e536 aaf1 4fb8 c014 cbb5
000000a0: 5ead 2138 e10b a1b7 d733 1cb8 03a5 9136
000000b0: 31ee c8b7 cee7 1539 e2b6 0db8 a60a 52b7
000000c0: 7118 2fb6 5c0c d3b7 951d 82b6 500c a8b6
000000d0: acd9 44b8 e92b 2cb8 5f19 f6b7 1dbe e736
000000e0: ee51 5a37 3745 5236 cdda 1138 8393 c0b7
000000f0: 3341 90b7 51fe e9b7 0046 15b5 3a03 32b8
00000100: f47b 28b8 d1b1 3237 84c1 0db8 463b 2cb8
00000110: c087 a2b8 eadc 4335 6df5 d537 4995 80b6
00000120: 0c07 aeb6 13b7 e7b7 9c21 de36 56f0 2bb8
00000130: f0da 0cb7 ec34 9e36 5389 7e37 bf4e 90b7
00000140: d159 f435 1735 9137 3c9c 90b7 14a3 9eb8
00000150: cfeb 9db4 8057 ccb7 1323 7ab7 19b6 afb7
00000160: 3abd dd37 81b9 d936 8bcd fc33 96f7 22b8
00000170: 9b93 21b8 0df2 1ab8 53a7 91b7 ccdc e8b7
00000180: 9f3c 71b7 ea4d 0ab7 6adf 91b6 5b93 4a38
00000190: bb2c 48b7 b9dc 1e38 f6ea a9b6 db57 9cb7
000001a0: c238 1ab8 21e4 2fb7 4f3a cf36 5640 af37
000001b0: c997 b5b8 87ee bfb6 443c b4b7 d83f aab7
000001c0: 06f8 0b38 ba11 4ab7 b08a 99b7 8de0 9cb8
000001d0: 0112 f535 ce81 dbb7 2852 a037 461e db37
000001e0: d2b1 0537 2f92 77b7 e0a7 42b7 aca9 fab7
000001f0: 4467 04b8 fdb8 fbb7 160c 52b8 064e 44b8
00000200: 6bc8 4db8 26cf 52b6 54f4 2b37 a37f 24b8
00000210: edf3 21b8 926f c337 8274 d334 362b 0037
00000220: 588a b3b6 12b7 8e37 62df a3b7 2070 b1b7
00000230: 2eb2 c3b7 52ee 8bb7 ef43 94b7 c17e bb36
00000240: fa3e 2a35 5e99 0bb8 dfe2 28b8 a0f7 6eb6
00000250: d066 6fb8 4708 1e37 265a e438 2e17 33b7
00000260: 1dfa dc37 8527 c336 f98a 4438 b721 36b7
00000270: 43b4 35b7 de52 33b8 656e f1b7 dbbc 92b7
00000280: daa3 1738 273e c0b7 e702 56b8 9886 3fb8
00000290: a7fa b236 e190 3537 c4da 36b8 ccdf 2637
000002a0: a517 b137 f4ba 24b7 85a2 99b7 dba2 3e37
000002b0: 31e7 b9b6 22b6 3cb8 3591 4ab7 dcda a3b7
000002c0: 4f77 8cb7 b947 93b7 8310 01b8 acf2 87b7
000002d0: fd4a 8135 50ee 4eb7 7c0d 5236 eb5f 1037
000002e0: 5546 59b8 3a47 07b8 6868 21b8 34e6 b337
000002f0: 7ef2 aa36 d204 c437 347e 5036 7c3a 3437
00000300: fa72 02b8 01c2 72b7 593d 0db8 72b2 8737
00000310: 2d69 7038 4e04 50b7 23bf 5ab7 5a01 8ab7
00000320: 5e44 b036 4144 bfb8 0374 6936 1688 3937
00000330: 852a 16b5 f2b4 3eb8 93b4 33b6 1558 4238
00000340: bf44 8fb7 e44e ff37 fca9 84b5 1a27 2737
00000350: 06c6 54b7 efaf 85b7 0112 e136 cfd5 bbb8
00000360: b67c 1336 bb97 9c38 5090 9e37 b3d1 4e36
00000370: befe 5fb8 3e20 d837 faa0 dcb7 c27c 50b8
00000380: 87c2 d0b7 2f05 cab7 7d99 bdb7 5be4 55b7
00000390: 4a93 9c38 42c0 b937 fff1 97b7 e866 e636
000003a0: 40d5 8336 0d2b 4938 029b 60b8 9230 03b8
000003b0: 53a3 dfb7 5305 b4b7 7c47 96b5 79d1 8bb8
000003c0: a2e7 ff37 dd16 e036 a0d7 3ab8 7f26 86b6
000003d0: 2cd1 d9b5 71a3 a5b7 8ec4 09b6 44f3 5e37
000003e0: c6a8 41b7 342a 5ab7 2658 6b38 973a 48b8
000003f0: 01cc 0bb9 fa72 84b7 ca23 3536 a9a1 99b7
