mechinterp_research_project/models/sparse_probes/pythia-1b/reg_lambda15.917892219322098/gpt_neox.layers.3.mlp.act.pt (torch, 34500 bytes, 1 tensors)

linear.weight f4 [1, 8192]
0	0x36482c0c	2.982796e-06
1	0x37fb8ea2	2.998795e-05
2	0x3741e501	1.1557016e-05
3	0x37527f14	1.2546563e-05
4	0x384dde44	4.908281e-05
5	0x3822c089	3.8803122e-05
6	0xb7894ca5	-1.6367363e-05
7	0x36ffc90d	7.6229976e-06
8	0x37458ca6	1.1774862e-05
9	0x37590d59	1.2937316e-05
10	0x3782e069	1.5601707e-05
11	0xb4eec0ae	-4.4471147e-07
12	0xb6744eee	-3.6404776e-06
13	0xb788598f	-1.6254167e-05
14	0x3805f463	3.1937274e-05
15	0x388d1a11	6.728259e-05
16	0x3786ea34	1.6083104e-05
17	0x36c1f4ef	5.7803622e-06
18	0xb874965a	-5.831416e-05
19	0x37897093	1.6384094e-05
20	0x367357ca	3.6260922e-06
21	0xb8227ef6	-3.874205e-05
22	0x3890f99a	6.912947e-05
23	0x3872ea20	5.7915342e-05
24	0x392a59b1	0.00016245876
25	0x382f8808	4.184994e-05
26	0x3850e96a	4.980845e-05
27	0x38c4be64	9.381471e-05
28	0xb7dafdc9	-2.6105803e-05
29	0x38918386	6.938637e-05
30	0x389016ee	6.870726e-05
31	0x38946838	7.076602e-05
32	0xb895fe23	-7.15221e-05
33	0x372389bf	9.747629e-06
34	0x350c9b83	5.2380364e-07
35	0xb6859723	-3.9813035e-06
36	0x38264f1d	3.9651164e-05
37	0xb898c462	-7.284504e-05
38	0x37931f83	1.753844e-05
39	0x35e18b01	1.6804262e-06
40	0x3810ca72	3.4520817e-05
41	0xb935ab08	-0.00017325219
42	0xb7a7f5b9	-2.0022375e-05
43	0x383e463b	4.5364937e-05
44	0x36a3f491	4.88625e-06
45	0x3803b3d4	3.1400312e-05
46	0x369617c3	4.4731146e-06
47	0x37628a5f	1.3502867e-05
48	0xb7568acf	-1.2787713e-05
49	0x37cfed38	2.4786787e-05
50	0x36aabb09	5.0881686e-06
51	0x38011449	3.077489e-05
52	0x37bc5bf7	2.245417e-05
53	0x37f823c8	2.9580566e-05
54	0x37ae7c20	2.0800217e-05
55	0x384c3eab	4.8695754e-05
56	0xb7c67af5	-2.3660696e-05
57	0x37e947b6	2.7809157e-05
58	0xb7dbf9a9	-2.6223091e-05
59	0xb8b0382c	-8.402797e-05
60	0x38c64e66	9.4559786e-05
61	0xb716a006	-8.977955e-06
62	0x3806f4df	3.2176144e-05
63	0x381ccfcf	3.7386835e-05
64	0x376792f5	1.3802889e-05
65	0x37f139b8	2.8756316e-05
66	0xb67ac46a	-3.736723e-06
67	0x388f94f3	6.846515e-05
68	0x37f235e9	2.8873752e-05
69	0xb54198b0	-7.212029e-07
70	0x37b0bcee	2.1068812e-05
71	0x371651ca	8.95974e-06
72	0xb848b354	-4.7850728e-05
73	0x375b14ae	1.3058232e-05
74	0x37f0a9c1	2.8689277e-05
75	0x3790e3cf	1.727222e-05
76	0x384bb9ee	4.8572132e-05
77	0x3799ea8e	1.8348244e-05
78	0x37dab501	2.6071912e-05
79	0x388965d8	6.551639e-05
80	0x3816f1b9	3.598791e-05
81	0x384939f5	4.797611e-05
82	0x373b3fed	1.1160952e-05
83	0x3734f5ad	1.0786037e-05
84	0xb801645c	-3.0849464e-05
85	0x37ff3754	3.0424133e-05
86	0x38714ec5	5.7532237e-05
87	0xb7350b39	-1.0791054e-05
88	0x37b3b545	2.1422873e-05
89	0x384b3357	4.8446786e-05
90	0x37231f7f	9.72289e-06
91	0x382316a3	3.888331e-05
92	0xb6d5b9d5	-6.3695284e-06
93	0xb7cfc0bd	-2.4766074e-05
94	0x38347427	4.302352e-05
95	0x38119bcc	3.471579e-05
96	0x382272ae	3.8730614e-05
97	0xb676c634	-3.6772226e-06
98	0x385ccf18	5.264496e-05
99	0xb792377a	-1.743039e-05
100	0xb66340dd	-3.3863391e-06
101	0x38e08a60	0.00010706927
102	0x37561438	1.27601015e-05
103	0xb8951ac7	-7.109861e-05
104	0x377b529c	1.498e-05
105	0x37cd1d0e	2.4451434e-05
106	0x37ccc89d	2.4412113e-05
107	0x385c6fa3	5.2556057e-05
108	0xb7bd3df9	-2.2559414e-05
109	0x378d4f76	1.6845512e-05
110	0xb6e4e563	-6.8216336e-06
111	0x3849a123	4.8072205e-05
112	0x36f880d2	7.4059726e-06
113	0xb69f7b80	-4.7529466e-06
114	0xb8253c6d	-3.939534e-05
115	0x37923782	1.7430404e-05
116	0xb756923f	-1.2789445e-05
117	0x37f040af	2.864035e-05
118	0x355fdbbb	8.3393724e-07
119	0xb8016305	-3.0848216e-05
120	0xb692b7c2	-4.3725313e-06
121	0x34feb5da	4.74435e-07
122	0x384479a4	4.6843328e-05
123	0x38889a83	6.5137654e-05
124	0x38217eb0	3.8503378e-05
125	0x377bf702	1.5018277e-05
126	0x369b2649	4.623817e-06
127	0xb763d5a0	-1.3579993e-05
128	0x37c28f9f	2.3193481e-05
129	0x384b7fe3	4.8518075e-05
130	0x38606a24	5.3504613e-05
131	0xb705ff00	-7.98679e-06
132	0x386e2dd4	5.6786303e-05
133	0x3704cb6c	7.915176e-06
134	0x382e6c85	4.15859e-05
135	0xb8ee8f87	-0.000113754584
136	0xb4738c62	-2.268221e-07
137	0xb81f8863	-3.8035574e-05
138	0x3750d0b3	1.2446358e-05
139	0x38005795	3.0599145e-05
140	0x37f1fe1d	2.884777e-05
141	0x38221bb3	3.8649607e-05
142	0xb71f8734	-9.508618e-06
143	0x38f08fab	0.00011470852
144	0x37880832	1.621628e-05
145	0xb7e2442f	-2.697305e-05
146	0xb73f2f0d	-1.1395442e-05
147	0xb726a275	-9.932196e-06
148	0x37cf4c9b	2.4711995e-05
149	0x3543080a	7.265486e-07
150	0xb801782b	-3.0867912e-05
151	0x37aba9f8	2.0463936e-05
152	0x38da22df	0.00010401545
153	0x37d55cdd	2.5434822e-05
154	0x3566044c	8.568793e-07
155	0x38ac5d25	8.218949e-05
156	0x37ded64c	2.6564252e-05
157	0x3818a659	3.6394547e-05
158	0xb6a1a829	-4.8177503e-06
159	0x38030d98	3.1245494e-05
160	0x386663b4	5.492913e-05
161	0x3813305f	3.509258e-05
162	0x3840306b	4.582146e-05
163	0xb719513a	-9.138423e-06
164	0xb7b673b3	-2.1749967e-05
165	0x362dc88d	2.5895745e-06
166	0xb6ce9481	-6.1565665e-06
167	0x382fd808	4.1924446e-05
168	0x388ce98a	6.71922e-05
169	0x3782a97c	1.557613e-05
170	0x38205095	3.822202e-05
171	0x3777a41f	1.476056e-05
172	0x3645cbb1	2.9473852e-06
173	0x37bac779	2.2265815e-05
174	0x36de8b08	6.632301e-06
175	0x36e95183	6.9534303e-06
176	0x387c53e9	6.015963e-05
177	0x376c5d91	1.4088481e-05
178	0xb80ea38d	-3.4007757e-05
179	0x361ce614	2.3379735e-06
180	0x367555ef	3.6557865e-06
181	0x37d6b9e8	2.5597357e-05
182	0x3872f4b4	5.7925194e-05
183	0xb6a0213f	-4.772242e-06
184	0x36cf1254	6.1712144e-06
185	0x3659ad6b	3.2436462e-06
186	0x35c534dd	1.4693029e-06
187	0x37c593a8	2.3552988e-05
188	0xb871c3fe	-5.764141e-05
189	0x38817ee3	6.174834e-05
190	0x38304780	4.202826e-05
191	0x382ee803	4.170091e-05
192	0x380f6d08	3.41954e-05
193	0x37992d08	1.825999e-05
194	0x379b84cb	1.8539276e-05
195	0xb555fdde	-7.971811e-07
196	0x37855270	1.5893223e-05
197	0xb715d68f	-8.931048e-06
198	0x352ee4ad	6.515282e-07
199	0xb7fe2185	-3.0294768e-05
200	0xb89897a7	-7.276172e-05
201	0xb73c5a13	-1.1226645e-05
202	0x381d9278	3.7568127e-05
203	0x382efb98	4.1719148e-05
204	0x37686693	1.385216e-05
205	0x38b31794	8.539777e-05
206	0x3856df50	5.1229552e-05
207	0x377552b4	1.4622394e-05
208	0x37af90f5	2.0929127e-05
209	0xb702e413	-7.8017065e-06
210	0x388b6422	6.646688e-05
211	0xb82857c4	-4.013606e-05
212	0x38767b83	5.8766e-05
213	0x381f0cae	3.7920363e-05
214	0xb859dc9e	-5.1942297e-05
215	0x378d4a4a	1.6843103e-05
216	0x37123cc8	8.71643e-06
217	0xb4a5e8c4	-3.0903004e-07
218	0x3853dbc4	5.0510993e-05
219	0x36f343df	7.2498656e-06
220	0x37bae2b7	2.22785e-05
221	0x365a7882	3.2554676e-06
222	0x38167443	3.5871064e-05
223	0xb6fa99ae	-7.4684713e-06
224	0x388fb314	6.852127e-05
225	0x37ab0321	2.0386246e-05
226	0xb748c8cc	-1.1967681e-05
227	0x387f26ca	6.0832863e-05
228	0xb7e5e7e8	-2.7406917e-05
229	0x383803b4	4.3872467e-05
230	0x381230eb	3.485467e-05
231	0x380301b5	3.1234424e-05
232	0x380b5ff0	3.322953e-05
233	0x38ac4142	8.213754e-05
234	0x381afde1	3.6952904e-05
235	0x35bf2e5b	1.42441e-06
236	0x38828feb	6.22569e-05
237	0xb7631c18	-1.3536795e-05
238	0xb8879371	-6.464765e-05
239	0x37b9a79d	2.213177e-05
240	0x38b554cf	8.6465494e-05
241	0xb7778367	-1.4752942e-05
242	0x38069248	3.2084325e-05
243	0x3853b43c	5.0474177e-05
244	0x36bdf812	5.661518e-06
245	0x381e886d	3.7797192e-05
246	0x371e63c1	9.44076e-06
247	0x362fbf9f	2.618857e-06
248	0x37a29e02	1.9385483e-05
249	0x374d4e98	1.2237251e-05
250	0xb7fa637e	-2.9848652e-05
251	0xb75e5f64	-1.3254441e-05
252	0x3778f105	1.4838069e-05
253	0x37f73dd0	2.9473478e-05
254	0xb87cf244	-6.030711e-05
255	0xb80b9e05	-3.328735e-05
