mechinterp_research_project/models/sparse_probes/pythia-70m/reg_lambda0.1/gpt_neox.layers.4.mlp.act.pt (torch, 9924 bytes, 1 tensors)

linear.weight f4 [1, 2048]
-0.008367254 -0.0009652868 0.009946291 0.008445835 0.032125916 0.0040897843 0.013412054 -0.023210377
-0.004805666 -0.0013293755 -0.014963502 -0.03439362 -0.023033772 0.022624474 -0.027197951 0.012595851
-0.0008736641 0.008664682 0.041754056 -0.013522128 -0.00076206616 -0.020471174 0.008681986 -0.003843712
0.002457544 -0.007247466 -0.014349674 0.04893794 -0.03215968 0.00419579 -0.028488355 -0.012041557
0.0029489398 0.01655893 0.0002681482 0.0040299473 -0.02563531 0.008835925 0.025946423 -0.03171898
0.014552444 0.025367538 0.0035878513 0.008077302 -0.0070238225 -0.11953055 0.005793984 -0.022857899
0.001852909 0.01876399 -0.00049892074 0.019119857 0.00096196984 -0.000667872 -0.02365194 -0.014714802
0.0026628592 0.04322483 0.018030943 0.0036715108 0.012461715 -0.011492734 -0.015936218 -0.0024660327
-0.0075865644 -0.03563583 0.016342595 -0.0012320691 -4.2578915e-05 0.017295593 -0.01659549 -0.00041486573
-0.0093801925 0.033739656 0.03192312 0.0030249073 0.0052480055 0.002559047 -0.043194193 -0.010878827
0.0014174664 0.013268988 0.0045189285 0.0027158554 -0.02779966 -0.037331723 -0.0382658 0.0033016258
-0.04545646 0.014438477 -0.0071929405 0.044255883 -0.009495667 0.006118845 -0.030715978 -0.004516756
-0.005954773 0.0025097637 -0.0010732649 0.029969634 0.047417004 0.017503213 -0.022776749 0.0029874812
-0.069000185 -0.0049357824 -0.002568279 0.024049597 -0.007944593 0.011789897 0.00015094968 -0.004583733
0.0026980108 -0.029020356 0.013565407 -0.016430954 0.014627115 0.0022738166 0.00045830436 0.0041466206
0.01535023 -0.02676739 0.021329055 0.01505945 0.008496327 0.0020810915 0.005109205 -0.016702559
0.010240951 -0.014440266 -0.011812927 0.0018013113 0.0080984235 0.009408336 0.009123639 -0.00020045963
-0.00391754 0.005995713 -0.01818646 0.0033344885 0.019812629 9.1648784e-05 0.0049841413 0.005731162
0.008794128 0.0039445753 -0.003051725 0.02925204 -0.00879882 -0.0022825946 -0.0040933667 0.011785453
-0.0015590552 -0.021216206 0.038940594 0.008068435 0.0060597337 -0.012862388 -0.03370611 0.019104002
0.014009732 0.026408345 -0.0039480277 0.0036817535 -0.018698707 -0.017774154 -9.408626e-05 0.015276109
-0.009796905 -0.054905366 -0.006815786 0.0052104313 -0.01021853 -0.036918435 -0.026304968 0.00439757
0.02646604 -0.017465657 -0.05268387 -0.013426582 0.011485201 -0.016338939 -0.02090138 0.0029601566
-0.00850982 -0.048752982 -0.011901006 0.0008628046 0.0034161028 -0.0023159508 0.019450491 0.0070990818
-0.021128627 0.008801273 -0.009643064 -0.0045491224 0.006650504 0.009000368 -0.0010438935 0.020870648
-0.01700643 0.005845515 -0.055007327 -0.0042433594 -0.0037050196 0.022182578 0.005190406 0.014929871
0.01860954 -0.008581785 -0.008635219 0.0058818576 -0.029365044 -0.018300636 -0.020800505 -0.007668082
-0.00074299617 0.0013751279 -0.009196089 0.029184446 0.016971812 -0.004670077 -0.0028451195 -0.0077740424
-0.0035776938 0.022375626 -0.001413508 0.052130718 -0.0043803835 0.0054185335 -0.08687177 0.003577162
0.008795858 0.07328789 0.014919361 -0.0068589365 -0.060568888 -0.0011620185 0.059763554 -0.0005399826
-0.0004221496 -0.00062105595 -0.0032627147 -0.021450946 -0.051582597 0.0069450457 -0.0025705057 0.007507976
0.033050906 0.01589397 0.009113661 -0.0067474213 -0.000114632494 0.046174638 0.008169833 -0.0031518503
00000000: cf16 09bc 4d0b 7dba c5f5 223c 6660 0a3c
00000010: 7796 033d 9903 863b 3bbe 5b3c b023 bebc
00000020: d978 9dbb 713e aeba 7a29 75bc 53e0 0cbd
00000030: 52b1 bcbc f656 b93c 3dce debc d45e 4e3c
00000040: 9b06 65ba 4ff6 0d3c 4d06 2b3d ea8b 5dbc
00000050: 65c5 47ba 2ab3 a7bc e33e 0e3c c9e6 7bbb
00000060: bf0e 213b 277c edbb e51a 6bbc 2673 483d
00000070: deb9 03bd d67c 893b 6960 e9bc f349 45bc
00000080: 0043 413b 98a6 873c 3e96 8c39 a60d 843b
00000090: 2401 d2bc 8ec4 103c 988d d43c c3eb 01bd
000000a0: 606d 6e3c 95cf cf3c 2822 6b3b a956 043c
000000b0: 1828 e6bb 6fcc f4bd 76db bd3b 7d40 bbbc
000000c0: 4fdd f23a f0b6 993c 01ca 02ba 3fa1 9c3c
000000d0: b42c 7c3a 2214 2fba b7c1 c1bc 5a16 71bc
000000e0: 5d83 2e3b 850c 313d a1b5 933c bb9d 703b
000000f0: 392c 4c3c 054c 3cbc ac8c 82bc 2a9d 21bb
00000100: b798 f8bb e0f6 11bd e8e0 853c 617d a1ba
00000110: c396 32b8 7daf 8d3c 44f3 87bc 5682 d9b9
00000120: 61af 19bc 9832 0a3d d1c1 023d 863d 463b
00000130: 76f7 ab3b afb5 273b 65ec 30bd 1c3d 32bc
00000140: 48ca b93a 2b66 593c 8513 943b 7efc 313b
00000150: 1dbc e3bc 26e9 18bd 99bc 1cbd 1760 583b
00000160: 8e30 3abd 5d8f 6c3c c2b2 ebbb a845 353d
00000170: b793 1bbc 9880 c83b 13a0 fbbc 4c01 94bb
00000180: 4220 c3bb d97a 243b cbac 8cba e182 f53c
00000190: 5538 423d e662 8f3c 4e96 babc 9ec9 433b
000001a0: f84f 8dbd 58bc a1bb 9250 28bb a903 c53c
000001b0: 0a2a 02bc 6a2a 413c 3f48 1e39 2433 96bb
000001c0: 1cd1 303b 19bc edbc 7141 5e3c 359a 86bc
000001d0: 91a6 6f3c 5004 153b 9248 f039 60e0 873b
000001e0: 887f 7b3c 4947 dbbc 45ba ae3c e9bb 763c
000001f0: 2e34 0b3c ec62 083b 1e6b a73b ced3 88bc
00000200: a9c9 273c de96 6cbc 028b 41bc fa19 ec3a
00000210: 40af 043c 6c25 1a3c 517b 153c 7932 52b9
00000220: b55e 80bb b077 c43b c5fb 94bc 6f87 5a3b
00000230: 184e a23c 9133 c038 0252 a33b 79cc bb3b
00000240: 3f15 103c 7f41 813b 73ff 47bb f9a1 ef3c
00000250: ed28 10bc 9597 15bb a621 86bb c617 413c
00000260: 3659 ccba 9ccd adbc 2c80 1f3d 7831 043c
00000270: bb90 c63b c4bc 52bc 6b0f 0abd ff7f 9c3c
00000280: 1389 653c 5056 d83c 755e 81bb 9349 713b
00000290: 082e 99bc 1a9b 91bc 2d50 c5b8 a548 7a3c
000002a0: 3383 20bc 73e4 60bd f556 dfbb 44bc aa3b
000002b0: 9f6b 27bc c937 17bd 847d d7bc 7e19 903b
000002c0: 4fcf d83c 2314 8fbc 0bcb 57bd 2bfb 5bbc
000002d0: 6d2c 3c3c 3dd9 85bc 5f39 abbc 30ff 413b
000002e0: c66c 0bbc 35b1 47bd 70fc 42bc d62d 623a
000002f0: b2e0 5f3b 35c7 17bb a356 9f3c 6a9f e83b
00000300: f115 adbc 3733 103c f1fd 1dbc ce10 95bb
00000310: 79ec d93b 4876 133c 41d3 88ba ecf8 aa3c
00000320: 1251 8bbc bc8b bf3b 5d4f 61bd e10b 8bbb
00000330: eacf 72bb 3db8 b53c 4814 aa3b 6b9c 743c
00000340: 0973 983c 9d9a 0cbc bc7a 0dbc 99bc c03b
00000350: f68e f0bc 37eb 95bc d265 aabc 8944 fbbb
00000360: a1c5 42ba a33d b43a 31ab 16bc 3814 ef3c
00000370: 7808 8b3c 7207 99bb 2f75 3abb 65bd febb
00000380: be77 6abb 174d b73c 7545 b9ba 0587 553d
00000390: 5289 8fbb f48d b13b d4e9 b1bd d26e 6a3b
000003a0: 811c 103c f617 963d 5670 743c eec0 e0bb
000003b0: 1517 78bd df4e 98ba a1ca 743d 9e8d 0dba
000003c0: f653 ddb9 5cce 22ba 45d3 55bb e5b9 afbc
000003d0: 4648 53bd 4493 e33b ee75 28bb 7805 f63b
000003e0: 6360 073d 1234 823c 7751 153c 7919 ddbb
000003f0: da66 f0b8 9e21 3d3d c3da 053c 468f 4ebb
