mechinterp_research_project/models/sparse_probes/pythia-1b/reg_lambda0.6694329500821696/gpt_neox.layers.5.mlp.act.pt (torch, 34500 bytes, 1 tensors)

linear.weight f4 [1, 8192]
0	0xbb429482	-0.0029690568
1	0x3ae867fc	0.0017731185
2	0x371df3ca	9.414691e-06
3	0x3a87c510	0.0010358412
4	0x38a9a3bd	8.0890466e-05
5	0x397814a5	0.00023658814
6	0xbb3cef4f	-0.0028829162
7	0xbab53deb	-0.0013827657
8	0x3a55118e	0.0008127921
9	0xb6a37bbd	-4.8721836e-06
10	0xbbd7730d	-0.0065749944
11	0x3ad45176	0.0016198594
12	0xb9cdd683	-0.0003926047
13	0xba49cdbd	-0.0007698199
14	0xbad3b683	-0.0016152415
15	0x3aabccdc	0.0013107317
16	0xba0df86f	-0.00054157426
17	0x3aee02a4	0.0018158746
18	0xb9bb722f	-0.00035752493
19	0x3b02c834	0.0019955756
20	0x39e48c8b	0.00043592261
21	0x3b8bbd9b	0.004264546
22	0xbb260492	-0.0025332314
23	0x3abbc945	0.0014326951
24	0x3b067777	0.0020517984
25	0x38269858	3.9719365e-05
26	0x3b25dcfe	0.0025308724
27	0x3b2e0a3d	0.0026556395
28	0x3aa4ee29	0.0012583184
29	0xbab3b52a	-0.0013710607
30	0xbb85b028	-0.0040798374
31	0x3adddbeb	0.0016926503
32	0xbb4bafa6	-0.0031080036
33	0x3b0e5884	0.002172024
34	0x3ad6b1fa	0.0016379945
35	0xbb90bb81	-0.0044168835
36	0x3a9d3ffa	0.0011997216
37	0x3b0abbc0	0.0021169037
38	0xbb76b70b	-0.0037645723
39	0x3998d4e6	0.0002915032
40	0x3a211477	0.0006144712
41	0x3b35ea94	0.0027758228
42	0x390013da	0.00012214427
43	0x3adb6c90	0.0016740728
44	0x3a85da04	0.0010212068
45	0xb9587ee3	-0.00020646634
46	0xbab81de1	-0.001404699
47	0x3a79c1b8	0.00095274625
48	0x3a39f632	0.0007093876
49	0x39c6e326	0.00037934742
50	0x3b975bcb	0.004619097
51	0xb9bbe319	-0.0003583662
52	0x3aa7c4bc	0.001279972
53	0x3a49a985	0.0007692802
54	0x3bcf0935	0.0063182362
55	0x37c0cb85	2.2982955e-05
56	0xba91fcb0	-0.0011137929
57	0x3a0a4d7d	0.0005275829
58	0x3aca4ab6	0.0015433643
59	0xbaee37fd	-0.0018174645
60	0xba96d84f	-0.0011508557
61	0x3974e740	0.000233558
62	0x39abc2a8	0.00032760692
63	0x3b25b820	0.002528675
64	0xb9f87119	-0.0004738651
65	0x3a6a3f2e	0.0008935806
66	0x3a355ad9	0.00069181394
67	0xba4fe964	-0.0007931201
68	0xb95c0968	-0.00020984339
69	0x3a8b20cf	0.0010614636
70	0xba9aaede	-0.0011801382
71	0x3aa9eef9	0.0012964896
72	0x3aa44158	0.0012531681
73	0x3a0eed3c	0.0005452221
74	0x3a88ecea	0.0010446582
75	0xba8c837c	-0.0010720338
76	0x3bd3ccfb	0.0064636446
77	0xbbef7706	-0.00730789
78	0x390005e2	0.00012209223
79	0xb8710aac	-5.7468817e-05
80	0xbb34c479	-0.0027582927
81	0x3a2a8436	0.00065046863
82	0x3bcecc4b	0.0063109747
83	0x3ba639f2	0.0050728256
84	0xba0dc490	-0.0005408013
85	0x3ad25b61	0.0016048962
86	0x3acd53c4	0.0015665223
87	0x3b663ef2	0.0035132733
88	0x3aced261	0.001577925
89	0xba8a8259	-0.0010567411
90	0xba5d7a6c	-0.0008448723
91	0xba63080e	-0.0008660563
92	0xba0c7d8d	-0.00053592847
93	0x3b1307c7	0.0022435056
94	0x3a522bb5	0.0008017377
95	0xbbe07c00	-0.0068507195
96	0x3a7b2414	0.0009580266
97	0xb946ac8b	-0.00018947029
98	0xbc044095	-0.008072038
99	0x3aa01532	0.0012213348
100	0x3b82d595	0.003992746
101	0xb9a1695b	-0.0003078681
102	0xbaaf8557	-0.0013391179
103	0xbbd2e3ee	-0.0064358627
104	0xbb35d90b	-0.0027747776
105	0x3aa76cf1	0.0012773556
106	0x3a4e6b3d	0.0007874256
107	0x3b130913	0.0022435829
108	0x38da87ba	0.00010420331
109	0xb91206d9	-0.00013926196
110	0xb69a7f8b	-4.6044056e-06
111	0x3b5b5820	0.0033469275
112	0x3a92300d	0.0011153236
113	0xb9b29dbd	-0.0003406833
114	0x3b37b943	0.0028034009
115	0x3ac413c2	0.0014959502
116	0x3b0b2821	0.0021233635
117	0x38cee924	9.866271e-05
118	0x3abb93ff	0.0014311074
119	0x3b0a219d	0.0021077164
120	0xbae2a180	-0.0017290562
121	0xbaf6a166	-0.0018816411
122	0x3a41904a	0.00073838665
123	0xbaaa0767	-0.0012972177
124	0x3b9a8809	0.0047159237
125	0x3a212b59	0.0006148122
126	0x39accc14	0.00032958447
127	0x3b42365a	0.0029634447
128	0x3c55de7a	0.013053531
129	0xb965f398	-0.00021929888
130	0x3aca046b	0.0015412694
131	0xbb1bbd9e	-0.0023764144
132	0x3aa67610	0.001269998
133	0x3b33def4	0.0027446123
134	0x3a41ea0d	0.0007397242
135	0xbb81ab30	-0.0039571747
136	0xb92c706d	-0.0001644508
137	0xbb18263d	-0.0023216151
138	0x3adb7ce0	0.001674559
139	0xb9ab1347	-0.00032630024
140	0xb965a09c	-0.00021898974
141	0x3a7750df	0.0009434353
142	0x3a9e80c9	0.0012092824
143	0x3aaaf53d	0.0013043057
144	0x38bd8ad0	9.038078e-05
145	0x3b49c49f	0.0030787361
146	0x3aaa4a93	0.0012992196
147	0x3a1dd393	0.0006020602
148	0x3b543906	0.0032382621
149	0x3b31ef2b	0.0027150612
150	0x39965681	0.0002867468
151	0xbaaf1f4f	-0.0013360771
152	0x3a3eb614	0.00072750566
153	0xb97bade9	-0.00024002012
154	0xb98ee7ca	-0.00027257047
155	0xbb2b0e48	-0.0026101042
156	0x39ad2e9d	0.0003303186
157	0xbc27fec5	-0.010253613
158	0xbb22e654	-0.0024856525
159	0x3ab3c3c7	0.0013714962
160	0x3a47b4df	0.00076181995
161	0x38646aa5	5.4458756e-05
162	0x3aec7328	0.001803969
163	0xb95368ae	-0.00020161524
164	0x3a65f7e1	0.00087725936
165	0xbbf68466	-0.0075231073
166	0x3a60d01b	0.0008575932
167	0x3a2ebec1	0.0006665998
168	0x3a04c57b	0.0005064827
169	0x3a97dba9	0.001158585
170	0x3a12916f	0.00055911293
171	0xb8d96ff1	-0.00010368217
172	0x3a6fd5eb	0.0009149003
173	0xb9dbf659	-0.00041954478
174	0x3b2245c3	0.002476082
175	0x3bb2996b	0.0054504178
176	0x3a0b4c55	0.00053138036
177	0xbb231cbe	-0.0024888958
178	0x3ab52386	0.0013819791
179	0x3a2a6b82	0.0006501005
180	0x3aa53755	0.0012604991
181	0xb9a81482	-0.00032058737
182	0x39613c97	0.00021480244
183	0x3b2d9255	0.0026484926
184	0xbb33b58a	-0.0027421438
185	0xbb0657b0	-0.0020499043
186	0xb98bebf8	-0.00026687956
187	0x3acebbc4	0.0015772511
188	0x3af0416e	0.0018330046
189	0x3afe37c0	0.0019395277
190	0x3bbc605f	0.005748793
191	0xb7090b74	-8.168503e-06
192	0xbbc695de	-0.006060346
193	0x3a8a829d	0.001056749
194	0x3ae424d8	0.0017406
195	0x3935998b	0.00017318704
196	0x3a6259b4	0.00086345826
197	0x392a76f8	0.00016256783
198	0x36931e65	4.38448e-06
199	0xba22f126	-0.00062157435
200	0x3aeb972e	0.0017974132
201	0x3b1bddf8	0.0023783427
202	0x3a16c7f9	0.0005751844
203	0x39090102	0.00013065714
204	0xbacf28ee	-0.0015805045
205	0x3ad5b671	0.0016304982
206	0x3a7cd180	0.0009644255
207	0xbac469e6	-0.0014985173
208	0xbb841278	-0.004030522
209	0x3a023d99	0.0004968285
210	0x39aeffdf	0.00033378505
211	0x3ad3ac77	0.0016149421
212	0xbaf1304b	-0.0018401233
213	0x3b3b0df4	0.0028542252
214	0x39adf054	0.0003317619
215	0x3ab1a7d3	0.0013554044
216	0x3b04e0f9	0.0020275696
217	0x383da46a	4.5214234e-05
218	0x3b6970d9	0.003562024
219	0xba9d3f94	-0.0011997097
220	0x3a365a70	0.0006956225
221	0xbb824fd3	-0.003976801
222	0xb9d9c6eb	-0.0004153767
223	0xb935f7be	-0.00017353796
224	0xbba1cc54	-0.004937688
225	0x3aa777d2	0.0012776798
226	0xba3a046f	-0.00070959976
227	0x3b1937a3	0.002337911
228	0x3a2a9f77	0.00065087475
229	0xb8a2c3bb	-7.7612196e-05
230	0xb9207d65	-0.00015305502
231	0xbb5066e5	-0.0031799611
232	0xbb664e79	-0.0035141988
233	0x39a96e4d	0.00032316372
234	0xba2287f2	-0.0006200067
235	0x3a9f7f8a	0.0012168747
236	0xba3d502a	-0.0007221723
237	0x3b285726	0.002568671
238	0x3af7fd72	0.0018920137
239	0x3afa9aca	0.0019119617
240	0xb9e0a40f	-0.00042846843
241	0x3a98a537	0.0011645918
242	0x3b8c4aa6	0.0042813597
243	0x39e9d98c	0.00044603308
244	0x38baaa90	8.900941e-05
245	0x3abe1ad9	0.0014503851
246	0x39aee3aa	0.0003335749
247	0x3a76c8f1	0.0009414098
248	0xb9ad627a	-0.00033070502
249	0xbb2481e4	-0.0025101835
250	0xbabee911	-0.0014565309
251	0xbb213981	-0.0024600925
252	0x3863f8c0	5.4352684e-05
253	0xbb8e7262	-0.0043471316
254	0x3ab008c5	0.0013430348
255	0x3b8c735f	0.0042862142
