mechinterp_research_project/models/sparse_probes/pythia-1.4b/reg_lambda1.2616612944575138/gpt_neox.layers.11.mlp.act.pt (torch, 34506 bytes, 1 tensors)

linear.weight f4 [1, 8192]
-0.00057289173 0.0002900809 -0.00029303876 0.0005875889 -0.00040878935 0.000105886385 -0.00016773093 -0.0010519483
-8.840509e-06 -0.00046321962 -0.00048450613 -0.0005547662 0.0004186525 0.00024138484 -0.0010819614 -0.00033343112
0.00073068426 -0.0006142163 0.00047832442 0.00012787386 -0.00094080635 -0.0006130788 -0.00047615735 0.0005414404
0.0006283264 0.0012437243 0.0003425551 -0.0005615285 -0.000105949264 -0.000994967 -0.00052955933 -0.0010666591
0.00055842573 -0.0005487006 -0.0007505484 0.0005709371 -0.00020262283 0.00071443117 -0.00032882325 -0.0011090507
0.00045090436 -0.0009243142 -0.00013498953 -0.0018761088 0.0007931367 -0.00048358613 0.00010767595 0.00031112332
-0.00040844732 -0.00031875967 -0.0004612566 -0.0007029501 -0.00026088298 -0.00054453564 0.00042940254 2.7176222e-05
-0.0003905456 0.00041426357 0.00085331645 0.00028225838 0.00065291446 -9.420842e-05 3.3753848e-05 -0.0010158418
0.000363059 -3.1395717e-05 -0.0002056868 -0.00034004587 -0.0012215134 -0.000868172 -0.00070930494 -0.0009946527
-0.00086781784 -0.00065709115 -0.00048272935 2.1379446e-05 -0.0007917619 0.000121223115 -0.00010318396 0.00039155685
0.00035586688 -0.0012746282 -0.000530858 -0.00033759524 -0.00060743286 0.0002141584 0.0015524753 0.0006389706
0.00043140477 -0.000751667 -0.00033773456 -0.0009806796 -0.00044758554 -0.00013943337 0.0004392967 -0.00041692817
-0.00056757557 0.000999607 -0.0001453564 0.00023476154 -0.00063471467 -0.00035015552 -0.0004143997 0.00052917085
-0.00032250807 9.807509e-05 -0.0007064813 -0.0013002066 -0.0008263498 -0.0007486042 0.00042325084 0.00015521764
-0.00010024285 -0.00045353023 -0.0005720012 -0.0013268793 0.00074692036 0.0019165153 -0.0010265204 -0.00078308815
0.00068916555 -0.00071571534 5.3644537e-05 -0.0003853759 0.00027170332 0.00029887955 -0.00088806247 -5.6722907e-05
0.0003003288 -0.0005248812 0.000554098 -0.0011605624 -0.0004817027 0.0007150376 8.6138956e-05 -0.0010360772
-0.0005329517 -0.00023313532 5.948056e-05 -0.0017313163 -0.00031684752 0.0003634544 -0.0026351975 -0.0016401832
-0.0010504434 0.000107721724 0.00010317313 -0.0009811198 -0.0012249774 -0.00031463508 -0.0007453272 0.0011210641
-1.9430268e-05 0.0005104235 0.00024310323 -0.0002700126 -0.00027964695 -0.00019815857 -0.0005633375 -0.00014008342
-0.00012978626 -0.00012698953 0.000514928 -0.0002798911 -0.00075373426 -0.00063630746 -0.0017699802 -0.0004318308
-0.0028038465 2.2599843e-05 -0.0006791271 -0.0012066255 -0.00018243214 -0.0004335098 0.0010377603 -0.0004848007
-0.00020193117 -0.00024105559 -0.00059953233 -0.0009540264 -0.00024717062 -0.0029748417 -0.0009796856 -0.0004154102
-0.0011151608 -0.0002757263 0.00049289194 -0.0014008011 -0.0003662145 0.0004167974 -5.3484826e-05 -0.00027791914
2.2279923e-05 -0.00054648356 3.413464e-05 -0.0012470953 -6.32534e-05 -0.00080647966 -0.0002793967 -7.987447e-06
0.0017198892 0.0002005627 7.4094914e-06 -0.00023930933 -0.00033836186 -0.000309905 -0.00025243202 -0.00019272191
-0.00049795414 -0.00031686126 0.00017767401 -0.0003230815 0.00031610596 -0.00013262099 -0.00038027053 -0.00028017347
-0.001172078 -0.0007807006 -0.00038538227 -0.00029789633 -0.0012959415 0.0002638782 -0.0003229882 -0.0022969139
-0.00035592215 2.7442371e-05 -0.0018408386 0.00015915916 -0.001249157 -0.0005072673 0.0006698661 -0.001616653
-0.00012871454 -0.00066755444 9.135184e-05 0.00032980935 -0.0002795351 -0.00036247144 -0.0005151734 0.00032659262
0.0003766839 3.173427e-05 0.00022424736 -0.00027415704 -0.00038125445 -0.00044716138 -5.565537e-05 0.0006441222
4.2044954e-05 -0.00036114428 -0.0004947719 -0.000604318 -0.00072466093 0.0001681545 -0.00038828325 0.0006824559
00000000: 1d2e 16ba 0016 9839 ffa2 99b9 6c08 1a3a
00000010: c752 d6b9 520f de38 eee0 2fb9 87e1 89ba
00000020: b251 14b7 49dc f2b9 5005 feb9 bb6d 11ba
00000030: 967e db39 401c 7d39 9ad0 8dba 5ed0 aeb9
00000040: 648b 3f3a 5c03 21ba 9ec7 fa39 e115 0639
00000050: 72a0 76ba 06b7 20ba c2a4 f9b9 73ef 0d3a
00000060: 45b6 243a 7604 a33a f898 b339 8a33 13ba
00000070: 1431 deb8 8d69 82ba 20d2 0aba 24cf 8bba
00000080: 5163 123a add6 0fba 73c0 44ba f1aa 153a
00000090: 2777 54b9 aa48 3b3a e965 acb9 915d 91ba
000000a0: 5c67 ec39 ad4d 72ba fa8b 0db9 c4e7 f5ba
000000b0: 81ea 4f3a d589 fdb9 16d0 e138 441e a339
000000c0: df24 d6b9 331f a7b9 d0d4 f1b9 2f46 38ba
000000d0: 1fc7 88b9 2bbf 0eba 6f21 e139 7ef8 e337
000000e0: 25c2 ccb9 8431 d939 19b1 5f3a 14fc 9339
000000f0: 5928 2b3a c391 c5b8 eb92 0d38 ff25 85ba
00000100: f458 be39 e5ae 03b8 a1ad 57b9 2f48 b2b9
00000110: 301b a0ba 0996 63ba a6f0 39ba 025f 82ba
00000120: 457e 63ba a440 2cba d616 fdb9 0358 b337
00000130: 3e8e 4fba 2a39 fe38 7764 d8b8 df49 cd39
00000140: a593 ba39 6d11 a7ba 4729 0bba 44ff b0b9
00000150: 213c 1fba b58f 6039 6d7c cb3a 9780 273a
00000160: 2b2e e239 850b 45ba f711 b1b9 268a 80ba
00000170: eaa9 eab9 dc34 12b9 6851 e639 2797 dab9
00000180: 5ac9 14ba 3f05 833a d06a 18b9 522a 7639
00000190: fb62 26ba 1495 b7b9 c943 d9b9 0eb8 0a3a
000001a0: 4d16 a9b9 aaad cd38 2833 39ba b26b aaba
000001b0: 659f 58ba fa3d 44ba c4e7 dd39 ebc1 2239
000001c0: 7839 d2b8 ccc7 edb9 5af2 15ba aeea adba
000001d0: facc 433a 9533 fb3a 4f8c 86ba 2848 4dba
000001e0: 1ea9 343a d89e 3bba 6200 6138 470c cab9
000001f0: 6773 8e39 efb2 9c39 ddcc 68ba c2e9 6db8
00000200: 7375 9d39 2e98 09ba e340 113a 031e 98ba
00000210: 0b8d fcb9 5c71 3b3a 80a5 b438 fbcc 87ba
00000220: c8b5 0bba c975 74b9 c47a 7938 56ed e2ba
00000230: 8e1e a6b9 068e be39 47b3 2cbb 6afb d6ba
00000240: 08af 89ba a9e8 e138 a75e d838 eb98 80ba
00000250: 6c8f a0ba 9bf5 a4b9 1062 43ba abf0 923a
00000260: 2ffe a2b7 f1cd 053a 87e9 7e39 7a90 8db9
00000270: 949d 92b9 c9c8 4fb9 f1ac 13ba 5be3 12b9
00000280: 3c17 08b9 7e28 05b9 3cfc 063a 59be 92b9
00000290: 4096 45ba dfcd 26ba aefe e7ba 5967 e2b9
000002a0: bdc0 37bb cb94 bd37 7307 32ba a227 9eba
000002b0: 414b 3fb9 b348 e3b9 7505 883a d92c feb9
000002c0: 7cbd 53b9 dec3 7cb9 ef29 1dba a117 7aba
000002d0: ae96 81b9 90f5 42bb cb68 80ba 6acb d9b9
000002e0: 962a 92ba 5c8f 90b9 6b35 013a 169b b7ba
000002f0: 7a00 c0b9 9a85 da39 e554 60b8 adb5 91b9
00000300: c5e5 ba37 e441 0fba ca2b 0f38 9375 a3ba
00000310: e9a6 84b8 ef69 53ba fe7b 92b9 d301 06b7
00000320: e86d e13a 244e 5239 0c9f f836 1cef 7ab9
00000330: 2966 b1b9 bf7a a2b9 da58 84b9 6515 4ab9
00000340: 2389 02ba 6620 a6b9 014e 3a39 4463 a9b9
00000350: 06bb a539 2d10 0bb9 0c5f c7b9 3fe4 92b9
00000360: 69a0 99ba eea7 4cba 220d cab9 f82e 9cb9
00000370: 95dc a9ba 2259 8a39 be56 a9b9 d287 16bb
00000380: 109b bab9 0b34 e637 4b48 f1ba f6e3 2639
00000390: c1ba a3ba 22fa 04ba f499 2f3a e0e5 d3ba
000003a0: 8cf7 06b9 d2fe 2eba 2594 bf38 43ea ac39
000003b0: 918e 92b9 180a beb9 b40c 07ba 853a ab39
000003c0: a87d c539 6a1a 0538 f123 6b39 bcbc 8fb9
000003d0: 1be3 c7b9 fc70 eab9 806f 69b8 4fda 283a
000003e0: 6d59 3038 f757 bdb9 95b3 01ba 186b 1eba
000003f0: 2cf7 3dba a152 3039 7f92 cbb9 d7e6 323a
