mechinterp_research_project/models/sparse_probes/pythia-1.4b/reg_lambda1.2616612944575138/gpt_neox.layers.13.mlp.act.pt (torch, 34506 bytes, 1 tensors)

linear.weight f4 [1, 8192]
00000000: c974 b03a c6fa 37ba 8ae7 b039 f269 5d3a
00000010: 4451 f6b8 2107 07bb 0abd adb9 0e92 11ba
00000020: 1ba9 15ba 1aa5 7d38 13c3 bcb9 824a 0ab9
00000030: cf48 843a e719 36b9 e2c5 d239 f5f4 fbb7
00000040: 7ef2 fbb9 84ee 2839 244b 10b9 b923 f839
00000050: d168 5dba 0cdc 55ba 544c 9139 a807 103a
00000060: 0ec8 0e39 4ae6 8438 0890 87ba 4004 6eba
00000070: 6f90 e9ba 98cf e6b9 d143 17b9 94a5 49ba
00000080: cba7 66ba 2e59 7d3a 9d08 0538 1935 2cbb
00000090: 852b 55b9 e22e 7b38 6885 51ba 1c03 65ba
000000a0: 0502 9d39 07a7 67bb 9391 a6b9 1c7b 2cba
000000b0: 4b74 09ba bde7 b3ba 1a84 bc39 c734 0dba
000000c0: 54dd 6538 ef17 12b9 8286 e4b9 9c45 92b9
000000d0: fce1 f7b9 2f41 a1b9 98c7 3639 aed3 413a
000000e0: 634b 43b9 8ac0 beb9 1fbf a6ba 1be8 22ba
000000f0: c208 ecb9 b4d0 21b8 f6f4 373b fe3e 6ab9
00000100: b812 cab6 aa6d 67b9 a232 72ba d6f6 deb9
00000110: fdf8 9738 d794 e239 0e53 0039 88ad 58ba
00000120: 2aec c9b8 7c5f 1b3a ea99 0439 56d8 81ba
00000130: e619 6aba 420d 16b9 abe3 2aba 1980 bdba
00000140: c789 12ba 8af4 2f38 a4ef adb9 aaae 183a
00000150: c2f1 b4b9 aeec efba 3329 18ba 3056 35ba
00000160: 4118 cdb9 6679 13ba 52c5 0838 fedd 50b9
00000170: a16f 4ebb 524c fdb9 dabe d3bb 3532 a8b9
00000180: e78a f1b9 6257 403a 6621 e73a df0c 73b9
00000190: 132d b43a 4828 7eba 7a03 c4b8 a8d1 99ba
000001a0: 08ee 3bb9 3504 99ba ae72 23b9 10d7 edb7
000001b0: fb62 e838 352d ad3a 9b03 a7b9 72be 91ba
000001c0: 6e5f 553a 31c4 87b9 3f44 1fb8 6d35 1db4
000001d0: 8f4f ac38 5ee7 03ba 4daf e2b9 ec17 213a
000001e0: dcf7 3eba 73f8 13bb b801 aeb9 241c 1639
000001f0: dbc3 e0ba dd7c 9039 c8f4 2dba 5b7c 883a
00000200: 2031 ce38 e31d 67ba 25be 83b8 8020 8bb9
00000210: 4cdc 30ba 312d 31ba b3bd f3b7 ada7 63ba
00000220: 8f4d 99b9 a1c6 e538 2de3 9eb9 ece7 7d3b
00000230: 2134 93ba 847f c9ba f9c5 d2ba a9f9 d0ba
00000240: c199 f8b9 e302 283a 288f c1ba 0eed 5bba
00000250: 07a1 c8b8 92ea eaba d293 b73a 5088 033a
00000260: 3489 0eba 0e86 82b9 9a4a 10bb d0e1 82ba
00000270: d829 02ba c220 013a a0fc 04ba 6597 db38
00000280: f30d 25ba b45a 7bba 2a22 44ba acb9 c9b9
00000290: 2151 31ba 3df4 b2b9 6b49 30b9 8c7a 2d3b
000002a0: 2f48 cd3a e9e5 51b9 11ba 3bba 6a12 553a
000002b0: 8853 9cba 8900 b9b9 fb69 70b9 5f54 3b3a
000002c0: f076 c237 ec08 0939 a259 00ba c796 2339
000002d0: 7720 0339 d2cf b839 0a4f 3cba 435b 2ab9
000002e0: 1ed3 53b9 e1b3 b7ba 7c7a ba3a 4e95 3f3a
000002f0: c639 da38 fc47 81ba 82bc 47ba 92d4 37b7
00000300: 97fa 60ba 2324 cc38 8fce 2aba 849d 1d3a
00000310: e562 86b9 b17d e8ba 2d48 13ba 843b 3a3b
00000320: 7e3e 513a 24e7 bd38 9a55 33ba 2db4 d8b9
00000330: e48c 90ba a5a0 2aba a14e 0eba a749 9aba
00000340: 1d2d 99ba aba7 94b9 0af1 84ba 0e63 a7b9
00000350: 4275 7eba d5f1 90ba d79d 043b 54f6 3eb8
00000360: a92d 9d3a af37 3cba 14ad 7bbb bc22 2eb9
00000370: 00cc 87b9 1935 81ba 3cbd fb39 62e9 1539
00000380: 48a3 d0b9 ced3 53bb b913 e4ba d975 f83a
00000390: 4cad 4eba d3b2 07b9 82ee f3b9 63d5 a4ba
000003a0: 16c5 ddba 7194 b4b9 4c7e e3b9 203f 75bb
000003b0: 57d8 0f3a 1df6 fa3a 8ae7 0838 bdf4 b6b9
000003c0: afc8 5bba f8ca 4c3a b1bb 5b3a afdb 92b8
000003d0: f1c8 833a 388a 4939 822b c1b9 2db8 b0bb
000003e0: 6fd0 96ba a570 8cb9 ed7e 2238 f406 6d3a
000003f0: 6243 71ba d13d 93ba c69b 4fb9 ab95 04bb
0.0013462539 -0.0007018264 0.00033741846 0.0008446268 -0.00011745331 -0.0020603614 -0.00033137976 -0.0005553075
-0.00057090976 6.0473663e-05 -0.00036003496 -0.00013188462 0.00100925 -0.00017366522 0.00040201755 -3.0035599e-05
-0.0004805512 0.00016110583 -0.00013760902 0.00047328862 -0.00084461 -0.0008158095 0.00027713424 0.0005494305
0.00013616701 6.337145e-05 -0.0010342607 -0.0009079613 -0.0017819534 -0.00044023688 -0.00014425746 -0.00076922146
-0.0008798807 0.0009664473 3.1717693e-05 -0.0026276766 -0.00020329475 5.9886726e-05 -0.00079925964 -0.000873612
0.00029946878 -0.0035347359 -0.0003177045 -0.0006579624 -0.0005243464 -0.001372568 0.00035956578 -0.00053865876
5.4803982e-05 -0.00013932561 -0.00043587765 -0.00027899153 -0.00047279883 -0.0003075688 0.00017431227 0.00073939085
-0.00018624733 -0.00036383077 -0.0012721753 -0.0006214396 -0.00045019953 -3.857976e-05 0.0028069592 -0.00022339445
-6.0222483e-06 -0.0002207073 -0.0009239112 -0.00042527047 7.246619e-05 0.00043216973 0.00012237972 -0.0008265604
-9.628416e-05 0.0005927009 0.00012645838 -0.0009906392 -0.0008930251 -0.00014310054 -0.00065189105 -0.0014457732
-0.00055899884 4.1950996e-05 -0.00033175678 0.0005824367 -0.000345124 -0.0018304789 -0.0005804479 -0.0006917445
-0.00039118718 -0.0005625695 3.2608696e-05 -0.00019919124 -0.0031499641 -0.00048312783 -0.0064619603 -0.00032080864
-0.00046070592 0.000733724 0.0017633855 -0.00023179081 0.0013746343 -0.00096953334 -9.346656e-05 -0.0011735456
-0.00017922383 -0.0011674227 -0.00015587613 -2.8352748e-05 0.000110810586 0.0013212325 -0.00031855408 -0.0011119379
0.00081395253 -0.0002589538 -3.7972113e-05 -1.46412e-07 8.216418e-05 -0.000503173 -0.00043236688 0.0006145227
-0.0007284859 -0.0022578507 -0.00033189147 0.00014315598 -0.0017148213 0.0002755885 -0.00066359015 0.0010413037
9.831996e-05 -0.0008816404 -6.281984e-05 -0.0002653636 -0.0006746694 -0.0006758748 -2.9056193e-05 -0.00086843484
-0.0002924022 0.000109565684 -0.00030305368 0.0038742973 -0.0011230746 -0.0015373086 -0.0016080729 -0.0015943545
-0.00047416802 0.00064091216 -0.0014767395 -0.0008389511 -9.566737e-05 -0.0017922691 0.0014005846 0.00050175656
-0.0005437315 -0.0002489541 -0.0022017122 -0.000998551 -0.00049653416 0.0004925841 -0.00050730444 0.00010470933
-0.0006296329 -0.0009588406 -0.00074818975 -0.00038476044 -0.00067641033 -0.00034132777 -0.00016812018 0.0026470749
0.0015661771 -0.00020017441 -0.000716121 0.0008128049 -0.001192675 -0.00035286348 -0.00022927664 0.0007146056
2.3181987e-05 0.00013068662 -0.0004896169 0.0001560106 0.00012505228 0.00035250053 -0.00071834086 -0.00016246461
-0.00020201175 -0.00140154 0.0014227177 0.000730832 0.00010405811 -0.0009863372 -0.00076193374 -1.0957143e-05
-0.00085822627 9.734209e-05 -0.0006515765 0.00060125464 -0.00025632154 -0.0017737654 -0.000561836 0.0028416822
0.00079820293 9.0552756e-05 -0.0006841064 -0.00041332972 -0.0011028317 -0.0006508923 -0.0005428587 -0.0011771218
-0.0011686418 -0.00028353682 -0.0010142636 -0.00031926524 -0.0009706804 -0.00110584 0.0020235681 -4.552894e-05
0.0011991757 -0.00071799284 -0.0038402723 -0.00016606873 -0.00025901198 -0.0009857743 0.0004801544 0.00014296689
-0.00039794506 -0.003232229 -0.0017400897 0.001895602 -0.00078840996 -0.0001294122 -0.00046526274 -0.0012575801
-0.0016919698 -0.00034442873 -0.00043390912 -0.0037421659 0.0005487254 0.0019146834 3.2640564e-05 -0.0003489609
-0.0008384091 0.0007812227 0.0008382155 -7.002742e-05 0.0010054392 0.00019220344 -0.00036844244 -0.005393049
-0.001150621 -0.00026786808 3.874202e-05 0.00090418686 -0.0009203461 -0.0011233633 -0.00019799088 -0.002023081
