mechinterp_research_project/models/sparse_probes/pythia-1.4b/reg_lambda1.2616612944575138/gpt_neox.layers.9.mlp.act.pt (torch, 34500 bytes, 1 tensors)

linear.weight f4 [1, 8192]
-0.00039054247 7.1464938e-06 -5.980695e-05 -0.0004939697 -0.00045853213 0.0013824092 -0.002409024 -5.6535246e-05
0.000733769 -4.5082223e-05 -0.00012686416 0.00033760525 0.0006283761 -0.0006232343 -0.00022111765 0.0003133038
0.000549244 -0.00066432066 -6.40275e-05 4.5875197e-05 -0.0007173114 -0.001968246 -0.0007447291 -0.0020626266
3.1861368e-06 0.00014054582 -9.422298e-05 -0.001639346 -5.7246147e-05 -0.0017972568 -0.00038555957 2.6735728e-05
-0.00021798017 -0.0010959657 0.0003692094 -0.00033127452 -0.00023308149 0.0005310192 -0.0005466102 -0.00048023567
0.00015277676 -0.0014558545 -0.0008174267 0.0008559306 -6.5114764e-05 -9.035806e-06 -0.0002911875 0.00082853646
-0.0012398581 0.0005187416 0.00077498576 -0.0001483389 0.00044006918 -0.0006477571 0.00023344056 7.1278024e-05
-0.0009227731 0.00050770683 -0.0014698051 -0.0013408335 -0.0012327883 -0.000494536 0.0003226527 -0.00019283632
-0.0005743273 -6.6975925e-05 -0.00017843989 9.39506e-05 -0.00039209196 -0.0009078168 0.00023783252 -0.000419315
-0.00017216493 3.8206923e-05 -0.00015938132 -0.00055002177 -0.00044853563 0.00044523404 -0.00075080723 -0.00025298112
0.0004671006 6.97692e-05 -0.0006885639 9.150434e-05 -0.0005110439 -0.0006352031 -0.0006401905 -0.00017920548
-4.1762058e-05 5.4495664e-05 0.00021442522 -0.0009140881 0.0009343959 0.0005451812 0.00045666136 -0.00032094587
-0.0002417098 -0.00039396246 -0.00067412626 -0.0017408816 0.00022062883 -0.00052378763 0.0006731869 -0.00010613831
0.0002057888 -0.0004121655 0.00047922556 -0.00045205135 -0.00040436749 0.00016986151 -0.0004788197 0.0014695225
-0.0010716208 -0.002051916 -0.00029219885 0.00028513937 -0.000111378184 1.0065983e-05 -1.981455e-06 0.0004505385
0.0005086404 -0.00018339379 -0.0012685594 -0.00017455054 -0.0015939805 -0.0005028385 -0.00023929182 0.00013429407
0.0005339071 -0.0008147322 2.4832103e-05 0.00020547568 0.0043811454 -0.00065260014 0.00059359777 0.00017782985
0.0002637526 -0.0006187353 0.00081631105 -0.00014650202 0.00071504654 -0.00016059163 0.0005540883 0.0004798065
-0.0007132256 -1.8339213e-05 -0.00044667508 -0.00059047015 -0.0007162444 0.00030734995 -0.00028398036 -0.0005105588
0.001061128 -0.0005618133 -1.0047744e-05 -0.0013893502 0.00092572806 -0.00045009423 -0.00024028448 -0.00019680243
-8.815504e-05 0.00024950507 0.00018933648 0.00014144306 2.080489e-05 -0.00017517782 -0.00035647815 1.4061994e-05
-0.00019113926 -0.00014395083 -6.119321e-05 -0.0010702614 0.0013228538 -0.00052625913 -0.00024125559 2.0978752e-05
-0.00038071437 2.354014e-05 -8.216336e-05 0.00033901905 0.00021202325 0.00037079063 -0.00020222976 0.00026179012
0.00015931425 0.00088791904 -0.00017266415 0.0003148463 -0.00022614661 0.00048432098 -0.00023338963 -0.00016456576
-0.0011805769 0.00036412576 0.00032407054 -0.00035846056 -0.000116320625 0.0003732971 -0.00028579737 -0.00025725213
-0.00011593798 0.00037847494 -0.0006981469 -0.00020906913 -8.137247e-05 -0.0013816173 -0.00035304212 -0.0021376184
-0.00029830454 0.0006078519 -0.0010752062 -0.0002511214 0.00041311918 9.6712625e-05 0.0002592972 -0.0007244439
-0.00047859628 4.6675385e-05 0.00026546087 -0.0007631289 0.00041276758 -0.0002189858 0.00010410469 -0.00082762504
0.00033168716 -0.00024199979 -0.0002587319 0.00035013695 -0.00030296991 -0.00011593688 -0.00046862417 -0.0003402476
0.0006824887 -0.00063530955 0.0003491349 -0.00044615715 -0.00042643174 0.0010649607 -0.00014505039 -0.00073434174
-2.3084534e-05 0.00013167775 0.00038822205 -0.0007497038 0.00030957186 -0.00028553823 -0.00019292244 -0.0004700046
-0.0007053357 -9.158899e-05 3.287065e-05 -0.00046960035 0.0011139446 0.00033681773 -0.0001448119 0.00023090834
00000000: b9c1 ccb9 eacb ef36 39d9 7ab8 bf7d 01ba
00000010: 2467 f0b9 f531 b53a b7e0 1dbb 4220 6db8
00000020: 675a 403a ab16 3db8 d706 05b9 9c00 b139
00000030: 9bb9 243a 8c60 23ba d1db 67b9 ed42 a439
00000040: 24fb 0f3a ce25 2eba 8146 86b8 1e6a 4038
00000050: f409 3cba b0fd 00bb ed39 43ba 222d 07bb
00000060: 6ad1 5536 7b5f 1339 9499 c5b8 53df d6ba
00000070: 951b 70b8 ee91 ebba ee24 cab9 8a46 e037
00000080: 9b91 64b9 82a6 8fba 7292 c139 eaae adb9
00000090: 5667 74b9 1834 0b3a 644a 0fba 24c8 fbb9
000000a0: b332 2039 5fd2 beba 9448 56ba 8860 603a
000000b0: 398e 88b8 7e98 17b7 86aa 98b9 2432 593a
000000c0: bc82 a2ba 29fc 073a 6a28 4b3a 6c8b 1bb9
000000d0: 16b9 e639 3ece 29ba b9c7 7439 197b 9538
000000e0: 41e6 71ba a117 053a 7aa6 c0ba e8be afba
000000f0: 8395 a1ba c0a3 01ba b629 a939 1b34 4ab9
00000100: 748e 16ba 6d75 8cb8 981b 3bb9 5807 c538
00000110: b191 cdb9 8efa 6dba ae62 7939 82d7 dbb9
00000120: 2c87 34b9 5f40 2038 991f 27b9 562f 10ba
00000130: 6f29 ebb9 4d6e e939 d2d1 44ba 8da2 84b9
00000140: 2ee5 f439 0e51 9238 be80 34ba 05e6 bf38
00000150: 93f7 05ba c283 26ba 75d2 27ba 1be9 3bb9
00000160: ab29 2fb8 4692 6438 55d7 6039 6a9f 6fba
00000170: 3ff2 743a 7eea 0e3a 0d6c ef39 a044 a8b9
00000180: 7b73 7db9 bf8c ceb9 d9b7 30ba 4b2e e4ba
00000190: 9a58 6739 cb4e 09ba cf78 303a 9296 deb8
000001a0: 03c9 5739 eb17 d8b9 9140 fb39 4e01 edb9
000001b0: 4901 d4b9 da1c 3239 180a fbb9 fe9c c03a
000001c0: a175 8cba 7079 06bb 4432 99b9 c27e 9539
000001d0: b593 e9b8 11e1 2837 23f9 04b6 4136 ec39
000001e0: 4856 053a 654d 40b9 ca45 a6ba 8e07 37b9
000001f0: 1ced d0ba ecd0 03ba 69ea 7ab9 4ad1 0c39
00000200: e6f5 0b3a c193 55ba 894e d037 f574 5739
00000210: b68f 8f3b 4113 2bba ac9b 1b3a d677 3a39
00000220: 4648 8a39 a032 22ba b5fd 553a 569e 19b9
00000230: f671 3b3a 7d64 28b9 3d40 113a 8a8e fb39
00000240: c3f7 3aba 29d7 99b7 b72f eab9 c8c9 1aba
00000250: 59c2 3bba d023 a139 33e3 94b9 05d7 05ba
00000260: 8c15 8b3a a746 13ba bb92 28b7 db1a b6ba
00000270: 8fac 723a a0fa ebb9 e0f4 7bb9 c05c 4eb9
00000280: e0df b8b8 01d0 8239 a088 4639 5550 1439
00000290: 2986 ae37 f0af 37b9 b0e5 bab9 ceeb 6b37
000002a0: 8e6c 48b9 82f1 16b9 db54 80b8 0348 8cba
000002b0: 9c63 ad3a a7f4 09ba 8ef9 7cb9 87fb af37
000002c0: 9e9a c7b9 1178 c537 1e4f acb8 5ebe b139
000002d0: 8f52 5e39 ad66 c239 a30d 54b9 e040 8939
000002e0: 980d 2739 3dc3 683a 2e0d 35b9 f411 a539
000002f0: c521 6db9 76ec fd39 0dba 74b9 498f 2cb9
00000300: 96bd 9aba 22e8 be39 03e8 a939 c3ef bbb9
00000310: 29f1 f3b8 17b7 c339 13d7 95b9 ccdf 86b9
00000320: bb23 f3b8 0c6e c639 d803 37ba 9139 5bb9
00000330: 83a6 aab8 6217 b5ba 8318 b9b9 4917 0cbb
00000340: c265 9cb9 4058 1f3a efed 8cba f2a8 83b9
00000350: eb97 d839 32d2 ca38 48f2 8739 9be8 3dba
00000360: 1bec fab9 50c5 4338 8e2d 8b39 b70c 48ba
00000370: ba68 d839 8e9f 65b9 c852 da38 faf4 58ba
00000380: 4ce6 ad39 53c1 7db9 68a6 87b9 9692 b739
00000390: efd7 9eb9 2323 f3b8 acb1 f5b9 4363 b2b9
000003a0: 0be9 323a e78a 26ba 180c b739 33ea e9b9
000003b0: b392 dfb9 2796 8b3a ab18 18b9 d780 40ba
000003c0: a9a5 c1b7 fa12 0a39 488a cb39 c587 44ba
000003d0: 084e a239 4bb4 95b9 394b 4ab9 f36a f6b9
000003e0: 47e6 38ba 7713 c0b8 97de 0938 b134 f6b9
000003f0: c701 923a e996 b039 a6d8 17b9 fc1f 7239
