mechinterp_research_project/models/sparse_probes/pythia-1.4b/reg_lambda1.2616612944575138/gpt_neox.layers.3.mlp.act.pt (torch, 34500 bytes, 1 tensors)

linear.weight f4 [1, 8192]
-0.00015581526 -5.2325388e-05 -0.00018717752 6.158251e-05 0.0001570171 -7.913714e-05 -2.3054732e-05 -8.129697e-05
4.9833576e-05 -2.4746003e-05 -0.00010021998 -0.00013250751 -5.3306187e-05 3.1414904e-05 3.1892745e-05 -3.7345344e-05
1.801991e-05 2.1704043e-05 0.00015143979 -7.2548764e-06 2.2078179e-05 -0.00022924805 2.306308e-06 5.7001977e-05
-0.00010570458 0.00010471776 -0.000104844316 3.7369387e-05 6.073538e-05 -4.3855343e-05 5.9763104e-05 0.00018189946
8.3306615e-05 -2.0427342e-05 -9.109457e-05 -0.00012060598 4.4605513e-05 -9.27048e-05 -0.00030912072 1.3439342e-05
-0.0002426218 -0.00012896207 -6.847904e-05 8.433109e-05 -3.4654477e-05 -0.00013420403 -6.8941816e-05 1.5598804e-06
0.00012348918 -8.703669e-05 -0.00014573103 -0.0007530541 6.808832e-05 5.6604607e-05 7.2434e-05 -0.00023413902
-8.2412604e-05 0.00014060119 -0.0001938189 0.00015888995 -0.00013770534 -6.627473e-05 2.6529216e-05 3.9940263e-05
-8.73118e-05 -0.00030922203 9.336562e-05 -4.851402e-05 -0.00012789843 -5.985001e-05 9.153695e-05 -5.942825e-05
3.0110848e-05 0.00012646052 -6.4159967e-06 -1.7389048e-05 2.4877572e-05 7.686371e-06 -0.00018143945 9.804765e-05
3.8111448e-05 9.751794e-05 3.6263332e-06 9.2441725e-05 4.9818438e-05 -3.8048725e-05 0.00012266806 -1.8317136e-05
-1.4063884e-05 1.7434062e-05 -2.9519848e-05 -0.0003216082 7.1281165e-06 -0.0001288992 -1.563733e-05 0.00017773063
3.1993874e-05 2.0835175e-08 -0.00018706391 9.56519e-05 -0.00020127498 0.00011837808 7.2988994e-05 -0.00015637623
-0.00041597645 -5.7181624e-05 -2.1966001e-05 9.912635e-05 9.206077e-05 -0.00021292506 7.711947e-05 2.589853e-07
-0.00013889841 -0.00011529203 -0.0001408201 3.4697834e-05 0.00010192254 0.00014239563 2.1002244e-05 2.0647258e-05
3.916971e-05 -3.35608e-05 6.8170557e-06 6.997883e-05 7.532814e-05 8.080875e-05 2.8904275e-05 0.00012453392
-3.075847e-05 4.938926e-05 -5.014953e-05 0.0001059427 -0.000103123355 -4.6716814e-06 2.996771e-05 8.34243e-05
6.718334e-05 -6.2169995e-05 3.7901136e-05 -6.497671e-05 9.2997696e-05 9.7093536e-05 5.86692e-05 7.6614204e-05
-8.576429e-05 -0.00015559529 -0.00011190775 2.4529952e-05 5.4933273e-05 0.00015520061 -3.8336784e-05 -2.6615955e-06
-0.00013973675 1.2765257e-05 -0.00020506776 -9.405505e-05 -7.735794e-05 0.00013387279 0.00018887853 -4.0374336e-05
0.00016799246 1.08006825e-05 -7.201021e-05 -9.0503614e-05 0.00010379782 -8.188135e-05 -4.579164e-05 0.00010495675
-6.4162545e-05 3.515179e-05 8.612225e-05 -9.178862e-05 -9.919016e-05 -3.312675e-05 0.00010570171 0.00019662982
-7.5901175e-05 -0.00044910135 -1.1322792e-05 5.1402512e-05 -4.865001e-05 -2.6321948e-05 0.00015539536 4.5333047e-05
6.309405e-05 0.00012254376 0.00017607589 1.8804987e-05 0.00010890607 -0.00018081392 -2.4583629e-05 4.0380906e-05
0.00011017591 0.00010306824 -4.7525205e-05 -4.2130763e-05 -1.1059454e-05 -8.6391236e-05 0.00016984483 7.9129124e-05
-0.00051268144 6.444245e-05 5.3851283e-05 -0.000111077214 -1.6854168e-05 2.7296976e-05 9.3478244e-05 7.0354006e-05
-0.00015814159 -2.5735944e-05 -0.0001298737 4.3822474e-05 7.8468497e-07 -0.00012500296 1.1084427e-05 9.823309e-05
0.00011320083 -2.560365e-05 4.244468e-05 0.00014133488 -5.280669e-05 -1.986972e-05 -4.2141684e-05 -0.0003333587
5.96053e-06 -1.7319666e-05 -0.00018552518 -0.00013019345 -0.00010121893 9.582513e-05 -2.460426e-05 -4.3843214e-05
9.45678e-05 1.251551e-06 5.5279805e-05 -9.718054e-05 4.7505887e-06 6.6297776e-05 7.7324206e-05 4.5374894e-05
0.00016289158 7.626668e-05 0.0001325349 6.235939e-05 -9.5289426e-05 -4.6244964e-05 0.00013689768 -1.1190607e-05
-3.5025056e-05 -5.2340815e-06 -1.3208405e-05 -8.2087216e-05 0.0001462717 -1.645514e-05 -0.00048454758 -0.00013099117
00000000: 5762 23b9 f577 5bb8 1545 44b9 dc25 8138
00000010: f5a4 2439 6ef6 a5b8 a965 c1b7 fa7d aab8
00000020: 6504 5138 a395 cfb7 312d d2b8 b7f1 0ab9
00000030: 1595 5fb8 7fc3 0338 93c4 0538 42a3 1cb8
00000040: 7629 9737 1411 b637 cfcb 1e39 ea6e f3b6
00000050: 8734 b937 4e62 70b9 12c6 1a36 6815 6f38
00000060: b7ad ddb8 eb9b db38 dddf dbb8 13bd 1c38
00000070: 1ebe 7e38 51f1 37b8 25aa 7a38 44bc 3e39
00000080: e6b4 ae38 625b abb7 060a bfb8 d8ed fcb8
00000090: ce16 3b38 836a c2b8 7b11 a2b9 8979 6137
000000a0: 4b68 7eb9 fe39 07b9 689c 8fb8 e9da b038
000000b0: f659 11b8 1fb9 0cb9 db94 90b8 155d d135
000000c0: e07c 0139 7887 b6b8 60cf 18b9 9b68 45ba
000000d0: a3ca 8e38 bc6a 6d38 b5e7 9738 3783 75b9
000000e0: eed4 acb8 586e 1339 dd3b 4bb9 b29b 2639
000000f0: ff64 10b9 fafc 8ab8 0f8b de37 8885 2738
00000100: 2a1b b7b8 141f a2b9 49cd c338 887b 4bb8
00000110: 791c 06b9 7507 7bb8 87f7 bf38 9942 79b8
00000120: 8e96 fc37 7d9a 0439 fe48 d7b6 b2de 91b7
00000130: 2eb0 d037 b6f4 0037 c840 3eb9 ee9e cd38
00000140: dbd9 1f38 8c82 cc38 ee5b 7336 46dd c138
00000150: 24f4 5038 8296 1fb8 75a0 0039 c0a7 99b7
00000160: ecf3 6bb7 5d3f 9237 64a1 f7b7 869d a8b9
00000170: 0e2e ef36 1e29 07b9 e92c 83b7 345d 3a39
00000180: 2931 0638 09f9 b232 9626 44b9 b998 c838
00000190: 570d 53b9 bf41 f838 ab11 9938 edf8 23b9
000001a0: 6a17 dab9 4dd6 6fb8 a143 b8b7 0ee2 cf38
000001b0: c010 c138 a344 5fb9 33bb a138 ab0a 8b34
000001c0: 42a5 11b9 f0c8 f1b8 1ca9 13b9 8488 1138
000001d0: 3fbf d538 0950 1539 fa2d b037 a633 ad37
000001e0: 284a 2438 a2c3 0cb8 10be e436 99c1 9238
000001f0: 7df9 9d38 de77 a938 7577 f237 5295 0239
00000200: a802 01b8 5027 4f38 a657 52b8 8e2d de38
00000210: ee43 d8b8 70c1 9cb6 2b63 fb37 14f4 ae38
00000220: c8e4 8c38 4361 82b8 09f8 1e38 1b44 88b8
00000230: c207 c338 b29e cb38 9313 7638 f0ab a038
00000240: 5adc b3b8 4b27 23b9 04b0 eab8 acc5 cd37
00000250: 2768 6638 59bd 2239 cfcb 20b8 dd9d 32b6
00000260: 4c86 12b9 5d2a 5637 7507 57b9 6c3f c5b8
00000270: 3a3b a2b8 3460 0c39 b20d 4639 9d57 29b8
00000280: 2227 3039 9434 3537 3004 97b8 c2cc bdb8
00000290: 08ae d938 b7b7 abb8 6610 40b8 3a1c dc38
000002a0: 018f 86b8 f26f 1338 889c b438 a47e c0b8
000002b0: 5004 d0b8 94f1 0ab8 2cac dd38 6a2e 4e39
000002c0: 222d 9fb8 5d75 ebb9 05f7 3db7 0799 5738
000002d0: 8d0d 4cb8 f4cd dcb7 a0f1 2239 fd23 3e38
000002e0: 5c51 8438 177f 0039 03a1 3839 67bf 9d37
000002f0: 8064 e438 de98 3db9 f138 ceb7 ab5e 2938
00000300: 3e0e e738 5726 d838 cd55 47b8 90b5 30b8
00000310: fe8b 39b7 f12c b5b8 6018 3239 20f2 a538
00000320: 7865 06ba 4725 8738 60de 6138 20f2 e8b8
00000330: 0d62 8db7 cffb e437 c009 c438 058b 9338
00000340: cfd2 25b9 85e3 d7b7 b52e 08b9 06ce 3738
00000350: 24a3 5235 3a13 03b9 40f7 3937 7d02 ce38
00000360: 3c66 ed38 6bc7 d6b7 a106 3238 4b33 1439
00000370: c07c 5db8 e6ad a6b7 4ac1 30b8 a6c6 aeb9
00000380: 9000 c836 b349 91b7 8989 42b9 8a84 08b9
00000390: 8045 d4b8 baf5 c838 3f65 ceb7 4be4 37b8
000003a0: b352 c638 f7fa a735 3ddc 6738 68cd cbb8
000003b0: 3f67 9f36 5909 8b38 1e29 a238 ec50 3e38
000003c0: e0cd 2a39 5df1 9f38 11f9 0a39 f1c6 8238
000003d0: 1fd6 c7b8 27f7 41b8 318c 0f39 4bbf 3bb7
000003e0: dee7 12b8 6ba0 afb6 ab99 5db7 3d26 acb8
000003f0: 8360 1939 2509 8ab7 e00a feb9 ad5a 09b9
