mechinterp_research_project/models/sparse_probes/pythia-2.8b/reg_lambda8.445976423531823/gpt_neox.layers.8.mlp.act.pt (torch, 42692 bytes, 1 tensors)

linear.weight f4 [1, 10240]
000000 4f 76 9a b7 a1 89 b2 37 b0 36 bd 36 8a 89 93 36
       -1.8413322e-05 2.1283342e-05 5.6390054e-06 4.396953e-06
000010 65 9d 90 36 1d ae 0f 39 78 e3 0a b7 4f 69 ea 37
       4.3098576e-06 0.00013702405 -8.278403e-06 2.7944012e-05
000020 01 ba 1b 38 8a aa f2 b7 4a 9d b1 b7 a0 91 c2 b7
       3.712811e-05 -2.8928062e-05 -2.1173288e-05 -2.3194414e-05
000030 71 28 a2 37 88 05 77 b2 13 b2 0e b8 c7 b9 82 37
       1.9330737e-05 -1.437855e-08 -3.4021283e-05 1.5583717e-05
000040 4b be e5 36 c2 65 7a 37 38 fd 2c b7 f6 f6 5b b9
       6.846885e-06 1.49248535e-05 -1.0310956e-05 -0.00020977468
000050 f2 da 94 33 a5 25 31 35 a4 8c 14 37 58 0b 23 b9
       6.931613e-08 6.599242e-07 8.854233e-06 -0.00015549117
000060 55 b2 0a 37 ff e8 7d b8 21 59 02 37 9f 08 b4 37
       8.266962e-06 -6.0536895e-05 7.769356e-06 2.1461687e-05
000070 d3 d4 85 36 4c b7 3c 39 76 b7 d2 37 0c a3 50 b7
       3.988485e-06 0.0001799736 2.5119381e-05 -1.2435728e-05
000080 52 c1 24 b6 3d b3 35 b8 4d 97 6f 37 01 7f 13 36
       -2.4550432e-06 -4.332069e-05 1.4280738e-05 2.1978633e-06
000090 57 12 f1 34 83 ee 59 b8 fc 3b d9 34 19 fd 01 36
       4.4903092e-07 -5.1958963e-05 4.0463044e-07 1.936982e-06
0000a0 7e fe 57 38 39 1a 18 b8 37 5a fa 37 3a 09 3d b7
       5.149701e-05 -3.6264046e-05 2.9844332e-05 -1.1267426e-05
0000b0 79 82 80 36 70 24 9f b8 79 1e 6a b6 04 7b 14 b8
       3.8298863e-06 -7.588498e-05 -3.4886455e-06 -3.5400517e-05
0000c0 11 c3 11 37 46 f4 14 38 c5 8e ab 36 e3 c7 87 36
       8.688091e-06 3.5513447e-05 5.1128177e-06 4.0465834e-06
0000d0 9b c6 f5 b6 3e be 94 37 ec 64 1b b8 89 66 2e b8
       -7.3246897e-06 1.7731563e-05 -3.704887e-05 -4.1580326e-05
0000e0 0a 46 cb 37 ce 46 a1 36 9c dd e8 37 fd 41 bd 36
       2.42321e-05 4.8064167e-06 2.775975e-05 5.640321e-06
0000f0 6d 9d 25 38 27 37 bd 37 87 18 aa 37 30 2c a1 37
       3.948568e-05 2.2556238e-05 2.0277e-05 1.9213272e-05
000100 45 89 9a 38 1c 11 bd 37 34 f2 37 b7 cf e4 eb 37
       7.368861e-05 2.2538523e-05 -1.0964042e-05 2.812073e-05
000110 e1 06 39 b7 44 6a 0a b8 c2 a4 83 b8 6e ec 89 37
       -1.1028461e-05 -3.300073e-05 -6.277255e-05 1.6441769e-05
000120 cb 57 c0 b7 93 8c 5c 37 5e 76 39 37 45 75 35 b7
       -2.2929065e-05 1.3145752e-05 1.1054419e-05 -1.0815745e-05
000130 47 a0 73 37 3c f2 9c b7 57 ac cc 37 12 a9 03 b8
       1.4521246e-05 -1.8709448e-05 2.4398947e-05 -3.1390293e-05
000140 60 b0 05 38 9f 58 4a 36 1d 73 0e 37 fa dd 47 37
       3.1873933e-05 3.015193e-06 8.4906615e-06 1.1913007e-05
000150 f7 df 73 b8 88 09 c8 36 5e 0c 1d 38 39 08 08 37
       -5.81443e-05 5.961574e-06 3.7443235e-05 8.108146e-06
000160 cc 30 a1 38 b1 3e e2 b7 ce f9 1c b7 e4 19 80 b7
       7.6861674e-05 -2.6970492e-05 -9.356487e-06 -1.5270845e-05
000170 ce a3 89 b6 bf d8 79 b7 74 93 23 37 5c a3 27 b7
       -4.1019875e-06 -1.4892022e-05 9.749889e-06 -9.992011e-06
000180 05 ea ca 37 6d 3c 85 b7 39 c3 81 38 f9 24 0c b8
       2.418925e-05 -1.5882973e-05 6.1875624e-05 -3.3413035e-05
000190 58 ee 77 37 0f 2a 12 38 48 03 7b 37 e6 38 90 37
       1.4777841e-05 3.4848283e-05 1.496153e-05 1.7192633e-05
0001a0 96 47 c6 38 d5 c1 18 b8 c2 d1 b5 b6 66 9b 44 37
       9.45471e-05 -3.6420144e-05 -5.4186394e-06 1.1718692e-05
0001b0 15 5a c3 33 4f aa 9a 37 96 27 0a 38 f7 a0 61 b7
       9.096781e-08 1.8437537e-05 3.293863e-05 -1.3448523e-05
0001c0 b6 73 47 38 97 18 da 34 69 47 c2 b7 bf d0 c4 36
       4.755306e-05 4.0623556e-07 -2.3159855e-05 5.8655564e-06
0001d0 ea 2c e3 36 eb 46 bc b7 70 8b 53 37 e0 80 e5 b7
       6.770356e-06 -2.244437e-05 1.2609045e-05 -2.735894e-05
0001e0 63 99 b2 36 4b 35 59 37 46 d3 38 b8 95 ee dd 37
       5.32267e-06 1.2946616e-05 -4.4065782e-05 2.6456351e-05
0001f0 b9 86 2c 35 d4 c7 13 34 9a cd 54 b8 1a 52 fb b5
       6.427104e-07 1.3763139e-07 -5.073622e-05 -1.8724852e-06
000200 e6 bb 6d b7 ae 1b 80 37 e3 f6 cd 37 95 a4 bf b6
       -1.4170049e-05 1.5271678e-05 2.455287e-05 -5.7114034e-06
000210 cd 3e 74 36 a0 14 0a b8 fa 41 21 37 a9 d4 ab 36
       3.6395388e-06 -3.2920972e-05 9.611709e-06 5.120954e-06
000220 2c 39 66 b7 6d 15 02 37 5f 83 1e b8 da bb ad 38
       -1.372238e-05 7.753592e-06 -3.7792484e-05 8.284273e-05
000230 5a 57 e2 b6 c8 e2 1c 37 d1 8f 1f b8 f3 cb 0c 38
       -6.745494e-06 9.351126e-06 -3.8042494e-05 3.3568544e-05
000240 94 67 70 37 f1 d8 ab 37 37 bf d5 b8 58 cf 87 36
       1.4329231e-05 2.048581e-05 -0.00010192248 4.0474515e-06
000250 ba da ea 35 50 bb c6 36 03 70 d8 b7 88 d4 08 38
       1.7498016e-06 5.922666e-06 -2.5801366e-05 3.2622862e-05
000260 45 73 d0 b7 20 aa b0 36 17 fd 60 b7 78 26 9d b8
       -2.4849209e-05 5.265014e-06 -1.34103675e-05 -7.493509e-05
000270 f0 aa 8d b6 c5 dd 95 b8 83 47 19 37 56 51 9c b2
       -4.222027e-06 -7.1461815e-05 9.136161e-06 -1.8197778e-08
000280 3b 2a 69 b7 e2 f1 3d b8 c1 8e 43 38 40 d5 99 37
       -1.3897715e-05 -4.5286382e-05 4.6624573e-05 1.8338324e-05
000290 23 35 01 38 7b f6 d5 b7 71 07 37 b7 6c fb c5 b7
       3.0805484e-05 -2.5506355e-05 -1.0909383e-05 -2.3601307e-05
0002a0 01 6f 77 37 2b 38 5f 38 15 07 35 b6 df 51 af 38
       1.4748192e-05 5.3219654e-05 -2.6975224e-06 8.3599e-05
0002b0 7f ef ad 37 9e af 7f b8 d2 92 6c b6 94 68 90 b7
       2.0734731e-05 -6.0960294e-05 -3.52522e-06 -1.7214836e-05
0002c0 17 98 09 b7 03 72 94 37 0d e1 46 37 af 2b 9d b6
       -8.2012475e-06 1.7696066e-05 1.1854118e-05 -4.68405e-06
0002d0 f5 6b e2 35 09 13 0c b8 ae 49 58 b7 d4 b0 c4 b7
       1.6869732e-06 -3.339633e-05 -1.2891758e-05 -2.3447363e-05
0002e0 15 e5 b7 b6 2b 3c c3 b7 7b 14 e4 b7 ba af 77 37
       -5.4804937e-06 -2.327383e-05 -2.7189255e-05 1.4763262e-05
0002f0 e4 68 06 36 5c e9 dd 35 c8 4b bf b5 0a 2a dc b6
       2.002861e-06 1.65337e-06 -1.4252664e-06 -6.561405e-06
000300 1b 45 52 37 5a 5e 86 38 45 a1 02 39 04 36 21 37
       1.2533065e-05 6.407192e-05 0.00012457844 9.608924e-06
000310 2f 5d 36 b8 9f 67 5a b8 13 97 ad 37 b0 7f b6 36
       -4.3478965e-05 -5.2071755e-05 2.0693557e-05 5.4388875e-06
000320 c4 61 be b7 46 f4 5c b7 52 56 a8 b7 66 58 d4 36
       -2.269529e-05 -1.3169896e-05 -2.0067357e-05 6.3283833e-06
000330 9f 9d 09 38 4c c7 f2 37 45 bd 04 38 da 40 cc 38
       3.281014e-05 2.8941453e-05 3.1647523e-05 9.7395576e-05
000340 4d 80 82 37 19 95 a3 35 a5 f7 5e 36 3f 54 a7 b6
       1.5556952e-05 1.218784e-06 3.3224726e-06 -4.9867954e-06
000350 5b c6 00 b6 3e 2d e7 b7 8a 5c 4b b4 6e 5e a7 b6
       -1.9188944e-06 -2.7558413e-05 -1.8939514e-07 -4.987981e-06
000360 a9 ab 37 37 dc 13 21 b7 48 94 1a 38 fd 83 e4 b7
       1.0947618e-05 -9.600972e-06 3.685456e-05 -2.724118e-05
000370 1a c1 cc 38 89 7b 8e b7 fe a1 54 37 80 96 0c 38
       9.763446e-05 -1.6985245e-05 1.2673901e-05 3.3518765e-05
000380 3a 26 b8 37 d8 b3 5e b7 65 04 b3 b7 ef 9f d7 37
       2.195231e-05 -1.3274104e-05 -2.134051e-05 2.5704472e-05
000390 bd da f2 b7 c7 73 12 b8 12 98 e2 b6 98 03 2c 37
       -2.8950506e-05 -3.491694e-05 -6.753028e-06 1.0252836e-05
0003a0 2f 11 e4 b5 de 01 22 38 57 e6 60 b8 48 5f 08 b8
       -1.6992325e-06 3.862555e-05 -5.3620282e-05 -3.2513664e-05
0003b0 72 e7 c5 b6 db dc 28 b5 c3 12 9e b5 a3 11 91 37
       -5.8980013e-06 -6.2906264e-07 -1.1777378e-06 1.729356e-05
0003c0 ad 61 91 37 f9 3c 81 b7 95 c1 27 38 25 b4 da b7
       1.733083e-05 -1.5406391e-05 3.999619e-05 -2.6071511e-05
0003d0 a4 a1 8a 37 67 13 48 37 6c 38 25 b8 b4 a9 bb 37
       1.6526152e-05 1.1925446e-05 -3.9391613e-05 2.2371161e-05
0003e0 fd 37 26 38 db e8 10 b8 00 3d ae b7 64 80 08 b9
       3.9629627e-05 -3.454914e-05 -2.0770822e-05 -0.000130178
0003f0 05 62 a4 37 52 d9 c7 b4 e2 ee 82 37 f7 80 3e b6
       1.9595967e-05 -3.722476e-07 1.5608446e-05 -2.8387274e-06
