mechinterp_research_project/models/sparse_probes/pythia-2.8b/reg_lambda0.6694329500821696/gpt_neox.layers.6.mlp.act.pt (torch, 42692 bytes, 1 tensors)

linear.weight f4 [1, 10240]
0	0x39ea45ff	0.0004468411
1	0x39908175	0.00027562273
2	0x3b2c0be1	0.0026252198
3	0x38d99bed	0.0001037641
4	0x3ac829b4	0.0015271218
5	0xbb0f780a	-0.0021891617
6	0x3a8c42b6	0.0010701034
7	0x37d0a788	2.4873545e-05
8	0x3abef599	0.0014569043
9	0xbad61694	-0.0016333633
10	0x3a0262a3	0.00049738045
11	0x3a92e506	0.001120717
12	0x3a005f04	0.0004896971
13	0x3a7e850f	0.00097091583
14	0xb98402e7	-0.00025179164
15	0xbacdc24d	-0.0015698165
16	0xba776235	-0.0009436936
17	0x3a265337	0.00063447974
18	0xbbfb2511	-0.007664331
19	0x3a0ba6db	0.00053272926
20	0xba08eccc	-0.0005223274
21	0xbaff0049	-0.0019455041
22	0x399e3501	0.000301756
23	0x3a672e75	0.00088188733
24	0xba317156	-0.00067689025
25	0xb95dcbde	-0.00021152149
26	0x3b008e60	0.0019616112
27	0x3a441bfb	0.0007480976
28	0x38959b0b	7.133753e-05
29	0xbb5ff75e	-0.0034174542
30	0xbafd87b5	-0.0019342812
31	0xb900b7f0	-0.00012275553
32	0x3aafc271	0.0013409388
33	0x3aae7e6a	0.0013312821
34	0xbad8d515	-0.0016542996
35	0x39c32d39	0.00037226992
36	0x38662e91	5.487964e-05
37	0x38b8b778	8.8079774e-05
38	0xba7e8200	-0.00097087026
39	0xba9c72b0	-0.0011936035
40	0xbb66e8c9	-0.0035233966
41	0x3b9c379a	0.0047673704
42	0x39e51853	0.00043696407
43	0x3abb3cea	0.0014285122
44	0x399bb017	0.000296951
45	0xbc2ccc37	-0.0105467355
46	0x3add4649	0.0016881909
47	0x3ab100da	0.0013504282
48	0x3a186a49	0.00058141776
49	0x3b5ab90f	0.0033374464
50	0x39673c64	0.00022052374
51	0x39f8797c	0.0004739276
52	0x3ab08f51	0.0013470446
53	0xbb32b40b	-0.0027267959
54	0xb9dd1e4c	-0.00042174978
55	0x3ae66141	0.0017576591
56	0x38d29426	0.00010041175
57	0x3abe71db	0.0014529781
58	0xba39070d	-0.00070582406
59	0x3a50cbc2	0.00079649326
60	0xb9883d9a	-0.00025985838
61	0xbabf68d2	-0.0014603382
62	0x3896bc21	7.187599e-05
63	0x3a3af1da	0.00071313756
64	0xb93632e1	-0.00017375826
65	0xba8ced3f	-0.0010751857
66	0x3920e57a	0.00015344276
67	0x3a883b3c	0.001039363
68	0xbafb4028	-0.00191689
69	0x39689755	0.0002218162
70	0xba1a60ba	-0.0005889047
71	0x3ab01094	0.0013432675
72	0x3a60e176	0.0008578518
73	0x3aa910e9	0.0012898716
74	0xbb2c4cc0	-0.0026290864
75	0x3a8d6994	0.0010788911
76	0xba2df037	-0.0006635221
77	0x3b18fa69	0.0023342615
78	0xba9d9cb5	-0.0012024852
79	0x3c00190f	0.007818474
80	0x395e9931	0.00021228638
81	0x3b98e521	0.004665986
82	0x3a56f816	0.000820042
83	0x3b1b9a50	0.00237431
84	0x39fe4262	0.00048496114
85	0xb8d9d149	-0.00010386349
86	0x3a69be09	0.0008916562
87	0x3adc0921	0.0016787389
88	0x3a263abf	0.00063411513
89	0xbad5c145	-0.0016308209
90	0x3ab0025d	0.0013428439
91	0x395d4556	0.00021102032
92	0x39ae8893	0.00033289622
93	0x39a0032a	0.00030519936
94	0x39e3e217	0.00043465264
95	0xb87581d5	-5.8533467e-05
96	0xbbf9511d	-0.0076085464
97	0x38bf499e	9.121302e-05
98	0xb9d30a0f	-0.0004025255
99	0xbae8c6e2	-0.0017759467
100	0x3ac84db4	0.0015281946
101	0xbb6271af	-0.0034552624
102	0x3b5ad17a	0.0033389018
103	0x3b377546	0.0027993484
104	0xbaabbf30	-0.0013103243
105	0x3ba62102	0.005069853
106	0xbb400d9c	-0.0029304987
107	0xbc19ffe2	-0.009399386
108	0x39d89e0b	0.00041316482
109	0x395b591d	0.00020918665
110	0x399ae42b	0.00029543167
111	0xba419967	-0.00073852245
112	0xbba76a37	-0.0051090973
113	0x3a48b2e4	0.00076560513
114	0xb9760d2e	-0.00023465298
115	0xb9f8b85b	-0.00047439602
116	0x39edb6ee	0.00045340456
117	0x39fc4836	0.00048118987
118	0xbac3a928	-0.0014927732
119	0xb9583faa	-0.00020623082
120	0xbac43f4c	-0.0014972477
121	0xb9da45f5	-0.00041632322
122	0x3b3cd044	0.002881066
123	0xb9e9b60f	-0.00044576867
124	0x3b1a3af7	0.002353368
125	0x3c08a246	0.00833947
126	0x3b157f86	0.0022811606
127	0xba816f3b	-0.0009875068
128	0x39a2fbd6	0.0003108668
129	0x3b04b9e0	0.0020252392
130	0xbb8833d1	-0.0041565676
131	0x3a0006ee	0.0004883845
132	0x39e2f174	0.00043285976
133	0x39ecbfbd	0.00045156284
134	0x398c3f8f	0.00026750236
135	0xbc011584	-0.007878665
136	0x39d1e1bd	0.00040031775
137	0x3ac77286	0.0015216626
138	0x3aac8866	0.0013163208
139	0xbb1dc1e9	-0.0024071878
140	0xb96222bd	-0.0002156598
141	0xb826c9da	-3.9765473e-05
142	0xba79d200	-0.00095298886
143	0x38800958	6.105256e-05
144	0x3a69e0ab	0.0008921723
145	0x3b3d5408	0.0028889198
146	0xbb44742c	-0.002997647
147	0x3a75a7da	0.000937102
148	0xba5fe8d0	-0.00085414667
149	0xb9b58e8e	-0.00034629222
150	0xb908b5ad	-0.0001303765
151	0x3b14ad93	0.0022686466
152	0x3b422c18	0.0029628333
153	0x3ad0ff51	0.0015945231
154	0x3ad028fa	0.0015881353
155	0xba368f34	-0.0006964088
156	0x3a8af49a	0.0010601461
157	0xb99e09f3	-0.0003014352
158	0xba72e0b6	-0.0009265052
159	0x3a1f7d46	0.0006084036
160	0x3963a368	0.0002170928
161	0x3a314932	0.0006762921
162	0xba5be7bb	-0.00083887175
163	0x3a9dd8c4	0.0012042751
164	0xbb5c376f	-0.0033602377
165	0xba8e45a4	-0.0010854495
166	0x3a67d8fd	0.00088442845
167	0xba0c47fe	-0.0005351304
168	0xb9357a14	-0.00017306983
169	0x3a177147	0.00057770725
170	0xbaab8d8e	-0.0013088451
171	0x3a7eaf50	0.00097154547
172	0x3a53c0cc	0.000807774
173	0x39f04f41	0.00045835416
174	0x3a1ed738	0.0006059292
175	0x3a0f780d	0.0005472906
176	0xba872ce7	-0.0010313065
177	0x3a94484e	0.0011313052
178	0x3a4ae6fe	0.0007740109
179	0xb9974ae9	-0.00028856777
180	0x3a10f7ac	0.000553007
181	0xbb2701d2	-0.0025483263
182	0xb77edbd8	-1.5190766e-05
183	0x3aed6923	0.0018112998
184	0xb9c4911d	-0.0003749215
185	0x3a7dbd85	0.00096794247
186	0x3a1edc97	0.0006060092
187	0x3a45a2e4	0.0007539226
188	0xbaf86ac6	-0.0018952719
189	0x37c4ef31	2.3476403e-05
190	0x38aab8e1	8.140668e-05
191	0x3ac19bcf	0.0014771166
192	0xb8743578	-5.822393e-05
193	0x3ba8eae8	0.005154956
194	0x39680982	0.00022128786
195	0xba5d45bd	-0.0008440873
196	0xb959632e	-0.0002073168
197	0x39f07556	0.0004586379
198	0xba8a64ef	-0.0010558645
199	0x39922cbe	0.00027880626
200	0x38de4c0a	0.00010599948
201	0x39a53d5a	0.00031516963
202	0x3a01fd7c	0.00049587316
203	0x395b3628	0.00020905642
204	0xb9252c5d	-0.00015752153
205	0xba3d2fa9	-0.000721688
206	0xbb8ebea4	-0.004356222
207	0x3a8c3e6a	0.0010699753
208	0x3abf5f38	0.0014600521
209	0x3a0312a7	0.0005000033
210	0x3a4814b2	0.00076324784
211	0xbac67f30	-0.0015144106
212	0x3a66cbbd	0.0008804163
213	0x398db95f	0.00027031728
214	0x3b13965e	0.0022520046
215	0xb98d9a53	-0.00027008596
216	0xb9597f2a	-0.00020742105
217	0x384910db	4.7937832e-05
218	0xba20835b	-0.0006123089
219	0xba051254	-0.00050762785
220	0xb9a66d5d	-0.0003174347
221	0xb8ac3245	-8.2109626e-05
222	0xbade1fe9	-0.0016946766
223	0x39c457af	0.00037449363
224	0xb9103161	-0.00013751305
225	0xbaf10bb7	-0.0018390332
226	0xba140414	-0.00056463596
227	0x3ac8aba0	0.0015309937
228	0xbb306f37	-0.0026921758
229	0x3b54ba2a	0.0032459595
230	0xba41ad9a	-0.00073882344
231	0xba8bc504	-0.0010663574
232	0x3907e19b	0.00012958648
233	0xba1d88a7	-0.00060094375
234	0x3a8da6a8	0.0010807114
235	0x39fd9cdf	0.00048372798
236	0x3b3f7922	0.0029216488
237	0x388a2c14	6.588563e-05
238	0x3899290a	7.303253e-05
239	0xb984ec88	-0.00025353231
240	0x380a73ac	3.300949e-05
241	0xbafa58d6	-0.0019099962
242	0x3a0684de	0.0005131493
243	0x3a46e0bb	0.0007586588
244	0x3c1afc96	0.009459635
245	0x3b52766e	0.0032114047
246	0x3a7abe0d	0.0009565063
247	0xb6889247	-4.0701448e-06
248	0x3b191ab5	0.0023361866
249	0xb8a4eeb0	-7.8645884e-05
250	0x3abaa84a	0.0014240828
251	0xb9c47907	-0.00037474206
252	0x3918911f	0.00014549911
253	0xba414c97	-0.00073737785
254	0x3aed722e	0.0018115693
255	0x3938d0f6	0.00017625451
