mechinterp_research_project/models/sparse_probes/pythia-410m/reg_lambda0.18846716378431197/gpt_neox.layers.0.mlp.act.pt (torch, 18116 bytes, 1 tensors)

linear.weight f4 [1, 4096]
000000 43 e6 5f 3c 1c d6 25 3b d9 00 1e 3c 1e ae fc ba
       0.0136657385 0.002530462 0.009643757 -0.0019277965
000010 c2 91 bc bb 62 fa ce bb 2c aa 9b 3b dc 52 da 3b
       -0.0057546804 -0.006316469 0.0047505107 0.0066627096
000020 4e cd e2 3b 85 1c 57 bb 22 c9 1d bb 05 35 86 bc
       0.006921447 -0.0032823395 -0.0024076183 -0.016382704
000030 33 08 0f 3c e8 53 bc 3b 80 7e 08 bc 26 c9 f1 ba
       0.008729982 0.005747307 -0.008330941 -0.0018446788
000040 98 56 06 bb c2 44 c4 3a 7e e8 16 3b b1 9c c7 3b
       -0.0020498391 0.0014974105 0.002302676 0.006091677
000050 70 04 4c bb 02 dc 90 3c c0 d5 48 3b d4 2b 0f bb
       -0.0031130575 0.017683033 0.0030644983 -0.0021846192
000060 2c 02 89 3b 11 43 04 3c 07 8a 5d bb 66 ed 3b 3b
       0.004181167 0.0080726305 -0.0033804195 0.0028675436
000070 57 53 4a b9 16 7d 39 bb 8b a1 39 bc 48 a8 8a 3b
       -0.00019295268 -0.0028303317 -0.011330019 0.0042314865
000080 e8 6c ac 3c 24 ea 84 3b 41 fb 0b 3c 46 81 2c 3c
       0.021048024 0.004056232 0.00854379 0.010528868
000090 25 81 ae b9 49 31 8f bb f1 36 1a 3a 5c 80 90 3b
       -0.00033284086 -0.004369889 0.00058828207 0.004409833
0000a0 c1 fc 32 bc e8 d0 36 bc 7e 43 38 bc de 1d 0d 3c
       -0.010924519 -0.011158206 -0.01124656 0.008613078
0000b0 7e 98 cf 39 da 4f 88 ba b8 8f 93 ba ee b0 3f 3c
       0.00039595732 -0.0010399774 -0.0011258041 0.011699898
0000c0 2b e8 8c bb 84 d1 77 ba 68 7e 5a ba 98 aa b5 bb
       -0.0043001375 -0.00094535225 -0.0008334876 -0.005544018
0000d0 75 9c 31 3c ec 55 2e 3c 3d a6 8f bb b7 85 8f ba
       0.010840525 0.010640603 -0.004383831 -0.0010949884
0000e0 ae 99 f3 39 39 b3 75 ba 64 36 d0 3a d7 e2 1e bd
       0.00046463072 -0.00093727146 0.001588535 -0.03879055
0000f0 3e 66 91 bb d3 0d 01 bb 51 b3 bf ba db c4 0f bb
       -0.004437237 -0.0019692078 -0.0014625584 -0.0021937403
000100 9e 6f f5 ba 56 31 49 3b c1 b9 4a 3b 16 61 7b 3b
       -0.0018725281 0.0030699573 0.0030933472 0.0038357428
000110 36 49 b3 bb 9f 7c a2 bc 2e c9 36 ba 81 ce 87 3b
       -0.005471374 -0.019834815 -0.0006972727 0.00414449
000120 27 0d b7 bb 35 00 7d 3b a3 5e 7c ba db 65 49 bc
       -0.0055862847 0.003860486 -0.0009627139 -0.012292351
000130 e1 31 32 3c e2 6a 36 bc 5c 6d 48 3b 50 ec 7d bb
       0.01087615 -0.011133881 0.0030582761 -0.003874559
000140 39 fb 09 bc aa 00 9c bb 2e 1f 80 3c 36 3c f9 ba
       -0.008421713 -0.0047608213 0.015639868 -0.0019015137
000150 d9 83 bc bb d0 48 36 bb ec e0 73 3c bb 09 c5 3b
       -0.005753022 -0.0027814396 0.0148851685 0.006013123
000160 29 0c 5f 3b 55 2d fc bb 4a ce 34 3b 0c 9c 62 bb
       0.0034034348 -0.0076958337 0.0027588778 -0.0034577874
000170 21 41 73 bc 02 7a d9 3b 84 c9 2e 3b 3f 06 48 bc
       -0.014847071 0.006636859 0.0026670406 -0.01220852
000180 31 81 2c bc bd 85 f3 bb f8 80 13 3c f4 e2 60 bc
       -0.0105288485 -0.0074317143 0.0090029165 -0.013725985
000190 0d 51 c2 37 05 1a 3a 3c 4b c0 db 3b 42 8d e8 3b
       2.3164344e-05 0.011358743 0.0067062727 0.0070969174
0001a0 eb 8f 6e 3b 35 da 34 bd 0f d2 2e 3c ff 68 3c 3c
       0.00364017 -0.04415341 0.010670199 0.011499642
0001b0 8a 8e 3c bc 63 fa a6 bb 42 67 62 3a 27 9f 6d bb
       -0.011508593 -0.0050957664 0.00086366024 -0.0036258192
0001c0 a4 60 55 3b 7c de b8 bc 82 9e 51 3b cd df 9b 38
       0.0032558823 -0.022567026 0.0031985347 7.432662e-05
0001d0 e3 9c fa bb a5 44 83 ba 44 f3 fa 3a 91 a3 dd bb
       -0.007648097 -0.0010014965 0.0019145985 -0.0067638834
0001e0 8c 01 81 3a fe 2f 73 3c 55 25 87 3b 7e b1 a0 ba
       0.000984238 0.014842985 0.0041243234 -0.0012259928
0001f0 26 6c 3c 3c bd d7 ef bb b6 11 80 bc 00 f0 f4 bb
       0.011500394 -0.007319419 -0.015633445 -0.0074748993
000200 5c e5 e7 b9 1c 87 d1 bb c7 68 16 bc ad fb c1 3a
       -0.0004423064 -0.00639428 -0.009180254 0.0014799737
000210 eb 84 93 3c 1c 18 7b 3b 0d 10 8f 3c 90 09 0b 3b
       0.018007716 0.003831393 0.017463708 0.0021215416
000220 f5 fd 4c 3c dd 39 8f 3a d8 4a 4b bc 1c 3f f6 ba
       0.01251172 0.0010927279 -0.012407981 -0.0018787119
000230 7b f5 1b bc af 8e 00 3c 23 52 8d 3b 9e ae 1f bd
       -0.009518976 0.007846518 0.00431277 -0.038984887
000240 66 08 ab bc 65 d7 27 b9 0b e6 e2 3b 69 50 e4 3b
       -0.020878028 -0.00016006602 0.006924396 0.0069675935
000250 d2 0e c7 bc fc 2b 7c bc 0f 19 4a 3b dd c7 0f ba
       -0.024299059 -0.015391346 0.003083769 -0.0005484799
000260 2e 6b 3d ba fa 51 5b bc 5a 8b 33 bc 87 27 8f bb
       -0.0007225749 -0.013386244 -0.010958517 -0.0043687257
000270 0f c2 15 bc 0c b5 83 bc bf 8f e0 ba 72 26 b6 bb
       -0.009140505 -0.01607754 -0.0017132683 -0.0055587823
000280 6e 6a 3e 3c 37 2f 72 3b 27 55 b9 3b 9e 14 52 bb
       0.0116220545 0.0036954412 0.005655903 -0.0032055746
000290 fc 86 43 bb 3a 9d 61 3c b7 2f ce 39 11 69 5b 3c
       -0.0029835096 0.013770396 0.00039326932 0.013391749
0002a0 9f 18 72 39 9f 40 6d bc e7 44 f7 3b 8a 4a bb bb
       0.0002308809 -0.014480739 0.0075460556 -0.005715673
0002b0 6f 81 7e 3a 8e 12 19 3c 1a 22 05 3c 0e 13 6f bb
       0.0009708618 0.009342803 0.008125806 -0.0036479863
0002c0 ce 59 b8 3a 71 33 09 bd 25 4d 46 3d 01 ad 85 3c
       0.001406485 -0.033496324 0.048413415 0.016317846
0002d0 73 6a bb ba 11 2a b2 bc e3 24 e7 bb 1c 11 19 bc
       -0.0014298692 -0.021748574 -0.007053958 -0.009342458
0002e0 ae 3b 0e bc d8 65 1b 3a 11 2a 86 3b e6 14 2c 3b
       -0.008681221 0.00059279567 0.00409437 0.0026257574
0002f0 98 1b b3 bc da 6a e2 bb 00 68 c5 bb bd 79 02 3c
       -0.021863744 -0.0069097104 -0.0060243607 0.007963595
000300 82 71 49 3c f1 cd 29 bb c8 9a 46 bb d8 7a 32 3b
       0.012295129 -0.0025910104 -0.003030466 0.0027233865
000310 5b d2 99 bd 37 af d5 bb ce 55 38 3b c0 50 5f 3a
       -0.07510825 -0.0065211314 0.0028127315 0.00085188076
000320 3f 4b 26 bc 02 fb 50 3c 85 87 a4 3a d2 8f 49 bc
       -0.010149776 0.012755157 0.0012552595 -0.012302356
000330 69 e2 92 b9 27 f4 7f 3b 90 0b 31 bc ec c9 92 3c
       -0.0002801598 0.0039055438 -0.010805979 0.01791855
000340 83 e9 81 3b c9 e8 98 bb e0 10 8b 3b d8 d7 3e 3c
       0.0039646043 -0.004666422 0.004243955 0.011648141
000350 2f 44 df 3b 6e 83 ff bb 73 4f 91 bc f7 4b 1a 3c
       0.006813548 -0.00779765 -0.01773808 0.0094175255
000360 b8 b2 a9 bc 84 63 68 b9 3d ae 92 3c aa 92 89 3b
       -0.020715103 -0.00022162317 0.017905349 0.004198392
000370 35 69 aa bb 75 7e f7 bb ba fc 55 3c dc 10 95 bb
       -0.00520053 -0.0075529166 0.013060743 -0.004549129
000380 a9 c0 6d bc 19 74 2a 3c 85 4b 9a 3a 18 7a 90 39
       -0.014511266 0.010403656 0.0011771774 0.00027556787
000390 ab 39 8e bb ca 6d 32 3c 39 b3 a5 3b ef bd 4f 3c
       -0.0043403707 0.010890434 0.0050567654 0.012679561
0003a0 62 4e e3 bb 1c 51 03 3c 7d 99 6c bc 3a e3 9d ba
       -0.006936834 0.008014943 -0.014440891 -0.0012045868
0003b0 ff f2 bf 3b e7 b0 4d 3a 80 fb bc 3b 82 39 3a 3b
       0.005857825 0.000784649 0.005767286 0.0028415625
0003c0 af 32 b0 bc 5c f8 92 3b 96 69 37 bc 59 99 5d 3b
       -0.021508543 0.004485173 -0.011194607 0.0033813326
0003d0 35 a0 cd bb 35 16 1e bc 06 8f 0e ba c1 97 a9 bb
       -0.0062752017 -0.009648849 -0.0005438182 -0.005175561
0003e0 19 e4 fa 3b 57 5e 5e bb c8 4c 22 3c 1b ad b3 ba
       0.007656586 -0.0033930743 0.009906001 -0.0013708206
0003f0 36 dc 5c bc 69 ef 4d bb f0 90 54 3b f6 05 08 3b
       -0.013480237 -0.0031423217 0.0032435022 0.0020755506
