mechinterp_research_project/models/sparse_probes/pythia-1b/reg_lambda0.09999999999999999/gpt_neox.layers.13.mlp.act.pt (torch, 34506 bytes, 1 tensors)

linear.weight f4 [1, 8192]
00000000: f0e7 3bbb a047 52bb 0e51 12bd 2ff4 3cbb
00000010: 21de 153c e609 13bb 9149 01bc 08a1 653b
00000020: 6f7c 733b d9ad 51bb c0de 123c 21ce cd3b
00000030: 0df5 0d3c 379e 2cbb afee e2bc 7e64 97bb
00000040: 1517 07bc d0c3 8e3a 62c1 f93a 0bbe ccbb
00000050: ba33 133c 7f55 83bb e59d 443c e179 423c
00000060: cee7 bfb9 1764 043b 78bc 463c bbf5 5fbc
00000070: 4ccb a33b e40b abbc ed90 ff3b b2fa 023c
00000080: bd38 a0bb 9b5d cdbb 131a eb3a 5954 aeba
00000090: 4dae b7bb d5c2 b4b8 e083 7fbb 6d29 fcbb
000000a0: c895 bfba d345 2a39 3b7f 973b b44e dcbb
000000b0: 56d8 86ba 133d 813a ca99 d1bc 7462 cdbb
000000c0: 1d04 9c3a 006b 2e3a 0e31 d03b 32bf 0d3c
000000d0: 8247 57b8 bd5d bfbb dd37 97ba ebd7 b139
000000e0: 7bbe 863b 9efb 303c f019 3bbc f916 46bc
000000f0: 9c95 be3a 0613 29bb a1b3 f03b 1e9a 6e3a
00000100: fa19 11bc 96c0 30bb 0d4f 36bb 4029 11bc
00000110: f9fc 40bc d091 6ebc 090e c9bb 3706 003c
00000120: cf85 06bc f359 703b 8338 523b 6236 173c
00000130: d23c 983b 3079 fc3b cf0a 183b c5e5 87bc
00000140: 7035 ddbb d075 813a dcca 9e3b 46c2 debb
00000150: 9fb2 d73b 225b 61bc 115f 49ba 9631 cd3b
00000160: 4240 273b b36d 22bc e0b2 58bb a37c 9dba
00000170: 79e0 213a 849e 0cbc 59f5 53bb 1b7f e4b9
00000180: bded 29bc 58c5 163c 0da9 67bb 7cc2 623b
00000190: 9b1b 0139 47b4 0a3a 7adc 8bbb f298 89bc
000001a0: 7e0a 713c d91a d1bb 2d98 0f3b 6f7a e2bb
000001b0: 822e 103c 8c44 723b b601 aa3b 6af3 86bb
000001c0: 1c06 cebb 4387 4f3a 0f45 2bbb ea74 0cbb
000001d0: cf69 cc3b 7bd1 2ebb a6bd 13bc 2e98 83bc
000001e0: d5d8 c43a 9ef7 9bbb 4f4f 0abb d3e8 a1bb
000001f0: 7152 ab3b 4622 c6bb db0a ae3b cf1b 023a
00000200: a63f 403c 8902 b4ba 5624 35bc c4de 8439
00000210: 3537 183c 583c 273b ff4a 033b 9f81 7abb
00000220: b5dd 943c 3d19 34bb a708 04bc 5b95 33bc
00000230: c8b1 153c 6341 27bc 4088 fbba bd78 433b
00000240: b1c7 1f3a edfe 7a3b d9e4 9ebc 3e63 efbb
00000250: 121b aebb f191 f2bb f71e 44bc a90c 493b
00000260: 4e55 973b a087 c3b9 8876 c6b8 4a4b a2bb
00000270: 3a6c 2b3c 345b a4bb db35 b4bb bb68 b83b
00000280: 320c b33b 16b3 02bc e7ba 1a3c 1c3e 6abb
00000290: 3d38 5c3b e149 b8bb 4884 6a3b 2af0 8bbc
000002a0: 2699 be3b 3a38 daba e463 4a3c 2bc7 a639
000002b0: d6b3 173b 9a94 213c 77cf 61bb 3a7d 05bc
000002c0: 9036 6fbb 1024 e6bb dc44 0bbc b4b5 c8bb
000002d0: cdad 253b e7bd debc e00f 74bb fd3f 7e3b
000002e0: 11d3 dcbb dce2 ab3b a866 cf3a deb6 00bc
000002f0: 36a9 323b 174a afbb ea04 02ba ed46 443c
00000300: 685a 6fbb 5149 f03b 141f 023b a2f8 6c3a
00000310: bc79 90bc e90e c0bb 8b15 4239 c4bd 493c
00000320: a506 d8ba abf3 46bc c60c 5abb 9343 9fba
00000330: 94fa 39bb 35cf 303b b1c7 623b b117 fabb
00000340: 3e8a b3bc c359 30bb ea8a 82bc 3f28 74bb
00000350: e6df 043b a3e0 67bb bc0b c9bb 8ab0 0fbb
00000360: 94bb 82bc 6e38 05bb 4517 103c 7154 8c3b
00000370: 457c 13bb e5c8 123c 74a9 083c 738d cfba
00000380: cfaa 803a c34c 8cbb 75ff ce3b 0b1c fdb7
00000390: bedd 3ebb e690 e23b 75fa 85bb 1f9e 4fbb
000003a0: e8cf 50bb 8422 c939 5d69 4ebb 8cd6 d53b
000003b0: e47e 77bb da0a a4bc 6417 ec3b 306c e5ba
000003c0: b2c6 4bbb 101f c3ba 9ee0 893b 3304 103c
000003d0: cdef 413b 3016 853b 850e b83b f8de f03a
000003e0: 5dbc 2abc 5cbc fdbc 210a 09bb caa5 2fbb
000003f0: 8402 e53b 0e62 663a ca8e a2bb bd69 84bc
-0.002867218 -0.003208615 -0.03572183 -0.0028832068 0.009147198 -0.002243632 -0.007891075 0.003503861
0.0037153026 -0.003199449 0.008964241 0.006280676 0.008664382 -0.002633942 -0.027701704 -0.004620134
-0.008245249 0.0010892097 0.0019054825 -0.006248241 0.008984501 -0.0040079947 0.012000536 0.0118698785
-0.00036603067 0.002020126 0.012129895 -0.013669427 0.0049986 -0.020879693 0.007799259 0.007994341
-0.004889576 -0.006267262 0.0017936848 -0.0013300284 -0.005605495 -8.619359e-05 -0.0038988516 -0.007695368
-0.0014616782 0.00016238475 0.0046233214 -0.0067232493 -0.0010287862 0.000986012 -0.025586028 -0.00626784
0.0011903081 0.00066535175 0.006353504 0.008651542 -5.132659e-05 -0.005840032 -0.0011537034 0.00033920942
0.0041120625 0.010802178 -0.011419758 -0.012090438 0.0014540437 -0.0025798692 0.007345632 0.0009101945
-0.008856291 -0.002697026 -0.0027818114 -0.008859932 -0.011779063 -0.014561132 -0.0061357063 0.007813982
-0.008210613 0.0036674708 0.003207714 0.0092292745 0.004645922 0.0077048764 0.0023199802 -0.016589055
-0.006750755 0.000987703 0.00484596 -0.0067980615 0.0065825726 -0.013754638 -0.00076817075 0.0062620146
0.0025520478 -0.00991385 -0.0033065602 -0.0012015294 0.00061751116 -0.008582715 -0.0032342284 -0.0004358225
-0.010371623 0.009202324 -0.0035348565 0.0034600785 0.00012312683 0.00052911456 -0.004268226 -0.016796563
0.014711974 -0.0063813743 0.0021910772 -0.006911568 0.008800151 0.0036967127 0.0051881922 -0.0041183727
-0.0062873494 0.0007916579 -0.0026133691 -0.002143199 0.0062381993 -0.0026675153 -0.009017384 -0.016063776
0.0015018234 -0.004759743 -0.00211044 -0.004941085 0.0052283336 -0.006046566 0.0053113527 0.000496325
0.011733925 -0.0013733666 -0.011056026 0.00025342975 0.009290506 0.0025518145 0.0020033715 -0.0038224233
0.018172124 -0.0027480864 -0.0080587035 -0.010960902 0.009136625 -0.0102084605 -0.0019190386 0.0029826604
0.0006095125 0.003829892 -0.019396232 -0.0073055318 -0.0053132856 -0.0074026515 -0.011970273 0.0030677712
0.0046183234 -0.00037294347 -9.463454e-05 -0.004952823 0.010462815 -0.005015755 -0.005499584 0.005627719
0.0054641003 -0.007977268 0.009443975 -0.0035742586 0.0033602857 -0.0056240414 0.0035784412 -0.017082293
0.0058165966 -0.0016648837 0.012352917 0.0003181038 0.0023147962 0.0098620895 -0.0034455934 -0.008147532
-0.0036501028 -0.007023342 -0.008500304 -0.0061251763 0.0025280595 -0.027190162 -0.0037240908 0.0038795464
-0.0067390283 0.0052455496 0.0015823441 -0.007856099 0.0027261502 -0.0053494084 -0.00049598387 0.011979801
-0.0036522392 0.0073329587 0.001985495 0.0009039735 -0.017636172 -0.0058611524 0.00018509307 0.01231331
-0.0016481472 -0.012143056 -0.0033271774 -0.0012150876 -0.0028378116 0.0026978974 0.0034603889 -0.0076322188
-0.021916505 -0.002690897 -0.01593538 -0.0037255434 0.0020275055 -0.0035381697 -0.006135432 -0.0021925294
-0.015958585 -0.0020327824 0.00879461 0.004282527 -0.002250449 0.00895903 0.008341182 -0.0015835002
0.000981653 -0.0042816116 0.006317074 -3.0173009e-05 -0.0029123868 0.006914246 -0.0040886947 -0.003167994
-0.0031862203 0.00038363424 -0.0031495907 0.00652582 -0.0037764842 -0.020024706 0.007204937 -0.0017503556
-0.0031093773 -0.0014886577 0.0042076847 0.008790064 0.0029592395 0.004061483 0.0056169652 0.0018376997
-0.010420886 -0.030973606 -0.0020910578 -0.00268017 0.0069888253 0.0008788415 -0.0049608694 -0.016163701
