mechinterp_research_project/models/sparse_probes/pythia-2.8b/reg_lambda0.35519871824902666/gpt_neox.layers.14.mlp.act.pt (torch, 42698 bytes, 1 tensors)

linear.weight f4 [1, 10240]
0	0xbc0505be	-0.008119045
1	0xbb7d254f	-0.0038626974
2	0x3a3bfe23	0.0007171353
3	0x3a56daa5	0.0008196033
4	0x3bb91594	0.0056483243
5	0xbbc72c08	-0.006078247
6	0xbafdbc84	-0.001935855
7	0x3c2b443a	0.010453278
8	0xba96e3b8	-0.0011511957
9	0x3ba4ab2c	0.005025288
10	0x3bb03e8f	0.0053785513
11	0xbc27ed86	-0.010249501
12	0xba199170	-0.00058581587
13	0xba30a413	-0.0006738316
14	0x3c154cf0	0.009112582
15	0x3cbb6dcb	0.022879502
16	0x3b002847	0.0019555257
17	0xb8bdbb63	-9.047126e-05
18	0x3aa475bf	0.0012547298
19	0x393c66a3	0.00017967312
20	0x3c3ad7e6	0.011404013
21	0x397592a5	0.0002341965
22	0x3b20387d	0.0024447732
23	0xbb743ed2	-0.003726889
24	0x3b4b9914	0.0031066583
25	0x3c07d373	0.0082901595
26	0xbabb1413	-0.001427295
27	0xbb2c0f63	-0.0026254288
28	0xbb315ccb	-0.0027063366
29	0x3a888412	0.0010415337
30	0x3b91790e	0.0044394797
31	0x3b1c15cf	0.002381671
32	0xbc1f5e19	-0.0097270245
33	0x3be811ac	0.007082185
34	0xbc23e504	-0.010003332
35	0xb92e76f1	-0.00016638242
36	0xbaa68224	-0.001270358
37	0x3ae167d0	0.0017197076
38	0xbb4793a5	-0.0030452993
39	0x3aa7f323	0.0012813549
40	0xbb85821c	-0.004074348
41	0x3acea658	0.0015766127
42	0xbb4e5d5c	-0.0031488752
43	0xbb489ed4	-0.0030612247
44	0x3be38cf6	0.006944294
45	0xbcb8fb54	-0.02258078
46	0xba8a91d7	-0.0010572028
47	0x3b3ae808	0.002851965
48	0xba1bb292	-0.000593939
49	0x3baa4ed0	0.0051973835
50	0x3d07a7cd	0.03311901
51	0xbae6fb03	-0.0017622415
52	0x3b021c47	0.001985328
53	0x3b86a18a	0.0041086124
54	0xbb8a35f8	-0.0042178594
55	0xbb8f813a	-0.0043794187
56	0x3bb919a0	0.0056488067
57	0x3b64d132	0.003491473
58	0x3a0d48ab	0.00053895515
59	0x39cfb358	0.00039615738
60	0xba042b1a	-0.0005041823
61	0xba392d28	-0.0007063919
62	0x3b465366	0.0030262112
63	0x3a843444	0.0010086377
64	0x3c085183	0.008320215
65	0x3c0f6045	0.00875098
66	0xbaf49274	-0.0018659369
67	0x3b56fa41	0.0032802972
68	0xbc4a30a8	-0.012340702
69	0x3c00cce0	0.007861346
70	0x39b211f2	0.00033964176
71	0xbc501c64	-0.012702081
72	0x3b42d028	0.0029726122
73	0xb96b5ddf	-0.00022446316
74	0xbaef14b5	-0.0018240424
75	0x3b5f7f9d	0.0034103163
76	0xbbd1da91	-0.006404229
77	0x3b716bcf	0.003683794
78	0xbabddcb4	-0.001448533
79	0xba2ed148	-0.00066687586
80	0x3bcac01c	0.006187452
81	0xbb50ed1b	-0.0031879607
82	0xbc40bb98	-0.011763476
83	0xba96011f	-0.0011444426
84	0x39b53c3f	0.00034567897
85	0x3b18d4cb	0.0023320194
86	0xba9a3617	-0.0011765388
87	0xbbf47a0a	-0.0074608373
88	0x3a05d563	0.00051053445
89	0xbbf851f9	-0.0075781313
90	0xbab3fab5	-0.0013731333
91	0xb850a72c	-4.9746755e-05
92	0xbaa9365d	-0.0012909878
93	0x3be6caed	0.0070432336
94	0xbaf08ede	-0.0018353125
95	0xbafd5f4f	-0.0019330772
96	0xbbb04f0f	-0.0053805183
97	0x3b954370	0.0045551583
98	0xbb06dedd	-0.0020579614
99	0x3a9468db	0.0011322753
100	0x3b9364b8	0.0044980906
101	0x3b97653d	0.004620223
102	0x39ed9e7e	0.00045322248
103	0xbab9e727	-0.0014183269
104	0xbc30f039	-0.010799461
105	0xbb02dc05	-0.0019967568
106	0x3b884e5f	0.004159733
107	0x3bc2a740	0.005940348
108	0x3b7d5ea7	0.0038661154
109	0xbb0263f8	-0.0019896012
110	0xba8c7821	-0.0010716954
111	0x3a5c7c06	0.0008410815
112	0x391240e5	0.0001394782
113	0x39ba280d	0.00035506525
114	0x3aaf7293	0.0013385586
115	0xbb780d06	-0.003784956
116	0xbca527cb	-0.020160576
117	0x3b0d1788	0.0021528918
118	0x3b3db357	0.0028946006
119	0x3b25a894	0.0025277482
120	0xbb52dc75	-0.003217486
121	0x3aab6aa1	0.0013078043
122	0xbaf36f7f	-0.0018572657
123	0xbb190899	-0.0023351072
124	0x3855d50b	5.098157e-05
125	0xba24d762	-0.0006288198
126	0xbb4730c7	-0.0030394064
127	0xba0e14a0	-0.00054199435
128	0x3b0ef3c8	0.0021812785
129	0xbac86c59	-0.0015291079
130	0xbc5812fb	-0.013188119
131	0x3af86b3d	0.0018952858
132	0xbbcb8cab	-0.0062118373
133	0x3ad55f4b	0.001627901
134	0x39bf7ecc	0.0003652483
135	0xbb0720e1	-0.0020618963
136	0x3c2124a3	0.009835395
137	0xbc6e3b13	-0.014540452
138	0x396bf256	0.00022501624
139	0x3a295449	0.0006459398
140	0x3b92ea1d	0.004483475
141	0xb94e20fc	-0.00019657979
142	0xbbbc7e6a	-0.0057523744
143	0xbb8d5fbf	-0.0043143923
144	0x3b98717a	0.0046521993
145	0xbb361118	-0.0027781185
146	0x3c35d187	0.0110973185
147	0x39031db5	0.000125042
148	0xbb201a40	-0.0024429709
149	0x3b3788a9	0.002800504
150	0xbb268efe	-0.002541482
151	0xbbecc37c	-0.007225452
152	0x3b31b579	0.0027116223
153	0xbbe0c004	-0.0068588275
154	0x3b892e4e	0.004186428
155	0xb9f0d3ea	-0.00045934255
156	0xbac64e69	-0.0015129569
157	0xbb1d01b0	-0.0023957305
158	0xbafce21c	-0.001929346
159	0xbaaa08a7	-0.0012972549
160	0x3baceba4	0.005277114
161	0x3a776a5c	0.0009438151
162	0xbcbd8f4c	-0.023139618
163	0xbb03cfaa	-0.002011279
164	0x398cb83b	0.00026840143
165	0xbb53d8dc	-0.0032325303
166	0x3bace6e4	0.0052765477
167	0x3aeedd41	0.0018223898
168	0x3b8d8a94	0.0043194983
169	0xbad2c8c2	-0.0016081559
170	0xbbe2ba1a	-0.0069191577
171	0x3b0aaa31	0.002115857
172	0x3c1ded4c	0.0096390955
173	0x3ba3fdfc	0.0050046425
174	0x3a07326f	0.00051573565
175	0xbb81d77a	-0.0039624544
176	0x3ad960da	0.001658465
177	0xbbd2b691	-0.006430455
178	0xbaaf5bf4	-0.0013378845
179	0x3a59cb05	0.00083081453
180	0xb9c0f1b1	-0.00036801168
181	0x3c3e42bd	0.011612591
182	0x39b32164	0.00034166418
183	0xbadac999	-0.0016692161
184	0x3b39ba0d	0.0028339655
185	0x3b1bf82d	0.0023799047
186	0xba8c130f	-0.0010686832
187	0xba9a8f86	-0.0011792041
188	0x3a8e0d04	0.0010837619
189	0x3aca7216	0.0015445377
190	0x3c5bb16b	0.013408999
191	0xbab10d7d	-0.0013508048
192	0xbb017292	-0.0019752127
193	0xbb90550f	-0.004404671
194	0xbba0a35d	-0.004902287
195	0xbc03a5ab	-0.008035104
196	0x3c1109ad	0.008852405
197	0xb9de3f76	-0.00042390422
198	0x3b238c4f	0.0024955457
199	0x3c9cd94b	0.019146582
200	0xbab35e8e	-0.0013684796
201	0xbb2f4459	-0.002674362
202	0xbbfac5e9	-0.0076529873
203	0x3aab9e1b	0.0013093384
204	0x3ac9b010	0.0015387554
205	0xbb843432	-0.0040345425
206	0xbb456a39	-0.0030123128
207	0xbc652288	-0.013985284
208	0x392c9d48	0.0001646179
209	0xbc16ec71	-0.009211645
210	0xba679886	-0.00088346784
211	0xbc318189	-0.010834106
212	0x3b162168	0.0022908095
213	0x3a2ab857	0.0006512454
214	0xbba6c9bf	-0.005089968
215	0xba51551d	-0.00079854
216	0x3a989ccf	0.0011643412
217	0xbc79d627	-0.015248812
218	0xb4e372c3	-4.2365545e-07
219	0xbb5bb7ed	-0.0033526376
220	0x3ae915ec	0.0017783022
221	0x3c362fed	0.011119825
222	0x3b9a66e3	0.004711972
223	0xbb7588fe	-0.0037465687
224	0x3bea99ab	0.007159432
225	0xbc4802e9	-0.012207725
226	0x3a24b054	0.00062823785
227	0xbbb1e9b1	-0.0054294695
228	0xbb182dbe	-0.0023220624
229	0xba10995d	-0.0005516017
230	0x3c249de1	0.010047407
231	0xba6c47e7	-0.00090134
232	0x39e2f138	0.000432858
233	0x3af0184c	0.0018317788
234	0x3a73e870	0.000930435
235	0x3aa95d57	0.0012921494
236	0x3c979f7b	0.018508663
237	0xbb8ff0c7	-0.0043927166
238	0x3b4d3dee	0.003131743
239	0x3be8c12b	0.0071031055
240	0xbc930f2e	-0.017951574
241	0x398608c5	0.00025565005
242	0x3bf6fb16	0.007537256
243	0xbaea673c	-0.001788355
244	0x3ac8e429	0.0015326786
245	0xba0c2f33	-0.00053476094
246	0xba9c0f5a	-0.0011906431
247	0x3bb1175f	0.0054043974
248	0x3a8ef645	0.0010907134
249	0xb9d2ec64	-0.00040230446
250	0x3b4844eb	0.0030558656
251	0xbb10d4a8	-0.002209941
252	0xbb16bf81	-0.0023002329
253	0xb9486c14	-0.00019113749
254	0x3c128e59	0.008945071
255	0x3a1dab46	0.00060145964
