mechinterp_research_project/models/sparse_probes/pythia-2.8b/reg_lambda0.35519871824902666/gpt_neox.layers.3.mlp.act.pt (torch, 42692 bytes, 1 tensors)

linear.weight f4 [1, 10240]
0.008846713 0.0020865991 -0.00063515507 -0.0063778176 0.003905682 -0.0005831086 -0.0016929534 0.0014711309
-0.0024096759 -0.0017957867 0.0070854733 0.0030561965 -0.00059293176 -0.0019984138 0.00908435 -0.0021322556
-0.001090119 -0.0048241345 -0.0018430533 -0.0021240423 -0.0059895855 0.0005360034 0.0047826977 0.021435024
-0.00084375433 -0.00065535656 0.0001348128 0.004922423 -0.008089078 -0.0007743342 -0.0040491936 -0.006657028
-0.003416737 -0.00036812783 0.008428323 0.002408573 -0.0064386353 -0.0030631083 0.001103113 0.0015701378
-0.00037363847 -0.004747704 0.008268447 -0.002474131 -0.00072669 -0.0031955019 -0.0032512536 -0.0030006093
0.00040933015 -0.033617783 0.00024294072 0.00259114 0.0017211479 -0.0016320539 -0.00033777478 -0.0043597994
0.006191077 -0.0020347717 0.010692967 -0.0064189923 0.005150676 -0.003201798 -0.0028764675 -0.00042302706
-0.0024328195 0.00403602 0.0020290774 -0.001660427 -0.00084910437 -0.002681701 -0.0010240563 0.0007018902
0.018190967 -0.004756459 0.0005649787 4.4482465e-05 0.00010762038 -0.0013592943 0.0013275829 0.0018123403
0.0031935105 -0.0006591227 0.00047812762 0.00012313646 -0.0027021961 -0.0010409732 0.001992558 0.003912466
-0.00021061016 -0.0020594415 -0.0027422085 -0.005098446 0.00084895233 -0.0024050162 0.002602275 -0.0013945268
0.0027978036 0.00037777043 0.003411711 -0.011289034 0.0035615962 0.00081695174 0.004846007 -0.008977733
-0.0029166215 -0.00035342635 0.001788643 -0.0030597707 -0.0037272028 0.0015766072 0.0032332754 -0.0015977797
0.009473192 -0.0123764835 -0.017632566 0.0004102294 0.00510072 0.0018294284 -0.0006155142 0.0011881033
-0.007195679 -0.0010224718 0.0013589908 0.00509313 -0.002401978 7.526242e-05 -0.0009021979 0.0007586366
0.00282521 0.0006210974 -0.0015059614 -0.00061746483 0.0009710968 0.00803794 -0.0011429873 -0.0018771032
-1.9785084e-05 -0.00046036855 -0.0077133034 -0.00037964876 -0.007300463 0.002857359 0.0016544941 -0.024981773
-0.0008773634 -0.0003131769 0.0008887825 0.0009771737 -0.0028939012 -0.003092292 0.0012941479 0.00029384118
-0.0012293721 0.0005776274 -0.0041030874 -0.0029816849 0.0045379633 -0.00038676028 -0.00086734694 -0.003713112
-0.0019168719 0.0005831695 -0.0002065231 -0.00018821712 -0.009341548 0.00832713 0.0013774523 0.0037212367
0.0014147103 0.0023771613 0.0013565598 0.00049079745 0.0045914277 -0.0005235446 0.0031536098 0.00010882597
0.0011825183 0.00016342272 -0.0035863556 -0.0011284745 0.001090701 -0.00034077914 -0.0019389293 0.005754923
-0.004216676 0.0033725207 0.002493211 -0.00045502023 -0.00087004405 0.00064452534 0.0018334133 0.001894667
-0.0009143732 0.0038534426 0.0006508243 0.0008382055 0.004727558 -0.00039055623 0.0029498637 0.011905307
0.0016506562 -0.0063368245 0.006091546 0.0012999439 0.0050767884 0.0017092071 -0.00042813848 0.0042327275
4.3828226e-05 -0.02828032 0.006794494 -0.0047263093 0.002901563 -0.00019046933 -0.0014146004 -0.0029258933
0.0025420366 0.0037061025 -0.0006147543 0.00066063646 0.0031489332 -0.0005594232 -0.0065159816 0.00078195735
0.00071073364 0.00073926704 0.0036685988 -0.0018088622 0.0011627881 -0.0011575191 0.00023567832 -0.0029276109
-0.0045132763 0.015916923 -0.015577109 -0.0015383079 0.0039110244 0.0023656895 0.0005671687 -0.00055029633
0.00037967396 0.0025448285 -0.0034959817 0.00063194893 -0.00059772737 -0.00032984422 0.0029846237 -0.00515635
-0.003137029 0.0028681795 -0.003850144 -0.0016573946 0.0016223686 0.004339177 0.0006545812 -0.01074207
00000000: cef1 103c 53bf 083b 8980 26ba 03fd d0bb
00000010: 78f6 7f3b c1db 18ba 17e6 ddba f6d2 c03a
00000020: a7eb 1dbb 9a60 ebba 422d e83b 784a 483b
00000030: fa6e 1bba d2f7 02bb 87d6 143c 50bd 0bbb
00000040: 53e2 8eba c613 9ebb 9b92 f1ba 8433 0bbb
00000050: 4944 c4bb 9482 0c3a 2db8 9c3b 8198 af3c
00000060: 652f 5dba 3ccc 2bba 895c 0d39 474c a13b
00000070: 0d88 04bc b0fc 4aba 19af 84bb 3323 dabb
00000080: 56eb 5fbb 4801 c1b9 f316 0a3c 26d9 1d3b
00000090: 30fb d2bb 6ebe 48bb 5596 903a 15cd cd3a
000000a0: e8e4 c3b9 a192 9bbb 6178 073c 0825 22bb
000000b0: 577f 3eba a06b 51bb fc12 55bb dfa5 44bb
000000c0: 5d9b d639 cdb2 09bd e7bd 7e39 1ed0 293b
000000d0: 2498 e13a a4ea d5ba 5d17 b1b9 a6dc 8ebb
000000e0: 85de ca3b ce59 05bb 8e31 2f3c 6956 d2bb
000000f0: 00c7 a83b 42d5 51bb 1e83 3cbb bbc9 ddb9
00000100: f06f 1fbb 9740 843b 45fa 043b afa2 d9ba
00000110: 6e96 5eba 7abf 2fbb a139 86ba 0eff 373a
00000120: 3905 953c 12dc 9bbb 141b 143a af92 3a38
00000130: 40b2 e138 592a b2ba 4a02 ae3a 0d8c ed3a
00000140: 374a 513b fac8 2cba 34ad fa39 311e 0139
00000150: 5417 31bb 4471 88ba 9395 023b 2534 803b
00000160: 3cd7 5cb9 b2f7 06bb a0b6 33bb dd10 a7bb
00000170: 3a8c 5e3a 7a9d 1dbb ee8a 2a3b 8ec8 b6ba
00000180: 5b5b 373b 7d0f c639 0397 5f3b a4f5 38bc
00000190: ab69 693b b428 563a 41cb 9e3b 5717 13bc
000001a0: ca24 3fbb 154c b9b9 e670 ea3a 6f86 48bb
000001b0: 1644 74bb 29a6 ce3a 5ce5 533b 976c d1ba
000001c0: 7235 1b3c bcc6 4abc 2c72 90bc 0f14 d739
000001d0: f123 a73b 6ec9 ef3a 755a 21ba 22ba 9b3a
000001e0: bbc9 ebbb 7604 86ba 2a20 b23a 45e4 a63b
000001f0: 816a 1dbb 34d6 9d38 7a81 6cba 3edf 463a
00000200: 2927 393b 24d1 223a ae63 c5ba 5ddd 21ba
00000210: 3491 7e3a 90b1 033c 4ad0 95ba 2209 f6ba
00000220: 25f8 a5b7 9f5d f1b9 e1bf fcbb 980b c7b9
00000230: b938 efbb 8742 3b3b 9cdb d83a 93a6 ccbc
00000240: dcfe 65ba e431 a4b9 2ffd 683a 8214 803a
00000250: 9ba7 3dbb 0da8 4abb 66a0 a93a b20e 9a39
00000260: e222 a1ba eb6b 173a 3173 86bb 5f68 43bb
00000270: 32b3 943b 16c6 cab9 ab5e 63ba af57 73bb
00000280: 8c3f fbba d8df 183a 1f8e 58b9 265c 45b9
00000290: 4b0d 19bc 846e 083c a18b b43a fedf 733b
000002a0: cd6d b93a 26ca 1b3b 98ce b13a dca8 003a
000002b0: b073 963b 7c3e 09ba cbac 4e3b 7f39 e438
000002c0: bbfe 9a3a 745c 2b39 1009 6bbb 52e9 93ba
000002d0: daf5 8e3a 9aaa b2b9 ac23 feba cb93 bc3b
000002e0: 0b2c 8abb 8205 5d3b 2465 233b c88f eeb9
000002f0: ab13 64ba 5df5 283a 244f f03a 7a56 f83a
00000300: 8cb2 6fba 0a8a 7c3b 149c 2a3a 05bb 5b3a
00000310: a1e9 9a3b 92c3 ccb9 8052 413b 7a0e 433c
00000320: d55a d83a 23a5 cfbb 979b c73b e162 aa3a
00000330: 305b a63b 7907 e03a c677 e0b9 b1b2 8a3b
00000340: 33d4 3738 21ac e7bc 59a4 de3b 28df 9abb
00000350: 2628 3e3b b9b8 47b9 1d6a b9ba 58c0 3fbb
00000360: 4c98 263b 15e2 723b 7627 21ba 902e 2d3a
00000370: 555e 4e3b 41a6 12ba 0484 d5bb 45fc 4c3a
00000380: 8750 3a3a 5fcb 413a e06c 703b 5817 edba
00000390: b268 983a e5b7 97ba 6b20 7739 29dd 3fbb
000003a0: 1be4 93bb 3564 823c 2137 7fbc 0ca1 c9ba
000003b0: 0d28 803b af09 1b3b 0cae 143a c341 10ba
000003c0: fa0e c739 23c7 263b d71c 65bb 60a9 253a
000003d0: ceb0 1cba f1ee acb9 ad99 433b 99f6 a8bb
000003e0: 9d96 4dbb 11f8 3b3b b352 7cbb ef3c d9ba
000003f0: a8a5 d43a a82f 8e3b 3398 2b3a 82ff 2fbc
