mechinterp_research_project/models/sparse_probes/pythia-2.8b/reg_lambda29.999999999999996/gpt_neox.layers.17.mlp.act.pt (torch, 42698 bytes, 1 tensors)

linear.weight f4 [1, 10240]
-2.172948e-05 -5.213609e-05 -2.9597206e-05 7.762194e-06 -3.1835672e-05 -4.4405795e-05 -1.2811345e-05 -8.830178e-06
4.533856e-06 -2.419689e-06 -3.6924263e-05 -7.198332e-07 -5.6159233e-06 -9.276198e-06 -2.7946648e-05 -2.82368e-06
0.00011179478 -5.563395e-05 -2.628569e-05 -4.8634947e-06 1.7651627e-06 -4.169347e-06 6.8986465e-06 -2.5572133e-06
-1.8553128e-05 1.0665939e-05 -1.1623205e-06 1.6437276e-05 -3.0540443e-06 -4.0499685e-06 -1.8824252e-05 -1.4372655e-05
2.144725e-05 -4.401324e-05 5.4665024e-06 2.151744e-05 -2.2328431e-05 -6.190716e-06 -4.6034354e-05 -3.214739e-05
-2.852144e-05 2.6466614e-05 7.533419e-06 -1.5641212e-05 3.5852754e-05 -2.0776868e-05 6.088504e-06 2.4021838e-05
2.6926612e-06 -4.5011857e-05 4.5167244e-06 3.435353e-06 -3.2880987e-05 -1.2163293e-05 7.2549155e-05 -8.984741e-06
-3.1514308e-05 -1.9981564e-05 -5.027485e-05 2.4488694e-05 1.8885965e-05 4.855174e-05 1.1444771e-05 5.4191555e-06
-3.012929e-05 -2.609525e-05 -2.2268909e-05 -3.6871288e-06 -5.0876653e-05 -3.3852495e-05 -1.7419707e-05 -3.0773204e-05
1.6956328e-06 1.6311136e-06 3.816956e-06 7.032698e-06 -3.06575e-06 -1.0206848e-05 -2.3838802e-05 -1.7901968e-05
3.7770453e-05 2.3402685e-05 -1.8348459e-05 1.3345862e-05 -3.8852882e-05 4.1238192e-05 1.839357e-05 -3.067825e-05
-1.49221705e-05 -1.1844461e-05 -2.5939633e-05 -1.2311277e-05 -1.877382e-05 1.8530824e-05 -4.5411045e-05 -1.7635148e-05
1.0045158e-07 -1.5578731e-05 -3.5816764e-05 8.45981e-06 -2.4772426e-05 6.944798e-06 -9.383717e-06 2.0567608e-05
-2.1220592e-06 6.188054e-05 1.5161423e-05 -5.39699e-05 1.2643445e-05 -1.6837323e-06 -1.9951838e-05 1.4119195e-05
-3.457169e-05 2.6221476e-05 -1.1902761e-05 -1.37086145e-05 3.201169e-05 -3.3741104e-05 -4.4376043e-06 3.8001446e-05
1.0254129e-05 -4.2322594e-05 5.999694e-06 -3.035673e-05 3.405403e-05 3.9226934e-06 -1.5784975e-05 -9.369518e-06
1.5265272e-05 -2.8637918e-05 -4.4193228e-05 -2.5616071e-05 -3.503346e-05 -1.9842117e-05 -3.4264158e-05 -2.2965885e-05
-5.4045126e-06 -4.360163e-05 6.3782672e-06 -2.7961276e-05 -1.77459e-05 9.1124575e-06 -8.475084e-06 -1.2350985e-05
5.187012e-06 -1.8004124e-05 -4.6215864e-05 4.1750236e-06 -5.9803244e-07 -4.1841054e-06 4.965694e-06 -3.380934e-05
1.2070979e-05 -6.1499004e-06 -6.31465e-06 -3.2643562e-05 -2.7324233e-05 6.4403243e-06 -2.2002348e-05 5.562158e-06
-3.162556e-06 -9.529905e-06 -8.115581e-06 -4.9877e-06 1.9075163e-05 -3.424568e-05 -2.218154e-05 -8.870292e-06
3.0377332e-05 -2.5133877e-05 -1.4028612e-05 4.9803416e-06 -3.1012452e-05 8.074128e-06 -8.288685e-06 -7.6897226e-07
-1.8627448e-05 -2.6963831e-05 -1.2137421e-05 5.8705464e-05 2.0479301e-05 -3.2955668e-06 -3.329709e-05 1.7949655e-05
-1.2115985e-05 -1.7488792e-05 -3.521361e-05 4.5103232e-07 -6.715067e-06 2.394694e-05 5.6022445e-06 9.371065e-06
-2.1782203e-05 -5.8718933e-06 -3.2980784e-05 3.1526106e-05 2.6678661e-05 -9.513692e-07 9.434063e-06 -2.1292983e-05
-2.3026461e-05 -3.0593455e-05 1.8695488e-05 -7.88249e-06 2.8658218e-05 -2.1937665e-05 -3.834739e-05 -1.4298195e-05
-4.594842e-06 -2.1111604e-05 2.1915566e-05 -9.062787e-06 4.468386e-05 -2.0932397e-05 -1.3544232e-05 2.8463592e-06
4.4966314e-06 4.068925e-06 4.1871397e-07 1.0922065e-05 -1.9084116e-06 -2.3496686e-05 1.4381993e-05 -1.4992211e-05
-2.652831e-05 -2.9920791e-05 1.6842127e-05 2.5888745e-05 -9.241894e-06 -1.3330594e-05 -9.2794035e-06 -1.2656331e-05
-3.0185161e-05 -2.8309369e-05 -2.1345157e-05 -1.10251885e-05 9.852745e-07 -3.323646e-05 -1.363052e-05 -2.2066251e-05
2.0999187e-05 1.5547928e-05 6.2088635e-05 3.390775e-05 1.7509368e-05 1.584877e-05 6.866828e-06 1.0347744e-05
1.7239243e-05 -6.3913976e-05 1.84242e-05 2.035605e-05 -2.2293325e-06 -2.2962766e-05 -1.7082213e-05 -2.0920486e-07
00000000: b447 b6b7 b3ac 5ab8 8447 f8b7 5f3a 0237
00000010: 4b87 05b8 5c40 3ab8 4ff0 56b7 5325 14b7
00000020: 8721 9836 f161 22b6 20df 1ab8 903a 41b5
00000030: 6a70 bcb6 f8a0 1bb7 f86e eab7 747e 3db6
00000040: 5e73 ea38 8058 69b8 1780 dcb7 1a31 a3b6
00000050: 87ea ec35 6be6 8bb6 ec7a e736 979c 2bb6
00000060: 8aa2 9bb7 dcf1 3237 0701 9cb5 c8e2 8937
00000070: 15f4 4cb6 f7e4 87b6 c6e8 9db7 1522 71b7
00000080: 9ee9 b337 db9a 38b8 e66c b736 5a80 b437
00000090: f14d bbb7 d8b9 cfb6 0315 41b8 ffd5 06b8
000000a0: 5341 efb7 9f04 de37 94c7 fc36 3f35 83b7
000000b0: 9a60 1638 fc49 aeb7 da4b cc36 8182 c937
000000c0: 91b3 3436 1dcb 3cb8 5e8e 9736 ea8a 6636
000000d0: b1e9 09b8 f210 4cb7 8825 9838 2bbd 16b7
000000e0: 3b2e 04b8 159e a7b7 36de 52b8 126d cd37
000000f0: 4d6d 9e37 09a4 4b38 eb02 4037 31d6 b536
00000100: 28be fcb7 1fe7 dab7 1ece bab7 6470 77b6
00000110: 6464 55b8 d7fc 0db8 8920 92b7 7a12 01b8
00000120: 8095 e335 a3ec da35 6713 8036 6afa eb36
00000130: 2fbd 4db6 143e 2bb7 70f9 c7b7 2f2c 96b7
00000140: b76b 1e38 e250 c437 04eb 99b7 0ae8 5f37
00000150: f7f5 22b8 2cf7 2c38 e44b 9a37 85ac 00b8
00000160: 3c5a 7ab7 93b7 46b7 f098 d9b7 888c 4eb7
00000170: 797c 9db7 a472 9b37 bd77 3eb8 31ef 93b7
00000180: d7b7 d733 12af 82b7 f539 16b8 9bee 0d37
00000190: 61ce cfb7 5c07 e936 c26e 1db7 9a88 ac37
000001a0: b368 0eb6 ddc5 8138 d15d 7e37 bd5d 62b8
000001b0: 2f1f 5437 9afc e1b5 3f5e a7b7 7be1 6c37
000001c0: 1201 11b8 31f6 db37 f8b1 47b7 0dfe 65b7
000001d0: 4a44 0638 3c85 0db8 bbe6 94b6 be63 1f38
000001e0: 2609 2c37 8a83 31b8 fb50 c936 95a6 feb7
000001f0: 3cd5 0e38 ae9f 8336 fa69 84b7 c631 1db7
00000200: ec0d 8037 763b f0b7 1e5c 39b8 18e2 d6b7
00000210: e4f0 12b8 9f72 a6b7 dcb6 0fb8 dda6 c0b7
00000220: 6958 b5b6 e5e0 36b8 e604 d636 628e eab7
00000230: 08dd 94b7 b5e1 1837 3530 0eb7 1437 4fb7
00000240: 180c ae36 9007 97b7 e8d7 41b8 2e17 8c36
00000250: 7a88 20b5 3165 8cb6 fd9e a636 81ce 0db8
00000260: 7684 4a37 3e5b ceb6 6ee2 d3b6 c2ea 08b8
00000270: 5836 e5b7 f719 d836 af91 b8b7 93a2 ba36
00000280: 4c3c 54b6 a1e2 1fb7 2828 08b7 045c a7b6
00000290: 9a03 a037 05a3 0fb8 7f12 bab7 9dd1 14b7
000002a0: d3d2 fe37 97d6 d2b7 6e5c 6bb7 cf1c a736
000002b0: 5e13 02b8 1e76 0737 a20f 0bb7 5f6b 4eb5
000002c0: 2442 9cb7 6330 e2b7 d4a1 4bb7 833a 7638
000002d0: f7ca ab37 6829 5db6 7aa8 0bb8 9792 9637
000002e0: c245 4bb7 e5b4 92b7 53b2 13b8 6925 f234
000002f0: fc51 e1b6 a9e1 c837 eafa bb36 6b38 1d37
00000300: edb8 b6b7 2e07 c5b6 d954 0ab8 e63a 0438
00000310: fdcb df37 9861 7fb5 fe46 1e37 559e b2b7
00000320: f328 c1b7 7951 00b8 41d4 9c37 093f 04b7
00000330: 0e67 f037 c706 b8b7 32d7 20b8 48e2 6fb7
00000340: 642d 9ab6 d318 b1b7 52d7 b737 600c 18b7
00000350: ee6a 3b38 fb97 afb7 093c 63b7 1404 3f36
00000360: c5e1 9636 cd87 8836 9ccb e034 e93d 3737
00000370: 4312 00b6 c01a c5b7 314a 7137 0e87 7bb7
00000380: 1d89 deb7 69fe fab7 3148 8d37 a82b d937
00000390: a20d 1bb7 77a6 5fb7 bcae 1bb7 8756 54b7
000003a0: 2436 fdb7 e879 edb7 600e b3b7 d3f8 38b7
000003b0: c63d 8435 6167 0bb8 a3ae 64b7 ea1a b9b7
000003c0: 6927 b037 ec6c 8237 9535 8238 2b38 0e38
000003d0: 15e1 9237 f9f2 8437 9a69 e636 399b 2d37
000003e0: fe9c 9037 8e09 86b8 ab8d 9a37 49c2 aa37
000003f0: a49b 15b6 2aa0 c0b7 c64b 8fb7 cba1 60b4
