mechinterp_research_project/models/sparse_probes/pythia-2.8b/reg_lambda29.999999999999996/gpt_neox.layers.30.mlp.act.pt (torch, 42698 bytes, 1 tensors)

linear.weight f4 [1, 10240]
000000 49 d2 0d b8 77 c7 8b 38 9a 29 00 b8 5f d5 99 b7
       -3.3812863e-05 6.66519e-05 -3.0556323e-05 -1.833838e-05
000010 14 30 3e 34 5b d0 e2 b7 84 18 e5 b7 dd c4 a8 b7
       1.771262e-07 -2.7038323e-05 -2.7310343e-05 -2.0118832e-05
000020 3a c5 d9 b6 2e e1 37 b7 e1 e9 46 38 56 04 71 37
       -6.490064e-06 -1.0960079e-05 4.7424695e-05 1.4365729e-05
000030 7a 47 dc 37 58 19 b1 b7 f2 d0 30 b8 2d e7 0a b7
       2.6259328e-05 -2.1111846e-05 -4.2156265e-05 -8.279266e-06
000040 cc 43 b4 37 e7 28 39 37 c9 79 b0 36 ab c4 b3 37
       2.1489242e-05 1.1036383e-05 5.2593864e-06 2.1430043e-05
000050 c9 db 30 b7 89 d0 16 b7 a0 45 70 37 8e e7 5b b8
       -1.054159e-05 -8.98925e-06 1.4321326e-05 -5.242932e-05
000060 ee c7 e2 b7 77 a3 0b b8 a7 7e d1 b7 89 5c de b6
       -2.7034399e-05 -3.329242e-05 -2.4973719e-05 -6.626888e-06
000070 d2 d9 0f 36 7b 6b dd b7 27 ea 6c b8 4c 4d f5 37
       2.1435449e-06 -2.6395302e-05 -5.6484856e-05 2.924227e-05
000080 ff ce 07 b7 64 eb 84 b7 02 f9 16 b7 43 31 95 b7
       -8.094822e-06 -1.5845239e-05 -8.998673e-06 -1.7785123e-05
000090 40 ed 79 36 69 3d 75 37 5d 0b 5c 37 ab 36 47 b8
       3.724199e-06 1.4617436e-05 1.3115668e-05 -4.749621e-05
0000a0 af fc a6 37 06 a5 d3 36 a4 86 09 b6 55 05 33 b7
       1.9906407e-05 6.3075013e-06 -2.0492962e-06 -1.0670473e-05
0000b0 c1 40 a8 b7 55 c3 ac 37 24 1b 85 37 0b 65 d0 37
       -2.0057314e-05 2.0594956e-05 1.5867474e-05 2.4842584e-05
0000c0 34 5c 86 b8 3e 68 9d b7 ff 50 40 b5 09 7f fb b7
       -6.406792e-05 -1.87644e-05 -7.164344e-07 -2.9980687e-05
0000d0 90 af 40 b7 67 7c d3 38 0d b2 9a b7 5e 9c b0 b7
       -1.1484968e-05 0.00010084436 -1.8441142e-05 -2.105365e-05
0000e0 4d 41 cb 36 3f 26 46 37 9d 24 d9 36 f7 5e 6d 37
       6.0574735e-06 1.18106245e-05 6.4713663e-06 1.41484115e-05
0000f0 00 9f 9d b7 37 90 ef 37 68 42 ac 36 7d b6 9c b7
       -1.8789899e-05 2.8558175e-05 5.13373e-06 -1.8681627e-05
000100 2a aa 0d b8 a4 39 0c b8 d7 7b 9b 37 e5 27 70 b6
       -3.3775497e-05 -3.3432283e-05 1.8535107e-05 -3.5786009e-06
000110 99 84 de b7 67 ed 3f b7 a2 cb 7d 37 8f 78 15 37
       -2.6526208e-05 -1.1439762e-05 1.5127387e-05 8.909162e-06
000120 26 74 08 35 a6 56 5e b5 36 e8 9a b8 25 33 29 b8
       5.0832966e-07 -8.2827535e-07 -7.386545e-05 -4.0340372e-05
000130 0e bd aa 37 20 88 c2 36 50 d7 38 37 0b 60 f0 b7
       2.0353615e-05 5.7974976e-06 1.1017386e-05 -2.8654953e-05
000140 f9 ab bb b6 ca 1b 83 b6 c0 5a ea 37 70 32 5f b8
       -5.5930545e-06 -3.9073393e-06 2.7937233e-05 -5.3214317e-05
000150 13 e7 53 b8 a1 f9 9a b7 f4 66 58 b7 ab db 4f b8
       -5.0521525e-05 -1.8474473e-05 -1.2898574e-05 -4.9557228e-05
000160 09 e5 5d b7 d4 63 31 b8 8c f9 10 b8 3d c0 a3 b6
       -1.3225953e-05 -4.229306e-05 -3.4564684e-05 -4.880158e-06
000170 7a de 2d 38 e6 f7 44 36 c3 61 6f 38 1d 05 a4 37
       4.145361e-05 2.9350572e-06 5.7073088e-05 1.9552705e-05
000180 26 ff 30 b8 37 7d 91 37 cc 29 75 38 4c 85 68 b8
       -4.2199295e-05 1.7343655e-05 5.845148e-05 -5.5437253e-05
000190 f5 04 10 37 a7 9a a3 b7 86 f0 22 37 24 1e 29 b7
       8.584223e-06 -1.950313e-05 9.711954e-06 -1.0080203e-05
0001a0 19 ca 2e 35 01 3c 9a b7 82 02 23 37 cb 19 a8 b7
       6.511414e-07 -1.8386172e-05 9.716141e-06 -2.0039171e-05
0001b0 c1 81 f2 b6 1f b7 bb b7 bc 4d d0 b7 43 16 94 b6
       -7.2272674e-06 -2.237741e-05 -2.483173e-05 -4.4133353e-06
0001c0 c0 ec ce b6 14 c8 7e b7 8c 77 d6 36 e9 2b 8a 37
       -6.1668397e-06 -1.5186164e-05 6.391614e-06 1.647133e-05
0001d0 7d 5a 32 b7 7d 0a 29 b7 ff 62 b4 b6 0c 51 ab 37
       -1.0630695e-05 -1.0075627e-05 -5.3759427e-06 2.0422529e-05
0001e0 45 ac da b6 47 99 09 b8 02 7d 52 37 eb fe 14 b7
       -6.516961e-06 -3.2806096e-05 1.2546081e-05 -8.88084e-06
0001f0 0f 0c 2f 38 57 54 9f b7 bb 18 38 b8 45 f7 64 38
       4.173448e-05 -1.899355e-05 -4.389205e-05 5.4589724e-05
000200 98 99 f0 37 c5 9d f4 b4 19 10 95 37 25 9c f0 37
       2.8681752e-05 -4.5563334e-07 1.776968e-05 2.868294e-05
000210 74 4a 9b 37 f5 65 60 38 30 3e 8d b7 8e 24 41 38
       1.851211e-05 5.3500717e-05 -1.6837468e-05 4.604883e-05
000220 f3 d8 45 36 7b a3 8a 37 c7 c6 25 b8 ae 57 bb b7
       2.9481569e-06 1.6527008e-05 -3.952419e-05 -2.2332966e-05
000230 cd c3 c7 37 da 21 88 b8 48 d7 2b b8 f3 a0 c1 37
       2.3813825e-05 -6.491291e-05 -4.0970073e-05 2.308234e-05
000240 1d bd 02 b8 7a 6a 39 b7 80 09 1b b8 cc 53 e5 34
       -3.117054e-05 -1.105165e-05 -3.6963727e-05 4.2715544e-07
000250 5b e9 16 38 60 dd ae 37 a0 ee be b7 d4 71 0c b8
       3.5980116e-05 2.0845502e-05 -2.2760883e-05 -3.348461e-05
000260 03 5c 21 b8 45 84 e4 b7 37 85 e9 b7 20 d2 64 b8
       -3.8471084e-05 -2.724131e-05 -2.7837797e-05 -5.455513e-05
000270 2d 76 15 b6 09 b4 fe b7 2a d6 2c 36 ce f3 2a 35
       -2.2271518e-06 -3.0362995e-05 2.5754657e-06 6.368472e-07
000280 74 e0 2a 38 3e eb 2b 37 dd bb 1b 37 90 eb 88 36
       4.0740197e-05 1.0247166e-05 9.28246e-06 4.080539e-06
000290 90 80 4f b7 fd 17 16 37 13 bd cc 37 c7 76 f2 b7
       -1.2368095e-05 8.946282e-06 2.440674e-05 -2.8903958e-05
0002a0 a2 75 90 b7 fd 10 9e b7 1f bb f2 b6 32 21 6e b7
       -1.7220915e-05 -1.8842979e-05 -7.233946e-06 -1.4193634e-05
0002b0 ee d0 7b 37 f9 65 52 b8 9b bc 51 b7 a9 20 1a b6
       1.5009411e-05 -5.016287e-05 -1.2501284e-05 -2.29668e-06
0002c0 c3 b3 b7 b7 31 0b c3 35 6f 56 83 b7 f2 d2 b0 37
       -2.1899008e-05 1.4531889e-06 -1.5656666e-05 2.1079064e-05
0002d0 c8 c0 10 b7 af 5a 6d b6 2c b6 91 b7 e7 11 54 b7
       -8.627954e-06 -3.5368537e-06 -1.7370177e-05 -1.2640353e-05
0002e0 5c 1a 87 b7 d2 c7 42 37 9b b3 d6 b7 06 a4 bc 37
       -1.6105529e-05 1.1609825e-05 -2.5594423e-05 2.2487726e-05
0002f0 8d db b1 b5 a9 00 2a b7 1b 70 19 b7 d0 93 73 b7
       -1.3251425e-06 -1.0132943e-05 -9.145612e-06 -1.4518344e-05
000300 18 1e 0f b8 5b 32 b5 b7 85 6d 1f b8 2e 29 71 b7
       -3.4121884e-05 -2.160033e-05 -3.8010552e-05 -1.4374307e-05
000310 e3 c9 92 37 88 9e 74 b8 f3 9c 57 b8 77 66 fa 36
       1.7498567e-05 -5.8321777e-05 -5.1406165e-05 7.462509e-06
000320 03 1f bd 36 80 f2 21 38 8e 48 2f 35 c2 38 b9 36
       5.636249e-06 3.8611237e-05 6.529816e-07 5.520037e-06
000330 49 5d da b7 71 67 83 35 5b 30 9a b6 c4 67 d8 36
       -2.6031064e-05 9.790366e-07 -4.595187e-06 6.4493815e-06
000340 b4 93 94 b7 0d c3 f7 b7 3b 1d ad 37 bf cd 0a b8
       -1.7711754e-05 -2.9535522e-05 2.0636819e-05 -3.309338e-05
000350 d5 33 3e b8 af b2 2c 37 34 29 03 b7 c7 59 ff b7
       -4.5347802e-05 1.0293602e-05 -7.817802e-06 -3.0440175e-05
000360 61 e8 b9 37 b6 f4 c9 b7 2b 89 63 b5 04 b0 01 38
       2.2161928e-05 -2.407502e-05 -8.4763695e-07 3.0919924e-05
000370 75 a6 18 37 82 ca ed 37 62 73 45 38 f3 35 81 37
       9.098662e-06 2.8346902e-05 4.707592e-05 1.540312e-05
000380 72 af a0 37 c3 b2 68 b6 ec 46 c3 b7 d3 43 56 b6
       1.9155184e-05 -3.4674747e-06 -2.3278837e-05 -3.1927964e-06
000390 79 43 0c b8 b3 a7 1a b7 cd 08 57 b7 03 9a 07 35
       -3.344144e-05 -9.218161e-06 -1.2817048e-05 5.0515536e-07
0003a0 3e 7c ac 37 9f 9b c9 b7 d5 0b 22 b6 47 7d 80 35
       2.0561853e-05 -2.4033534e-05 -2.4146768e-06 9.573204e-07
0003b0 b5 45 e0 36 ea c7 e2 b7 9e 98 6d b7 e0 64 31 37
       6.683835e-06 -2.7034392e-05 -1.4161835e-05 1.0573509e-05
0003c0 c6 0b 8a b7 67 4f f5 36 9e 22 9a 36 41 86 c9 b7
       -1.6456364e-05 7.3108126e-06 4.5935876e-06 -2.4023584e-05
0003d0 6a 92 d0 35 b9 b1 94 b7 69 69 91 b6 f3 9c 28 b8
       1.553982e-06 -1.7725733e-05 -4.333608e-06 -4.020049e-05
0003e0 6a a3 d0 b6 e3 fe ab 37 8c b9 c5 36 b3 f2 dd 36
       -6.217907e-06 2.050348e-05 5.892658e-06 6.614567e-06
0003f0 e5 49 90 b5 54 7b db 37 85 45 0e 38 c1 67 45 b8
       -1.0750342e-06 2.6164264e-05 3.3920183e-05 -4.706509e-05
