mechinterp_research_project/models/sparse_probes/pythia-2.8b/reg_lambda15.917892219322098/gpt_neox.layers.25.mlp.act.pt (torch, 42698 bytes, 1 tensors)

linear.weight f4 [1, 10240]
00000000: 0da8 86b8 43ea 98b5 2245 ebb6 2904 e337
00000010: c83d c036 200f 3c37 9f54 30b7 7173 19b8
00000020: 8e07 22b8 7d0d 17b8 f583 19b7 c469 b8b6
00000030: 8c44 8fb7 755e 0db7 edc6 2938 89cd 1eb8
00000040: 04cc c437 f123 16b8 3f13 47b8 ae40 4037
00000050: ccd2 05b7 609d a4b7 ebae 8cb7 946d 3fb8
00000060: d853 1b38 3902 8235 d7b5 8db7 1995 8fb7
00000070: 39b4 1d36 2a50 08b6 198c cfb6 c8b6 1b37
00000080: ba37 bf37 7d7f 8a37 c250 a0b8 6362 9337
00000090: 5000 a3b7 8701 3737 3b9e c737 85f2 c636
000000a0: 26bc 1bb8 f031 17b8 809a 6a37 40c7 20b7
000000b0: 02f5 79b7 0901 35b8 1234 58b8 874e 12b7
000000c0: df54 77b7 8353 ebb7 54f6 3eb8 6ea1 9c36
000000d0: f5af 3db7 c751 beb7 dd85 4c37 036a afb6
000000e0: 6853 23b8 6b67 8236 df6b 3938 0a70 8937
000000f0: ff6e edb7 d44e 0eb8 6c87 55b8 d27c 19b8
00000100: ad6b 86b7 eb64 1337 a013 3e38 3ba2 89b6
00000110: 6bc5 1cb7 bf5c 7237 8313 18b8 9b20 19b8
00000120: ba5c 86b7 cf0b 38b7 b8d5 2338 69ad 8337
00000130: c85c a3b7 6b41 7db7 04d7 8437 0023 3f37
00000140: 532b bab7 b439 e136 e287 3d38 9307 61b8
00000150: 91e6 9db6 57f1 4438 fbe8 2e38 6b49 9fb6
00000160: 269a 87b6 f16a 7bb7 f4b7 8eb3 531d 59b6
00000170: 550a 0f35 0050 03b8 3327 1737 2f23 b0b7
00000180: fbf7 e9b7 ed82 b137 95d3 97b8 aabe 63b8
00000190: dcfb a9b7 5029 dc37 84a1 f9b5 75fc a4b7
000001a0: e79b e0b7 ddd0 86b7 e573 8bb8 0308 7cb8
000001b0: 127a 71b8 9c31 0bb7 427c 3a37 97e4 88b6
000001c0: 87ef 8037 6211 bab5 5181 0836 ec68 5038
000001d0: 5b11 8136 5ea0 30b8 9d38 0db8 25ad 76b7
000001e0: b74c 48b8 e2e0 44b8 8349 da37 619b 74b8
000001f0: aa62 21b8 e643 1fb7 27ec 2137 4d13 0538
00000200: c968 26b8 7c80 d337 a1c2 53b7 59a2 14b8
00000210: 15e3 b137 e473 2eb7 1e60 6437 5969 b337
00000220: 44a4 c734 da48 4eb8 8b38 e2b6 b452 da37
00000230: b297 a9b8 a7bd 3a37 7aa3 0738 0536 c837
00000240: 47fd 4f37 3d74 63b8 47da edb7 d19c 53b7
00000250: 3c59 a5b7 d4ba b435 21c1 dfb7 5e61 04b8
00000260: 0d63 6b37 97b2 8838 2d54 36b8 4af4 34b7
00000270: 1b3a 2038 e3a5 0db8 02f7 04b8 aab4 4ab8
00000280: 82a7 3237 c80c 83b6 5c75 4237 6f7d f537
00000290: 8231 dbb7 ba89 7d37 3830 1537 f787 6936
000002a0: df8b 2237 ed46 1cb8 63ef 2a36 81cd 1eb8
000002b0: c3b9 44b8 07cd 7b37 57b2 26b8 635f 49b8
000002c0: 5079 8437 ad24 2eb7 8c35 bbb7 6107 1ab7
000002d0: e320 f5b7 3936 6038 c9d7 c5b7 e480 4937
000002e0: 5355 9ab7 e01d 1db8 b89d 0537 0c86 7f37
000002f0: 6cbe 8db5 fa5c e1b7 a030 0cb8 1ff5 0838
00000300: 6301 03b8 5d18 bab6 9130 32b8 3914 19b8
00000310: 0249 ff36 91fd 73b7 40b3 29b7 5a1d f736
00000320: 3721 4bb8 1fdc 1eb8 4d22 2ab8 ffa8 d9b6
00000330: 5fb5 ac36 d1b4 b437 001d 4db6 535d e3b5
00000340: 05a8 c0b7 b60a feb7 150f 5537 c1dc 7237
00000350: 5e25 17b8 9c2c 39b8 fde2 2bb8 1b05 1cb7
00000360: a54b ac35 5d2c fcb7 a111 11b8 ed15 1e37
00000370: f276 1538 7182 93b6 8f17 9c37 5c3e 3237
00000380: ebb3 82b8 7691 1337 503d eeb8 a897 24b6
00000390: 8b1e c9b7 8b3b d9b7 5fe4 0ab7 a621 e9b7
000003a0: c20b 53b8 a962 3b38 90aa 5937 8250 a5b6
000003b0: 2818 15b6 f4a2 a2b8 cb9e 37b7 2020 08b8
000003c0: 9e1c 22b8 88bf f236 3e42 8737 3817 be37
000003d0: fe45 6737 f7b4 5eb7 eac7 d2b6 ea0b 9237
000003e0: e135 23b8 540f 3435 bad8 cdb6 1796 8ab3
000003f0: 66f4 0437 aca9 5337 703d 5f37 f01e 48b8
-6.42092e-05 -1.1393062e-06 -7.011594e-06 2.7062446e-05 5.729238e-06 1.1209195e-05 -1.051012e-05 -3.6585556e-05
-3.8630846e-05 -3.6013767e-05 -9.150234e-06 -5.49594e-06 -1.7078848e-05 -8.426247e-06 4.0478004e-05 -3.7861555e-05
2.3460023e-05 -3.579626e-05 -4.746322e-05 1.1459151e-05 -7.976498e-06 -1.9623607e-05 -1.6770753e-05 -4.564e-05
3.7032965e-05 9.686402e-07 -1.6893186e-05 -1.7116357e-05 2.3499726e-06 -2.031224e-06 -6.1853902e-06 9.281277e-06
2.2794924e-05 1.6510248e-05 -7.644437e-05 1.756958e-05 -1.943126e-05 1.0908006e-05 2.379633e-05 5.929093e-06
-3.7130107e-05 -3.6047713e-05 1.3983459e-05 -9.583135e-06 -1.4898602e-05 -4.3154727e-05 -5.1546907e-05 -8.720562e-06
-1.4742108e-05 -2.8053071e-05 -4.552894e-05 4.667955e-06 -1.1306246e-05 -2.2687846e-05 1.2190515e-05 -5.227748e-06
-3.8939907e-05 3.8863413e-06 4.42079e-05 1.6383845e-05 -2.8304288e-05 -3.3928853e-05 -5.090928e-05 -3.659429e-05
-1.6024185e-05 8.78538e-06 4.5317807e-05 -4.1018043e-06 -9.3442895e-06 1.4445918e-05 -3.6257796e-05 -3.650841e-05
-1.6017224e-05 -1.0970004e-05 3.906127e-05 1.5697167e-05 -1.9474319e-05 -1.5095206e-05 1.583575e-05 1.1392636e-05
-2.2193102e-05 6.71224e-06 4.5187662e-05 -5.3651234e-05 -4.705806e-06 4.6954807e-05 4.1701813e-05 -4.7471162e-06
-4.0412588e-06 -1.4985665e-05 -6.645851e-08 -3.2352589e-06 5.3286686e-07 -3.130734e-05 9.009428e-06 -2.0997219e-05
-2.789124e-05 2.1161011e-05 -7.239651e-05 -5.4298587e-05 -2.0263651e-05 2.6245281e-05 -1.8598953e-06 -1.9667883e-05
-2.6775479e-05 -1.6071304e-05 -6.6496235e-05 -6.0088943e-05 -5.7572564e-05 -8.296596e-06 1.1115395e-05 -4.079727e-06
1.5370328e-05 -1.3863139e-06 2.0340851e-06 4.968878e-05 3.84652e-06 -4.2111024e-05 -3.3669745e-05 -1.4703056e-05
-4.7755162e-05 -4.693948e-05 2.6021857e-05 -5.831884e-05 -3.847728e-05 -9.492947e-06 9.651331e-06 3.1727646e-05
-3.9675073e-05 2.521299e-05 -1.2621896e-05 -3.5437148e-05 2.1205788e-05 -1.0398191e-05 1.3612238e-05 2.138752e-05
3.7186157e-07 -4.9182076e-05 -6.7419073e-06 2.6026137e-05 -8.0868034e-05 1.1130621e-05 3.2338758e-05 2.3867013e-05
1.2397132e-05 -5.4229273e-05 -2.8354245e-05 -1.2613092e-05 -1.9711086e-05 1.3465419e-06 -2.6673604e-05 -3.1561933e-05
1.4030154e-05 6.51825e-05 -4.3470576e-05 -1.0785714e-05 3.8201088e-05 -3.3771514e-05 -3.1701296e-05 -4.832881e-05
1.0648628e-05 -3.905592e-06 1.1590626e-05 2.9264686e-05 -2.6129888e-05 1.5112042e-05 8.892319e-06 3.4798848e-06
9.688519e-06 -3.7259353e-05 2.5471315e-06 -3.7861526e-05 -4.6903046e-05 1.50085025e-05 -3.9743576e-05 -4.801097e-05
1.5792117e-05 -1.0379747e-05 -2.2317072e-05 -9.180833e-06 -2.922159e-05 5.345626e-05 -2.3584713e-05 1.2010543e-05
-1.8397963e-05 -3.745954e-05 7.9641395e-06 1.5230395e-05 -1.0560739e-06 -2.6865386e-05 -3.3423887e-05 3.2653214e-05
-3.1234125e-05 -5.546068e-06 -4.2483738e-05 -3.6496876e-05 7.6080914e-06 -1.4542967e-05 -1.011492e-05 7.3645906e-06
-4.8429905e-05 -3.787514e-05 -4.0563104e-05 -6.4867777e-06 5.147114e-06 2.1541871e-05 -3.056426e-06 -1.6939979e-06
-2.2966424e-05 -3.0284147e-05 1.2699301e-05 1.4475722e-05 -3.6036006e-05 -4.4148983e-05 -4.0980976e-05 -9.299513e-06
1.2837014e-06 -3.00614e-05 -3.4587112e-05 9.422639e-06 3.5635145e-05 -4.3961268e-06 1.860762e-05 1.0624146e-05
-6.2323954e-05 8.795751e-06 -0.00011360145 -2.452618e-06 -2.397529e-05 -2.5896143e-05 -8.278613e-06 -2.7791433e-05
-5.031727e-05 4.467616e-05 1.297392e-05 -4.9267555e-06 -2.221679e-06 -7.755114e-05 -1.0944622e-05 -3.2454845e-05
-3.865046e-05 7.234459e-06 1.61241e-05 2.2660577e-05 1.3784969e-05 -1.3274365e-05 -6.2817608e-06 1.7410104e-05
-3.8912407e-05 6.707753e-07 -6.1347064e-06 -6.453427e-08 7.924717e-06 1.2616085e-05 1.330614e-05 -4.771253e-05
