mechinterp_research_project/models/sparse_probes/pythia-2.8b/reg_lambda15.917892219322098/gpt_neox.layers.28.mlp.act.pt (torch, 42698 bytes, 1 tensors)

linear.weight f4 [1, 10240]
0	0xb7b45a74	-2.1499793e-05
1	0xb8837182	-6.267709e-05
2	0xb6b5e90f	-5.421352e-06
3	0xb82e3a3e	-4.1539075e-05
4	0x3834db4b	4.3119577e-05
5	0x36dc8bfb	6.572807e-06
6	0x376fb3c0	1.4287361e-05
7	0xb8243c48	-3.915679e-05
8	0x37a9527b	2.0184778e-05
9	0xb7c936d6	-2.3986602e-05
10	0x37b3a5d2	2.1415679e-05
11	0xb847842d	-4.7568396e-05
12	0xb7aaddd3	-2.0368874e-05
13	0xb758ebdf	-1.2929521e-05
14	0x35e18191	1.6801515e-06
15	0xb652074d	-3.1296688e-06
16	0x37ee4c91	2.8407465e-05
17	0x385dfcf5	5.292609e-05
18	0xb93e29b0	-0.00018135342
19	0x38415351	4.609238e-05
20	0x37a52be7	1.9689976e-05
21	0xb71a204e	-9.186637e-06
22	0x37685f49	1.3850463e-05
23	0xb7d82ccc	-2.5770067e-05
24	0xb7cb8baa	-2.4264522e-05
25	0xb7ba97a5	-2.2243543e-05
26	0x36b1dfe4	5.3010754e-06
27	0xb7b0325e	-2.1004289e-05
28	0x37a64426	1.9820476e-05
29	0x3835ae51	4.3316108e-05
30	0xb850d4e2	-4.9789327e-05
31	0xb7c7cbae	-2.3817494e-05
32	0xb741b137	-1.15449575e-05
33	0xb7cf75d6	-2.4731195e-05
34	0x37e1feaa	2.6940677e-05
35	0xb7e6e1fb	-2.7523367e-05
36	0xb73bfc4e	-1.1204813e-05
37	0xb81c9c7d	-3.733904e-05
38	0x371ee579	9.470962e-06
39	0xb800ad6e	-3.0679097e-05
40	0x3882b91a	6.233361e-05
41	0xb90e65d5	-0.0001358011
42	0xb84bec68	-4.8619142e-05
43	0x3748ba67	1.1964329e-05
44	0x37791a79	1.484772e-05
45	0xb7823110	-1.5520054e-05
46	0xb7e8adec	-2.7737544e-05
47	0xb855ebbd	-5.1002706e-05
48	0xb72a2cb1	-1.0143195e-05
49	0xb7b4b1b5	-2.1540423e-05
50	0xb809ef53	-3.2886233e-05
51	0x37eec437	2.846318e-05
52	0x372f487d	1.044769e-05
53	0x35beb8b7	1.4209862e-06
54	0x372b1fb2	1.0199774e-05
55	0x36bbb6c1	5.5943096e-06
56	0xb85949c4	-5.180553e-05
57	0xb502e42d	-4.8760813e-07
58	0xb81e4571	-3.7734808e-05
59	0xb714eaaa	-8.876124e-06
60	0xb854e789	-5.0760373e-05
61	0x377699cf	1.4698554e-05
62	0x379301b4	1.7524559e-05
63	0xb73e3b5c	-1.1338703e-05
64	0xb7747369	-1.4570404e-05
65	0xb798b51b	-1.8204146e-05
66	0x379b33fa	1.8501643e-05
67	0x36e73b3b	6.891232e-06
68	0xb4882057	-2.5355504e-07
69	0x3609227c	2.0434663e-06
70	0xb81a4582	-3.6781195e-05
71	0xb6f0b6ac	-7.173823e-06
72	0xb790174f	-1.7176992e-05
73	0xb70542cf	-7.942973e-06
74	0x37e0f186	2.6815349e-05
75	0xb7d3e072	-2.5257676e-05
76	0xb78ee81c	-1.7035803e-05
77	0x3793bd71	1.7611981e-05
78	0xb755bb3d	-1.2739384e-05
79	0xb74d7fde	-1.2248724e-05
80	0x37ae57de	2.0783333e-05
81	0xb6afd091	-5.2396867e-06
82	0xb81db872	-3.7603495e-05
83	0x37929b2e	1.7476817e-05
84	0xb819cda9	-3.666958e-05
85	0x36f195c0	7.199793e-06
86	0x3747a138	1.1898861e-05
87	0xb7b0cab8	-2.1075233e-05
88	0x36cd47cd	6.117835e-06
89	0x371c5ce8	9.319956e-06
90	0x37cab869	2.416615e-05
91	0x36dfbbd3	6.6677835e-06
92	0x37a3eea8	1.9542247e-05
93	0xb8233afa	-3.8917155e-05
94	0x366bb6d6	3.5124153e-06
95	0x36785813	3.7006146e-06
96	0xb59e5d25	-1.1799026e-06
97	0x3759e159	1.2986676e-05
98	0xb7ebe56a	-2.8121012e-05
99	0xb7f6e0c5	-2.9430152e-05
100	0xb62096bd	-2.39296e-06
101	0xb80c50bf	-3.34538e-05
102	0x379daaf1	1.879546e-05
103	0xb7d91a01	-2.5880525e-05
104	0xb812b976	-3.4981837e-05
105	0xb709bcf6	-8.209832e-06
106	0xb793531e	-1.756247e-05
107	0xb88ab727	-6.6144676e-05
108	0xb8007b8a	-3.0632633e-05
109	0x37ae31e9	2.0765658e-05
110	0x3756ad1f	1.2795702e-05
111	0x37312118	1.0557727e-05
112	0xb7745e40	-1.4565478e-05
113	0x37cf9c6e	2.4749166e-05
114	0x37d7e482	2.5736404e-05
115	0xb77c35ac	-1.5032867e-05
116	0x385e619b	5.3019827e-05
117	0x38a414a6	7.8239755e-05
118	0x38084569	3.248957e-05
119	0xb81cb4b3	-3.7361588e-05
120	0xb74a2b93	-1.2050284e-05
121	0x373b625b	1.1168969e-05
122	0xb78b270e	-1.6588278e-05
123	0x373f07de	1.1386319e-05
124	0xb7ed047d	-2.8254692e-05
125	0x37904dfb	1.720245e-05
126	0xb78ddfb9	-1.6912689e-05
127	0xb847588c	-4.7527763e-05
128	0xb74d121f	-1.2223171e-05
129	0xb6a3800c	-4.872685e-06
130	0x37b28911	2.128308e-05
131	0xb7a92739	-2.0164634e-05
132	0xb835097d	-4.31626e-05
133	0xb71ebed9	-9.461969e-06
134	0x377092ea	1.4339321e-05
135	0xb811f530	-3.4799043e-05
136	0x371ee3d6	9.470581e-06
137	0x36b24958	5.3133517e-06
138	0xb8b175f9	-8.461992e-05
139	0x3750f07e	1.245376e-05
140	0xb7b6ada5	-2.177695e-05
141	0xb7c974a2	-2.4015379e-05
142	0x37aa200c	2.0280502e-05
143	0xb7a02146	-1.908898e-05
144	0xb830def8	-4.2169326e-05
145	0xb76cd807	-1.4116994e-05
146	0xb7c091ba	-2.2956043e-05
147	0xb6a50ea9	-4.91909e-06
148	0xb8577ff0	-5.1379146e-05
149	0xb52fe2b0	-6.5522454e-07
150	0xb7ed92a7	-2.8320892e-05
151	0x359f34d4	1.1861798e-06
152	0xb78dfd7d	-1.692655e-05
153	0xb7737780	-1.4511752e-05
154	0xb84ea29b	-4.9265665e-05
155	0x37ad5a8c	2.0665371e-05
156	0xb7bedce3	-2.2752623e-05
157	0xb717f8df	-9.058246e-06
158	0xb5b54b13	-1.35074e-06
159	0x35665e02	8.5818476e-07
160	0xb782c349	-1.5588144e-05
161	0x37045104	7.886676e-06
162	0xb7de76c0	-2.651976e-05
163	0x3703a6db	7.8470575e-06
164	0xb6b0b24c	-5.2659652e-06
165	0xb847c0a8	-4.7624722e-05
166	0x37fd28be	3.0178922e-05
167	0xb7a063a2	-1.9119881e-05
168	0x36e26d70	6.748065e-06
169	0xb7b8772d	-2.1990005e-05
170	0x3807d82e	3.238784e-05
171	0x37a741c3	1.9938574e-05
172	0xb768eace	-1.3882947e-05
173	0x37f36298	2.9013769e-05
174	0xb70a0973	-8.227641e-06
175	0xb6a76f0d	-4.989916e-06
176	0xb8567304	-5.1128693e-05
177	0x3803e032	3.1441632e-05
178	0x38209213	3.8283015e-05
179	0xb6ca4485	-6.028046e-06
180	0xb7ae3602	-2.0767566e-05
181	0xb7ee8a3b	-2.843618e-05
182	0xb4aa6f14	-3.1745788e-07
183	0x37534e59	1.2594822e-05
184	0xb73872d1	-1.0993987e-05
185	0x375f5efb	1.331395e-05
186	0x37033a6a	7.821809e-06
187	0xb6c18654	-5.767486e-06
188	0xb7dccd05	-2.6321513e-05
189	0xb821d5e8	-3.8584607e-05
190	0xb7fde327	-3.0265726e-05
191	0x3884b561	6.328035e-05
192	0xb7b665b6	-2.1743454e-05
193	0xb7bfebe0	-2.2878812e-05
194	0xb7dae898	-2.6095935e-05
195	0x3946c53b	0.00018956226
196	0xb7608d7d	-1.3384383e-05
197	0xb758b7e4	-1.2917419e-05
198	0xb7e990c5	-2.7843178e-05
199	0xb7a3ac38	-1.951131e-05
200	0x35d48420	1.5833684e-06
201	0xb5fd3a71	-1.8866978e-06
202	0x37b58a10	2.1641172e-05
203	0xb85488ab	-5.067202e-05
204	0xb552fe95	-7.860156e-07
205	0xb69a08ac	-4.590567e-06
206	0x370056fe	7.649649e-06
207	0xb7f85bbf	-2.9606626e-05
208	0xb8973d1e	-7.211625e-05
209	0xb8070282	-3.2188844e-05
210	0x371eecda	9.47268e-06
211	0x379b690c	1.8526356e-05
212	0x37c5037a	2.3485849e-05
213	0x38508173	4.9711623e-05
214	0x37abfa14	2.050124e-05
215	0x3691f3ad	4.3497043e-06
216	0x36cdff10	6.1391693e-06
217	0xb665b451	-3.4228617e-06
218	0xb809eb97	-3.2882755e-05
219	0xb6b4eff9	-5.3923545e-06
220	0xb7a1e58b	-1.9299585e-05
221	0xb66fc430	-3.5727971e-06
222	0x37b29964	2.1290682e-05
223	0xb6944bf8	-4.4195876e-06
224	0x37fe52b8	3.0317678e-05
225	0xb70a1e1b	-8.23245e-06
226	0x3948779f	0.00019118049
227	0xb7cec570	-2.4649053e-05
228	0x36567f74	3.1962672e-06
229	0xb4b0e6df	-3.2950535e-07
230	0xb83da99c	-4.5219072e-05
231	0x376bbdd3	1.4051288e-05
232	0x37e61d42	2.743176e-05
233	0x3793c144	1.7613762e-05
234	0xb85434ba	-5.0593844e-05
235	0xb60b8b09	-2.0793543e-06
236	0x3775a48f	1.4641452e-05
237	0x3871b706	5.762933e-05
238	0xb8426923	-4.635112e-05
239	0xb83253d1	-4.2516567e-05
240	0xb8112d74	-3.4613025e-05
241	0x37a42d0a	1.9571296e-05
242	0x382cb8f3	4.1180243e-05
243	0xb8792498	-5.9400307e-05
244	0x379fe35b	1.9060148e-05
245	0xb820803d	-3.8266404e-05
246	0xb6ce53ed	-6.1490487e-06
247	0xb72a3d57	-1.0147071e-05
248	0xb7fae142	-2.9907216e-05
249	0x381d8a8d	3.7560752e-05
250	0x3613d45e	2.202832e-06
251	0xb7a44128	-1.9580664e-05
252	0x36b3dbd1	5.3602057e-06
253	0xb8284030	-4.01141e-05
254	0xb7a84b14	-2.0062122e-05
255	0x37912511	1.7302607e-05
