mechinterp_research_project/models/sparse_probes/pythia-410m/reg_lambda1.2616612944575138/gpt_neox.layers.6.mlp.act.pt (torch, 18116 bytes, 1 tensors)

linear.weight f4 [1, 4096]
00000000: e6a3 4738 eded e137 9e1f d337 6d0e 96b8
00000010: 0c96 a6b6 7a0e ebb7 28c0 a2b8 6194 e3b6
00000020: cb4c aab7 4cf5 22b7 aaac fab8 380d 41b4
00000030: 01fc a938 b635 9637 2924 4938 fc7c 29b8
00000040: 6167 3438 790a 23b9 c70b b635 55f3 adb8
00000050: c1f0 7fb7 7e40 70b8 20ca 9db8 f562 f137
00000060: 284d 5e38 bbdb 0e39 3ede 3938 daa9 d938
00000070: 9348 d336 8e31 5638 64b9 9b38 d10c 6d38
00000080: e54b 4a37 3a98 6b37 404f f2b7 dc1f e5b7
00000090: 88fa 85b9 17db 8436 cfc1 3fb9 8368 1c37
000000a0: 1448 6db8 801e 8038 bc7b 4a37 9ff0 72b8
000000b0: 7010 6bb8 26d1 1038 10d0 9437 78d7 de37
000000c0: fa39 9ab8 c2aa 90b9 fee6 8f38 e8a0 21b9
000000d0: 9f9d c6b8 b0e6 a738 b59c 9a38 9f26 28b9
000000e0: ea69 9338 7d57 0239 4a0d 5ab7 329f 0839
000000f0: b056 1b39 f66b 5438 e941 1eb9 eadd a2b8
00000100: 713b 9638 2409 a2b8 c145 2cb9 f464 fa37
00000110: 48ea 1438 02de 04b8 c169 8738 f11b b938
00000120: 1189 4938 f602 f1b7 09b8 bbb8 8da4 5538
00000130: deaf b6b8 f7cf 31b8 fbd6 d3b8 00aa 99b7
00000140: 45cc 1e38 c468 dc37 6700 91b8 24b3 4638
00000150: cee9 04b8 c2ce 8eb8 6352 4c37 05d5 d037
00000160: c908 f037 66b3 98b8 888d b1b7 48be c138
00000170: 9fd5 3238 a9d2 84b6 9527 ae38 eabd 67b8
00000180: c7a5 8e38 51dc 3738 b746 b2b8 b9e8 9037
00000190: 675e df38 d6a4 1ab8 5114 0139 f085 4a38
000001a0: 9b8c 86b8 c3bd 0d38 5129 0039 3c14 01b8
000001b0: 958d a7b7 4d7a c3b7 e754 c3b8 86ee 36b6
000001c0: 2ed8 5138 bfe8 37b9 5456 3739 053e 5eb8
000001d0: 5c02 fe37 dc32 f4b8 ba14 2538 c5a9 8139
000001e0: 0834 8ab7 6fe7 1739 69cc 86b8 bfb8 1139
000001f0: 7854 5cb8 a0d7 0338 6f75 ddb6 8c07 1fb8
00000200: a17b c938 6416 a138 d332 dd37 76cf 9a37
00000210: 27f4 e1b8 ff26 6738 c5e0 4bb7 2a3a d838
00000220: 73af 05b9 babb 48b8 1e30 6eb8 167a 0eb9
00000230: 3974 1ab8 95b5 e4b8 caa6 88b9 c71e 53b8
00000240: 7a15 2e38 c587 eab8 c896 25b7 7e3c f038
00000250: a6d5 1eb8 b830 2ab6 3c6e c438 9a99 6cb8
00000260: 85a5 01b9 9db3 ea37 0164 d838 1631 11b8
00000270: 4cfa b837 efb7 3938 f5ac 82b8 00b9 08b9
00000280: f653 9938 0952 8d38 27f0 5339 78bb bd38
00000290: 9fd4 3738 a75c bdb7 ec51 16b9 2517 67b8
000002a0: 7708 8ab8 7c3b b738 23f8 4138 d98a 80b7
000002b0: eea4 42b8 9721 84b8 8d29 acb6 05cd ca36
000002c0: 878f 6538 a1cf 0d39 e6d4 2b38 3eba 39b8
000002d0: 8747 f1b7 e9f1 7238 62ec 8137 bb28 0c39
000002e0: 03e7 13b8 e877 2039 c7fe 3538 6544 2eb6
000002f0: 2d39 a537 5244 f237 11fe 0ab9 4d02 b237
00000300: 703f 8db8 3fdd 0fb8 9443 4638 a32c 37b8
00000310: 9df6 bc37 822c 17b8 8b6b 9ab8 7225 03b9
00000320: deee 0938 ac0b a6b8 0cd4 6c37 137b 3bb9
00000330: b351 c038 6a7d 1a39 ce5f 2c37 666f b538
00000340: 5431 e037 c94c 1338 67e0 49b8 a2a8 70b8
00000350: f75b 8e38 6bc2 02b9 9f92 05b8 386a a7b8
00000360: de41 30b7 a991 d1b8 3562 9138 c71d 9838
00000370: 821a 3937 871f aab8 1165 9ab8 abd7 c3b8
00000380: 25b6 0138 e511 8437 1890 1237 1ddc 2638
00000390: c73a 97b8 07a7 85b7 4144 4bb7 b826 4bb9
000003a0: 04c6 de39 2bc1 0239 096f 0ab9 272b 74b8
000003b0: 1742 7ab8 b28b 2938 5192 3e38 b943 8f38
000003c0: b5d7 0239 c2f7 0639 6e00 bf37 aa8b 8db8
000003d0: f119 de38 fa34 9fb8 af8f c4b7 4a17 6938
000003e0: a673 ecb7 ed2e f3b7 a34e f937 4e92 88b8
000003f0: 88d2 8fb8 92e4 85b8 0dda ccb8 37c2 9335
4.759794e-05 2.6932883e-05 2.5167883e-05 -7.1552444e-05 -4.9646533e-06 -2.8020924e-05 -7.760554e-05 -6.7824008e-06
-2.0301339e-05 -9.713065e-06 -0.0001195309 -1.7979335e-07 8.105487e-05 1.7906405e-05 4.795581e-05 -4.040914e-05
4.3011623e-05 -0.00015548793 1.3563484e-06 -8.294607e-05 -1.5255239e-05 -5.7280522e-05 -7.523992e-05 2.877552e-05
5.3000782e-05 0.00013624031 4.4314416e-05 0.00010379004 6.296739e-06 5.1067727e-05 7.425508e-05 5.651714e-05
1.2057809e-05 1.40425345e-05 -2.8885552e-05 -2.7313763e-05 -0.00025554397 3.959412e-06 -0.00018287379 9.322658e-06
-5.657233e-05 6.109197e-05 1.2068947e-05 -5.7921392e-05 -5.6043675e-05 3.452706e-05 1.7739862e-05 2.6564798e-05
-7.354091e-05 -0.00027593045 6.861797e-05 -0.00015414099 -9.470735e-05 8.0061494e-05 7.372481e-05 -0.00016036116
7.029234e-05 0.00012430358 -1.2996907e-05 0.00013029276 0.00014814246 5.0645285e-05 -0.00015092608 -7.766097e-05
7.163629e-05 -7.7264645e-05 -0.00016429184 2.9849332e-05 3.550414e-05 -3.1678013e-05 6.457e-05 8.826692e-05
4.8049787e-05 -2.8730818e-05 -8.951134e-05 5.0936407e-05 -8.711194e-05 -4.239377e-05 -0.00010101307 -1.8318184e-05
3.7860376e-05 2.6274829e-05 -6.914214e-05 4.7373716e-05 -3.1689e-05 -6.809599e-05 1.217853e-05 2.4894727e-05
2.861432e-05 -7.2813404e-05 -2.116595e-05 9.2384e-05 4.2637457e-05 -3.9584306e-06 8.304339e-05 -5.5251563e-05
6.801966e-05 4.3835786e-05 -8.500873e-05 1.7274508e-05 0.000106510524 -3.6869977e-05 0.00012309967 4.8285292e-05
-6.415808e-05 3.379375e-05 0.00012222423 -3.077484e-05 -1.997388e-05 -2.3302762e-05 -9.314139e-05 -2.7258952e-06
5.0030816e-05 -0.00017538945 0.000174844 -5.2986685e-05 3.0280258e-05 -0.000116443 3.935837e-05 0.00024731286
-1.647511e-05 0.00014486698 -6.427692e-05 0.00013897101 -5.2530755e-05 3.143365e-05 -6.5999843e-06 -3.7915583e-05
9.6074546e-05 7.681249e-05 2.636892e-05 1.8454837e-05 -0.00010774313 5.511101e-05 -1.2152076e-05 0.000103105165
-0.00012749228 -4.785855e-05 -5.6788434e-05 -0.00013587656 -3.6824702e-05 -0.000109057095 -0.0002606421 -5.0334984e-05
4.1504834e-05 -0.000111832785 -9.869873e-06 0.00011455359 -3.786911e-05 -2.5360332e-06 9.366541e-05 -5.6409837e-05
-0.0001236406 2.7978613e-05 0.0001031831 -3.461641e-05 2.2051063e-05 4.427874e-05 -6.231099e-05 -0.00013038889
7.3112475e-05 6.738684e-05 0.00020211992 9.047141e-05 4.382862e-05 -2.25737e-05 -0.00014335633 -5.5096247e-05
-6.5819295e-05 8.7372e-05 4.624588e-05 -1.5323445e-05 -4.6406807e-05 -6.300507e-05 -5.1308366e-06 6.0439365e-06
5.4731525e-05 0.00013524156 4.0967854e-05 -4.428089e-05 -2.8762746e-05 5.7922593e-05 1.5488073e-05 0.00013366614
-3.5262678e-05 0.00015303458 4.3391043e-05 -2.5967831e-06 1.9696157e-05 2.8880462e-05 -0.00013255353 2.1220325e-05
-6.73522e-05 -3.429991e-05 4.7269816e-05 -4.367217e-05 2.2526185e-05 -3.6042657e-05 -7.363324e-05 -0.00012507083
3.2885808e-05 -7.917671e-05 1.4116067e-05 -0.00017879558 9.170491e-05 0.00014733305 1.0274305e-05 8.651502e-05
2.6725851e-05 3.5119043e-05 -4.8131125e-05 -5.737751e-05 6.7882174e-05 -0.00012470192 -3.1846223e-05 -7.982965e-05
-1.0505753e-05 -9.993028e-05 6.932431e-05 7.253471e-05 1.1033031e-05 -8.112104e-05 -7.362117e-05 -9.338496e-05
3.0925632e-05 1.5743959e-05 8.735828e-06 3.978248e-05 -7.211189e-05 -1.5932614e-05 -1.21156345e-05 -0.00019374012
0.00042490673 0.00012469727 -0.0001320207 -5.8214322e-05 -5.9666196e-05 4.042284e-05 4.5435798e-05 6.831386e-05
0.00012478123 0.00012871533 2.2769174e-05 -6.7494184e-05 0.00010590617 -7.5915785e-05 -2.3431929e-05 5.557322e-05
-2.8187245e-05 -2.8989709e-05 2.9719731e-05 -6.512237e-05 -6.857986e-05 -6.384509e-05 -9.768093e-05 1.1008877e-06
