mechinterp_research_project/models/sparse_probes/pythia-1b/reg_lambda0.35519871824902666/gpt_neox.layers.7.mlp.act.pt (torch, 34500 bytes, 1 tensors)

linear.weight f4 [1, 8192]
0	0xbb20e006	-0.002454759
1	0xbab04037	-0.0013446872
2	0x3a22d0c1	0.00062109163
3	0xbc116042	-0.008873047
4	0xbb7d93e4	-0.0038692886
5	0xba1eacba	-0.000605296
6	0x3acc5be7	0.0015591354
7	0x3bcc694a	0.0062381374
8	0xbc2808f4	-0.010256041
9	0xbbd973e7	-0.006636131
10	0x3aedb119	0.0018134444
11	0xbb9e9ea6	-0.0048406897
12	0xbac56e89	-0.0015062849
13	0xb94dea90	-0.00019637705
14	0x3c982ba9	0.018575506
15	0xbaebc651	-0.001798818
16	0x3c84fcd1	0.016233834
17	0xbb5e4360	-0.003391467
18	0xbba5bfc2	-0.0050582597
19	0xbb3c8f4d	-0.0028771937
20	0xbb055e53	-0.002035041
21	0xba1cf6f8	-0.0005987729
22	0xbb1f767a	-0.0024332092
23	0xba54ddc6	-0.0008120205
24	0xbb8eae20	-0.0043542534
25	0xbaf06aec	-0.0018342412
26	0xbb810678	-0.0039375387
27	0x3a43b351	0.000746538
28	0xbbcd90fa	-0.006273386
29	0x3a16dd90	0.0005755061
30	0x3a1ee9d8	0.0006062067
31	0xbb299e93	-0.002588187
32	0xbb2a66fa	-0.002600132
33	0xbc3233ce	-0.010876609
34	0xba3198d5	-0.0006774788
35	0x3b225727	0.0024771185
36	0x3bcee2fd	0.00631368
37	0xbadb5f20	-0.0016736723
38	0xbac465f7	-0.0014984001
39	0x3c056e59	0.008143985
40	0xba50d7cb	-0.0007966726
41	0xb85cfb62	-5.2686206e-05
42	0xbaa56d8d	-0.001262115
43	0xbb1f2688	-0.002428444
44	0xbb00cda3	-0.001965382
45	0x3bc79f8d	0.006092018
46	0xbbe286c0	-0.006913036
47	0x3bb157c3	0.0054120733
48	0xbbb1a46f	-0.0054212133
49	0x399c6c9b	0.00029835556
50	0x3b9780cb	0.0046235076
51	0x3a9f7779	0.0012166343
52	0xb9146a3c	-0.00014153955
53	0xba9b7d4b	-0.0011862902
54	0x3b0ee39c	0.0021803146
55	0x3b6575fd	0.0035012953
56	0x3bafb173	0.00536173
57	0x3c8b2f21	0.016990246
58	0xbb06fb58	-0.002059659
59	0xbb63d034	-0.003476155
60	0x3c2530bc	0.01008242
61	0xbc9145b2	-0.017733429
62	0xbb409f6e	-0.0029391902
63	0x3bb0b2c3	0.005392404
64	0x3c197a35	0.009367515
65	0x3afe6e60	0.0019411556
66	0x3b146e32	0.002264869
67	0x3c5e29f4	0.013559807
68	0xb9bcc3b0	-0.00036003953
69	0x3b74cb97	0.0037352794
70	0x3b9073a4	0.0044083167
71	0x3b6e54fa	0.0036366568
72	0x3b9473e3	0.0045304163
73	0x3c242d3d	0.010020551
74	0xbc3b443b	-0.011429842
75	0xbc3fb0d9	-0.011699879
76	0xbaa24dc0	-0.001238279
77	0xb9823e59	-0.00024841985
78	0xbbf85369	-0.0075783026
79	0xba1951b8	-0.0005848664
80	0x3bd634ff	0.0065370793
81	0x3c527059	0.012844169
82	0x3c024a23	0.007952246
83	0xbc3cb80e	-0.011518491
84	0x3b752117	0.0037403756
85	0xbab773eb	-0.0013996338
86	0x3b9f7e42	0.004867346
87	0x37d6f844	2.5626396e-05
88	0xba4b21c8	-0.0007748869
89	0xbaf9c8b1	-0.0019057003
90	0xbaceb2c7	-0.0015769833
91	0x3a615efb	0.0008597222
92	0xbbe9d378	-0.0071358047
93	0x3b0400ef	0.0020142158
94	0x3a14ad7e	0.00056716043
95	0xbb4c4bc4	-0.003117309
96	0x3b647588	0.0034860093
97	0x38eec84e	0.00011386034
98	0x3b2db6f6	0.0026506758
99	0x3b083539	0.0020783676
100	0xbb609f9e	-0.0034274827
101	0x3b0c257a	0.0021384642
102	0xbbbf5a31	-0.005839609
103	0x3963af5c	0.00021713733
104	0xbc10b523	-0.008832249
105	0x3b3cddd7	0.002881875
106	0xbb24ae68	-0.0025128368
107	0x3b03ef3f	0.0020131615
108	0xbc29af25	-0.010356699
109	0xbaf3cab5	-0.001859984
110	0xb9500814	-0.00019839435
111	0x3b16dd2a	0.0023020008
112	0xbb2cf5a4	-0.002639153
113	0x3bd10d22	0.0063797394
114	0x3c4e9f6e	0.012611253
115	0x3b540973	0.0032354265
116	0x3b36319b	0.0027800563
117	0xbb36b71b	-0.0027880135
118	0xbb936497	-0.004498075
119	0xbb29510e	-0.0025835666
120	0x3ab18f97	0.0013546821
121	0x39675c85	0.00022064343
122	0x3c159f2b	0.009132187
123	0x3c4d1006	0.012516027
124	0xbab9ad4b	-0.0014166025
125	0x3bbb135c	0.005709095
126	0x3c469fad	0.012123031
127	0xba5958da	-0.0008291133
128	0xbb9e81e8	-0.0048372634
129	0xbc71aa2b	-0.014750044
130	0xbbd78dee	-0.0065781986
131	0x3b903db6	0.0044018878
132	0x3a451db8	0.0007519382
133	0xbaa8157f	-0.0012823789
134	0xbba01fbf	-0.004886597
135	0x3b19ddde	0.002347819
136	0x3bd166f3	0.0063904463
137	0xbb35e3cd	-0.0027754188
138	0xb9f0ba91	-0.0004591537
139	0x3a95e2d1	0.0011435394
140	0x39b7197f	0.00034923476
141	0xbb193428	-0.0023377035
142	0xbb99fba5	-0.004699188
143	0xbbc6cffd	-0.0060672746
144	0xbc4a27d6	-0.012338599
145	0x3c0a6057	0.008445821
146	0x3c969c9e	0.018385228
147	0x3b681418	0.0035412367
148	0x3b51e4d6	0.0032027266
149	0xbb4329f6	-0.002977965
150	0xbbbc201b	-0.005741132
151	0xbb60b91e	-0.0034290026
152	0x3be377e4	0.0069417823
153	0x3b908ab2	0.004411065
154	0xbbb90e2f	-0.005647443
155	0xba8cf95a	-0.0010755465
156	0x39966fb9	0.0002869347
157	0xbc83b0ba	-0.01607548
158	0x3ba29961	0.004962132
159	0xbc83f166	-0.016106319
160	0xb99d2d48	-0.0002997911
161	0x3c8d9b1b	0.017285874
162	0xb92fc83a	-0.00016763891
163	0xbb908feb	-0.0044116876
164	0x3ccf6d9b	0.025320819
165	0xbb20d0c6	-0.0024538501
166	0xbbdbc127	-0.006706375
167	0x3b2352a3	0.0024921081
168	0x3bd19ad6	0.0063966317
169	0xbc134805	-0.008989339
170	0x3b718d69	0.0036857969
171	0x3abe1bfa	0.0014504187
172	0xbad35d37	-0.0016125803
173	0x3c7e9943	0.01553947
174	0x3bf23616	0.0073917015
175	0x3c8976cf	0.016780285
176	0xbc9848a0	-0.018589318
177	0xbbedc5fb	-0.007256267
178	0xba7d0e59	-0.0009653322
179	0x3b8fc8ce	0.0043879515
180	0xbb383dae	-0.0028112936
181	0xbab1a1c9	-0.0013552244
182	0xbc28fb8f	-0.0103138825
183	0x3bacb090	0.0052700713
184	0x3b0bd814	0.002133851
185	0xba7fbf80	-0.0009756014
186	0x3b7b8aa6	0.0038382201
187	0x3c87f66f	0.016597
188	0x3a53c45c	0.0008078271
189	0x3c4a9c02	0.012366297
190	0xb94c97b5	-0.00019511471
191	0x3947297b	0.00018993572
192	0x3be0404e	0.006843603
193	0x3b2400b2	0.0025024829
194	0x3b7458dd	0.0037284412
195	0xbcd76731	-0.026294323
196	0x3bc57b47	0.0060266587
197	0x3b472ab6	0.0030390448
198	0x3c30b560	0.010785431
199	0xba0adff9	-0.0005297657
200	0x3baeb974	0.0053321663
201	0xbd7a3359	-0.061084125
202	0x3bb01146	0.005373153
203	0xbbf91057	-0.007600825
204	0x3b4ada03	0.00309527
205	0x3b238db5	0.002495629
206	0xbb9f8bf0	-0.004868977
207	0x39ea8edb	0.00044738394
208	0xbafe3f3d	-0.0019397509
209	0xba80d8e1	-0.000983026
210	0x3a030b7e	0.0004998966
211	0xba955756	-0.0011393826
212	0xbc72c45c	-0.014817324
213	0x3b9ce0be	0.0047875335
214	0x3c2e7b92	0.010649579
215	0xbabd3dda	-0.0014437989
216	0xb9f0676c	-0.00045853422
217	0x3a20c67e	0.0006133093
218	0xbb109411	-0.002206091
219	0xbc1cb69c	-0.009565022
220	0xb8a9ea22	-8.1021586e-05
221	0x3b0734ef	0.0020630916
222	0xbb850771	-0.004059725
223	0x3b5e098f	0.003388021
224	0x3c925b11	0.01786569
225	0x3bfec236	0.0077746166
226	0xbc0bf9d2	-0.0085434485
227	0x3abe3e4c	0.0014514416
228	0xbb5330f8	-0.0032225233
229	0x3a4dd1b8	0.000785138
230	0x3bc93cf4	0.0061412994
231	0x3b4a813e	0.0030899788
232	0x3bb653a3	0.0055641695
233	0xbb02897a	-0.0019918368
234	0x3b95263c	0.004551677
235	0x3c044fb0	0.00807564
236	0x3aa15047	0.001230725
237	0x3a2cecf0	0.0006596586
238	0xbb1b8a2c	-0.002373348
239	0xbbe6fb6d	-0.0070490153
240	0xbba0fdfa	-0.004913089
241	0x3c1c5bd6	0.00954338
242	0xbb3572fc	-0.0027686944
243	0x3a487780	0.00076472014
244	0xbc068f2f	-0.008212849
245	0x3bd9c100	0.006645322
246	0xbb43767f	-0.0029825268
247	0x3bb1574d	0.0054120184
248	0x3acf7399	0.0015827297
249	0xbca8654b	-0.020556113
250	0x3c7b5d64	0.01534209
251	0xbb0c9453	-0.0021450713
252	0xbb7258a4	-0.0036979103
253	0x3a95107f	0.0011372714
254	0x3bc5084a	0.006012951
255	0xba6d9422	-0.0009062906
