mechinterp_research_project/models/sparse_probes/pythia-2.8b/reg_lambda1.2616612944575138/gpt_neox.layers.24.mlp.act.pt (torch, 42698 bytes, 1 tensors)

linear.weight f4 [1, 10240]
00000000: d925 483a 1e1d 13bb 0f7c 9cba 7e05 e9b7
00000010: 4091 8639 2854 d2b9 426e 1d3a f3a4 0939
00000020: 7b8d b6ba 041e 3f39 3bbc 81b9 3888 1fb9
00000030: 07f6 04bc 1284 d338 1ed9 b739 4553 be39
00000040: 62ef 3438 ed46 d239 4a55 e839 74ff deb9
00000050: c356 16bb b3db e3b8 b8cf d039 8f88 dd39
00000060: a7b7 ca3a a912 b039 2de0 0c3a e5db 92b9
00000070: 0ddb fd38 f596 1d39 5ffd f6bb 1fc0 b839
00000080: 07b3 133a 0f69 40bb 2152 8839 3009 263a
00000090: 7a6b f9ba 3d1a c1b9 0f21 d238 8724 e439
000000a0: 198d 93b9 5f0f 9a39 32b1 1838 f938 07ba
000000b0: 0ca8 9b39 6c03 34b9 6e49 4b38 2ef5 0f3a
000000c0: 118b adba 5c1f 28b9 7b5b 96b9 0710 e839
000000d0: 279a 1139 321a a339 c7a8 bbba b47d e138
000000e0: 2fee c3b9 8f5d 4239 c5d6 d739 df43 3c39
000000f0: f74c 5abb 2222 c938 1d00 1cb9 5d30 3c3a
00000100: 0251 f639 c417 09bb 2bff c5ba 13d8 b7ba
00000110: 69de 463a 254b b339 2d5b d6b9 c5dd 90bb
00000120: 7455 c138 217a 9038 7673 b237 4dc0 aeb8
00000130: 88e1 2439 f2ff ba39 faec 1cbb 896e f739
00000140: 580b cd39 0400 093a 1144 b0b9 f129 34b5
00000150: 04f8 bcba f664 d4bb 787e ceba 2e42 623a
00000160: 0ed5 66b8 b8c6 98b9 bd66 e439 437e 8dbb
00000170: c82d 5639 9bc1 90b8 752f a338 e524 8cb9
00000180: 9181 5e3a fea3 c0ba f834 62b9 1883 4d3a
00000190: d478 d7ba f0ed 8039 6c67 323a 4d7c 9337
000001a0: b786 e138 6fd8 0b3a 6296 08bb 7e8d 7cbb
000001b0: 7b41 cdba 32b6 1fbb 3ed9 5bb8 ae03 cdba
000001c0: f1a0 5039 33d6 ac39 8b0f 83ba 1293 f139
000001d0: e666 613a 7193 953a 357e f7b8 d908 e439
000001e0: 4640 5fba d777 13b9 4280 d1b8 8e0d a5b9
000001f0: 1c9f d23a 0427 2d3a e11e 3d3a 5c2a ed3a
00000200: 3a96 1aba ec67 a3ba 365e 113a 732f 8c3a
00000210: 1cfe 8ab9 75b3 0838 922e cbb8 1143 ca39
00000220: 199f 333a 653d c639 00b9 5b39 598e 8938
00000230: f059 e938 9013 383a ce9b 0dba 7142 63b8
00000240: 9531 963a 85bd 013a 7fbb 23b9 cab7 0c39
00000250: a78a 7238 7364 123a 7a32 7e39 3eae 2fba
00000260: b502 0e37 7caa 8839 2bdb 9539 68b7 b93a
00000270: e8ec 4439 24b0 d0ba 5013 4bba 9e73 8139
00000280: 6ed1 9239 cdd8 6338 5277 22ba f848 0cbb
00000290: 4cc1 263a a875 a7bb 3f06 e3b8 8c74 06ba
000002a0: 436b 4fba 580c 25bb 0f06 e6ba fba7 c4ba
000002b0: 30e7 9439 d31a efba 3739 e439 928b 92b9
000002c0: 1c42 ee39 449a 8c3a 3802 f3b9 f702 a539
000002d0: e286 babb 5ce9 7c36 504f a3bb 4e05 f43a
000002e0: a5d0 073a 1ae4 4f3a 4b12 9dba 73ad 80b9
000002f0: 922f 0e38 72ee 6936 9201 a537 bfc4 00b8
00000300: 3ea5 8d39 ef5a 25bb 508e bd37 ac5b 173a
00000310: f628 343a 6c88 743a cfa2 88b8 a4ce 11b9
00000320: dc2f 81b8 c34c 5abb 7c7d 6f39 e1d3 103a
00000330: 436e 1d39 52c6 7ab8 597b 5a3a 0db1 3b38
00000340: 204b 2b3a c65e 9039 9473 7839 3710 903a
00000350: 2441 79b9 c5f4 33ba a83f 1a39 9d11 6f38
00000360: 3bd3 0dbb bb69 843a 5b3d 003a 2b0d c339
00000370: e5b5 2239 a505 2b3a 3a0e 9dba c1e7 0537
00000380: 88b7 60bb d3d5 e2b8 cbaf 34bb bbd8 b839
00000390: 9696 24b9 e28f 24b9 b18d 33ba 0540 05ba
000003a0: bb45 433a f72a 4eb9 a14d 8339 00d8 ad38
000003b0: 57db b5b9 6f7c da39 0eab f339 e081 fa39
000003c0: cdeb 3739 9216 f536 ef7e 3c38 00de d939
000003d0: 2e74 5b39 83bc e539 6dc6 b8ba 3262 223b
000003e0: 693b bebb 96e0 6a39 fa16 e939 8a64 fd39
000003f0: ff52 9b3a 5cce dc39 2db1 1bbb 4cb5 9e39
0.0007635034 -0.0022447775 -0.0011938828 -2.7778322e-05 0.0002566669 -0.00040117023 0.00060055044 0.00013126787
-0.0013927663 0.00018226361 -0.0002474504 -0.00015214167 -0.008115298 0.00010085864 0.00035066245 0.00036301665
4.3138287e-05 0.00040107165 0.00044314034 -0.00042533467 -0.0022939898 -0.00010865126 0.00039827614 0.0004225415
0.001546611 0.0003358324 0.0005373981 -0.00028011124 0.000121047815 0.00015028923 -0.0075375284 0.00035238356
0.0005634282 -0.0029359495 0.00026001132 0.00063337665 -0.0019029223 -0.00036831378 0.00010019738 0.00043514764
-0.0002814315 0.0002938462 3.640465e-05 -0.0005158331 0.00029689108 -0.00017167412 4.846736e-05 0.0005491552
-0.0013240298 -0.00016033411 -0.00028678388 0.0004426243 0.00013885704 0.000311093 -0.0014317267 0.0001075225
-0.0003737076 0.00018536135 0.0004116801 0.00017954361 -0.0033310035 9.5907846e-05 -0.00014877362 0.00071788375
0.00046981132 -0.0020918706 -0.0015105953 -0.0014026187 0.0007586242 0.00034197528 -0.00040885192 -0.0044209682
9.218874e-05 6.889203e-05 2.127302e-05 -8.3327854e-05 0.00015724276 0.0003566738 -0.002394496 0.00047193866
0.000391091 0.00052261376 -0.0003362005 -6.711626e-07 -0.0014417176 -0.006481762 -0.0015754243 0.00086310774
-5.5034696e-05 -0.00029139756 0.00043564095 -0.00431803 0.00020425685 -6.902517e-05 7.781285e-05 -0.0002673037
0.0008487935 -0.0014697311 -0.00021572772 0.0007839664 -0.0016439208 0.0002459134 0.0006805572 1.7581648e-05
0.00010753929 0.00053346803 -0.0020841588 -0.0038536484 -0.0015659773 -0.0024370071 -5.241599e-05 -0.0015641355
0.00019896381 0.00032965987 -0.0009999139 0.00046076678 0.0008598402 0.0011411739 -0.00011801386 0.0004349414
-0.00085163524 -0.00014063656 -9.9897865e-05 -0.00031481351 0.0016069147 0.000660524 0.0007214379 0.0018094289
-0.00058970193 -0.0012466884 0.00055453496 0.0010695293 -0.00026510737 3.259206e-05 -9.688469e-05 0.0003857841
0.00068520155 0.00037811245 0.00020954385 6.5591834e-05 0.00011127058 0.0007021958 -0.000540194 -5.4182896e-05
0.0011458868 0.00049492 -0.00015614739 0.00013419907 5.7826426e-05 0.0005584426 0.00024242132 -0.00067016843
8.46449e-06 0.00026066962 0.00028582787 0.0014169039 0.00018780271 -0.0015921635 -0.0007746713 0.0002469094
0.00028003327 5.432293e-05 -0.00061975897 -0.0021405797 0.0006361201 -0.0051104613 -0.00010825367 -0.0005129061
-0.00079124066 -0.002518436 -0.0017549413 -0.0015003675 0.00028401008 -0.0018242247 0.00043530177 -0.00027951278
0.00045444153 0.0010727127 -0.00046350225 0.0003147346 -0.005692349 3.768676e-06 -0.00498382 0.0018617304
0.0005180932 0.0007930413 -0.0011983601 -0.00024543292 3.389974e-05 3.48585e-06 1.9670264e-05 -3.0700812e-05
0.0002701673 -0.0025231203 2.2596825e-05 0.0005773853 0.0006872559 0.000932819 -6.515311e-05 -0.00013905257
-6.160114e-05 -0.0033309914 0.00022839563 0.00055247365 0.00015013762 -5.9789345e-05 0.000833442 4.4749166e-05
0.0006534327 0.00027536432 0.00023694179 0.001099116 -0.00023770757 -0.00068647816 0.00014710298 5.6998444e-05
-0.0021640796 0.0010102311 0.0004891955 0.0003720311 0.00015517285 0.00065239734 -0.0011982389 7.981377e-06
-0.003428908 -0.00010816348 -0.00275706 0.00035256692 -0.00015696356 -0.0001569386 -0.0006849422 -0.0005083087
0.00074490503 -0.00019661697 0.00025044105 8.289516e-05 -0.0003468643 0.0004167291 0.00046476017 0.0004778048
0.00017540083 7.3041965e-06 4.494091e-05 0.00041554868 0.00020928748 0.00043818736 -0.0014097221 0.0024777767
-0.005805422 0.00022399644 0.00044458342 0.00048330828 0.0011850296 0.0004211542 -0.0023756728 0.00030271185
