mechinterp_research_project/models/sparse_probes/pythia-2.8b/reg_lambda1.2616612944575138/gpt_neox.layers.19.mlp.act.pt (torch, 42698 bytes, 1 tensors)

linear.weight f4 [1, 10240]
0	0x39c417b0	0.00037401682
1	0xb9e944ee	-0.0004449258
2	0xbad22c21	-0.001603488
3	0x39fe01f0	0.000484481
4	0x39b85a95	0.00035162704
5	0x3a24ffa9	0.00062942
6	0xba285961	-0.000642201
7	0x39d0c563	0.00039819916
8	0xba296f46	-0.00064634194
9	0xbaa8c090	-0.0012874771
10	0xba2cf731	-0.00065981137
11	0x39759108	0.00023419049
12	0x38060e05	3.1961146e-05
13	0xbba2f4b8	-0.0049730204
14	0x3a00fe7c	0.00049207336
15	0xb917e0b6	-0.00014484194
16	0xba942c10	-0.0011304636
17	0x39f4c11e	0.0004668319
18	0x3a9cc203	0.0011959675
19	0xb9179ac6	-0.0001445814
20	0x39af2e31	0.00033413016
21	0xb914697d	-0.00014153677
22	0x3801c71d	3.0941435e-05
23	0xb9fadd87	-0.00047848767
24	0x3aac5225	0.001314704
25	0x3a0dac54	0.0005404402
26	0x39e20af6	0.00043114246
27	0xba23ab8c	-0.0006243519
28	0x39a71a3f	0.00031872277
29	0x39812595	0.00024632798
30	0x39eb4265	0.0004487216
31	0xbb4591dc	-0.0030146753
32	0x38e8e0a6	0.00011104466
33	0x3a07ea40	0.0005184747
34	0xb95491bf	-0.0002027219
35	0xb99a67c8	-0.00029450492
36	0x39b69aa9	0.00034828976
37	0x39871774	0.0002576668
38	0xba62e3ef	-0.00086551806
39	0x3940237e	0.00018323769
40	0x39fced78	0.00048242114
41	0xb876add3	-5.8812857e-05
42	0x391275b2	0.0001396749
43	0x39371e00	0.00017463416
44	0x39231ec9	0.0001555636
45	0x39226727	0.00015487951
46	0x39f363e0	0.00046422984
47	0xbaa9d6c7	-0.0012957685
48	0x3a3f33dd	0.00072938
49	0xb921570f	-0.00015386588
50	0x35a71222	1.2447747e-06
51	0x3a2d870d	0.00066195504
52	0x3a52c698	0.0008040457
53	0x3a7e1ec9	0.00096939184
54	0x3852d309	5.0264443e-05
55	0x39d6d0ad	0.00040972736
56	0x3a73b52e	0.0009296712
57	0xbbabb608	-0.0052402057
58	0x39914056	0.0002770449
59	0x3a788da1	0.00094815536
60	0x39b6983e	0.00034827174
61	0x3a1d9080	0.0006010607
62	0x38bf1a4a	9.1124864e-05
63	0xb82fb607	-4.1892778e-05
64	0xb9c4c1dc	-0.0003752847
65	0x39f97790	0.00047582062
66	0x3a23d6c1	0.00062499574
67	0x39b450ab	0.00034392378
68	0x3a14624e	0.00056604005
69	0x39caa678	0.0003865247
70	0xba560eaa	-0.0008165637
71	0x3a02e235	0.0004992814
72	0x3a27d15a	0.000640174
73	0x3912792b	0.00013968784
74	0xbac319b1	-0.0014884976
75	0x3a3ae93d	0.0007130092
76	0x39968afd	0.00028713784
77	0x3a0e594d	0.0005430177
78	0xb700bd69	-7.673495e-06
79	0xbaff764b	-0.001949021
80	0x39a9d03e	0.00032389344
81	0x3a0f7302	0.00054721546
82	0x3a5995e8	0.0008300231
83	0x3954df2b	0.00020301032
84	0xb8a687d2	-7.940795e-05
85	0x3a473970	0.00075998064
86	0x38d7fbd3	0.00010298905
87	0x3973ac92	0.00023238573
88	0x3a848b7a	0.0010112368
89	0xbadadbf6	-0.0016697634
90	0x39ba3257	0.0003551419
91	0xba50f623	-0.00079712475
92	0x3a889957	0.0010421675
93	0xba475149	-0.000760336
94	0xb9736250	-0.0002321091
95	0x3a6ddeb5	0.00090740185
96	0x399837fc	0.0002903341
97	0x3a98d20e	0.0011659281
98	0x3abab0eb	0.00142434
99	0xb983636e	-0.00025060348
100	0xb2c45e1d	-2.28602e-08
101	0xba127d26	-0.00055881066
102	0x394e9bb9	0.00019703702
103	0x3a8aa598	0.0010577915
104	0x3a1ffc70	0.0006102985
105	0x38725bf1	5.7782923e-05
106	0xbad8d382	-0.0016542526
107	0xbacc5633	-0.0015589654
108	0x39bcff1b	0.00036048223
109	0xb92a5311	-0.00016243408
110	0x3a918869	0.0011103275
111	0xbab23324	-0.0013595563
112	0x3a780541	0.0009461232
113	0xb8cbb324	-9.713162e-05
114	0x39e2f37d	0.00043287492
115	0x39493b91	0.00019191044
116	0x3a9adcf6	0.0011815119
117	0x3a3056d2	0.00067268044
118	0x3a30885c	0.00067341863
119	0x399b8448	0.0002966246
120	0x3951710b	0.00019973905
121	0x39a021cd	0.00030542762
122	0x39d7d2e7	0.0004116513
123	0x3669d24d	3.4842117e-06
124	0x3a0e4f11	0.0005428652
125	0x3a83dc5b	0.0010060178
126	0x3960fae5	0.0002145577
127	0x38384ef2	4.3942542e-05
128	0x39c70ce6	0.00037965848
129	0xba85855c	-0.0010186839
130	0x3a8102b6	0.0009842727
131	0xba121f4f	-0.00055741234
132	0x39c7477f	0.00038009507
133	0x39d75f9c	0.0004107923
134	0xbb8b023e	-0.0042422106
135	0x3ad517c0	0.0016257688
136	0x391a568c	0.00014718826
137	0x39ff04af	0.0004864088
138	0x399f1964	0.0003034576
139	0xb9ae1461	-0.0003320305
140	0x384d5a65	4.8959995e-05
141	0x39938e8b	0.00028144228
142	0xba06e064	-0.0005145131
143	0x3a14cf9b	0.00056766876
144	0x3a8bfade	0.0010679623
145	0x397519f1	0.00023374685
146	0x38d32b0a	0.00010069281
147	0x3a19816c	0.0005855772
148	0xbb082c58	-0.0020778384
149	0x39be7778	0.00036328635
150	0x39e2c682	0.0004325398
151	0x3a98efce	0.0011668147
152	0x3a00732f	0.0004899976
153	0xb9c79ef7	-0.00038074676
154	0x39c5e9a4	0.00037748844
155	0xb9bd2466	-0.00036076008
156	0xb970771a	-0.00022932552
157	0x39c32cdc	0.0003722672
158	0x39e8dc05	0.00044414416
159	0x3a31de75	0.0006785163
160	0xbb0694e7	-0.002053553
161	0xb9558a93	-0.00020364886
162	0x3978ed5c	0.00023739546
163	0x37eeab5c	2.8451606e-05
164	0x39a27586	0.0003098661
165	0xba530ba1	-0.0008050744
166	0x3a3a66d7	0.0007110661
167	0x39f7da38	0.00047274097
168	0xbaaaa69c	-0.0013019624
169	0x394858ed	0.00019106614
170	0x3a10cb20	0.0005523432
171	0x3a503618	0.0007942631
172	0xbb2b6feb	-0.0026159238
173	0xbb3c84aa	-0.0028765597
174	0xb9cbef2f	-0.00038897383
175	0x3998123d	0.00029005288
176	0x39ac94cb	0.00032917256
177	0xba0dbd71	-0.0005406952
178	0x3a0040c9	0.0004892466
179	0x3a65ac2f	0.0008761314
180	0xbaaffae0	-0.0013426207
181	0x39f86881	0.00047380108
182	0xbb2d6e75	-0.0026463543
183	0x38c77f9e	9.51283e-05
184	0x38b744ca	8.738933e-05
185	0xb98dc15c	-0.0002703768
186	0x37b222c5	2.1235444e-05
187	0x3a954064	0.0011386988
188	0x3a05f075	0.0005109378
189	0x3930f7ef	0.0001687703
190	0x385771ed	5.1366096e-05
191	0x39fb7f9d	0.0004796953
192	0x3a78fbd7	0.0009497976
193	0x38473df0	4.750298e-05
194	0x3a5d33c6	0.0008438196
195	0xb96e59f6	-0.00022730962
196	0x3903516c	0.00012523466
197	0x39ca2eee	0.00038563408
198	0x3a520c1d	0.0008012669
199	0x39c1edaf	0.00036988917
200	0x3a842efc	0.0010084803
201	0x3a28eb41	0.0006443747
202	0x3a179c33	0.00057834684
203	0x39945314	0.00028290658
204	0x3add1e64	0.0016870019
205	0xb9fac35d	-0.00047829273
206	0x39803424	0.0002445291
207	0xbb88a06a	-0.0041695135
208	0x390733ec	0.00012893946
209	0x3a37ddf5	0.000701397
210	0x38881881	6.4895496e-05
211	0x399aed1f	0.00029549838
212	0xbb1b24a6	-0.0023672967
213	0xbabcaa8e	-0.0014394091
214	0x3a1315f7	0.0005610878
215	0x39130049	0.00014019119
216	0xb80b235d	-3.3173117e-05
217	0x39f18c71	0.0004607174
218	0x3a314822	0.0006762763
219	0x39d3854a	0.00040344364
220	0xbb1b0acc	-0.0023657558
221	0x39cae013	0.0003869539
222	0xbb032fbe	-0.002001747
223	0xba1be784	-0.0005947279
224	0x3ab2f35b	0.0013652848
225	0xba1a16b3	-0.0005878016
226	0xb98e8d63	-0.00027189692
227	0x3abdd9e6	0.0014484494
228	0xb9c0e11b	-0.0003678881
229	0x3a1d211c	0.00059940084
230	0x39881c70	0.0002596113
231	0x39d77fe0	0.0004110327
232	0x3916fb2c	0.00014398684
233	0x3a3c1b5e	0.0007175709
234	0x38ef127d	0.00011399852
235	0x3a0303b7	0.0004997807
236	0x39bf3ee9	0.0003647723
237	0x389249de	6.975581e-05
238	0x396b1a48	0.00022421137
239	0x3a1705a1	0.00057610316
240	0x3a5598c6	0.000814807
241	0x3a0df44a	0.0005415125
242	0xba3b6347	-0.00071482774
243	0xbba446c5	-0.005013319
244	0xbb152c2d	-0.0022761927
245	0x39e82bc6	0.00044283102
246	0xb90a937e	-0.0001321565
247	0xb9bcae48	-0.00035988004
248	0xbad48012	-0.0016212484
249	0xb8c2c592	-9.287441e-05
250	0xba98f6c2	-0.0011670219
251	0xbade2780	-0.0016949028
252	0x39820722	0.00024800847
253	0xb9a5df31	-0.00031637543
254	0xba0fd811	-0.00054872135
255	0xb85c89c4	-5.258039e-05
