mechinterp_research_project/models/sparse_probes/pythia-160m/reg_lambda0.6694329500821696/gpt_neox.layers.10.mlp.act.pt (torch, 14026 bytes, 1 tensors)

linear.weight f4 [1, 3072]
0.0023039007 -0.012991294 0.00081736536 -0.0010648973 0.0011343039 0.0006206378 0.0034816193 0.001147407
-0.00072218047 0.0022033833 0.0008691865 0.0010102063 0.003346151 0.00088558433 0.002098202 0.00019796533
0.0059152157 -0.0008576218 0.0007671354 0.00048663362 -0.006360234 -0.004638426 -0.0007053901 0.0033592933
-0.0004040827 0.0025756964 -0.0004299973 0.00011158636 -0.0029401865 0.0035862986 -0.002139209 0.0031251423
-0.0054605054 0.0012639548 -0.0035091238 0.00043065436 0.00060514425 0.0013692272 0.0004914874 0.0029905313
-0.009138741 0.003133424 -0.00074837735 -0.0001903353 -0.0010800394 0.0030609113 0.0008694657 -0.0001605475
-0.002083382 0.00087338634 -0.0006556776 -0.012549364 -0.0052463305 -0.016729916 0.0021260115 0.001984829
0.0015112773 0.0014790223 0.0015685831 8.777838e-05 0.0026651535 -0.00033413677 -0.0022049367 0.0005439971
-0.00013519471 -0.006674637 -0.0009631665 0.014744625 0.00020423622 0.0003349759 6.4794585e-05 0.002191773
0.009456116 0.0025403148 0.0024305666 -0.0042334846 -0.004303657 0.00019365903 -1.1154203e-05 -0.013128038
0.0014061199 0.0035866096 -0.0034125461 0.0014974506 0.0027201273 0.0009634926 0.0008868485 -0.0072218394
0.0012194497 -0.0018255049 0.0023263702 -0.003518797 -0.0024217027 -0.0036446685 0.012975257 -0.020080814
-0.0006966451 -0.00028189897 -0.007725687 0.0041239555 0.00017096818 0.00040743046 0.00123799 0.0017149885
0.0014127151 -0.00047964192 0.0022543054 0.0018258444 -0.004538795 0.0019508324 -0.005408853 -0.0018695327
-0.004719285 -0.0010042043 0.00059564726 0.0016454735 0.0005517358 0.0007863249 -0.00064196973 0.0005586986
-0.00019169245 0.0009794127 0.0005577776 -0.00041676764 -0.0064394316 0.0023416842 0.0008315425 -0.018496403
0.00025180762 0.0032769244 0.00085445197 -0.004396889 0.0002724766 0.0011657042 0.005195849 0.00020006878
0.0019350495 -0.006175944 -0.016846215 0.00075652415 0.003915794 -0.005303698 -0.019934913 -0.00012489318
0.0031900862 -0.0017286327 -0.0013002951 0.0002816122 0.0018841643 0.001760332 -0.00042425966 0.0028997015
0.0019351603 0.0009530789 -0.004020249 0.0032521316 0.0005016635 0.001885733 -0.0016066957 0.006248756
0.004883402 0.0018023109 0.0015972465 -0.0006353769 0.0023452619 0.0028212431 0.0013437018 0.00029144986
0.00045010122 -0.00024285051 0.0041649546 0.0019180757 -0.01200534 0.0061804815 0.0009124139 0.00025036876
0.00084540364 -0.0008322237 0.0039890036 -0.0062136776 0.0022967272 0.00452391 -0.0057539777 -0.01632719
0.0034433608 0.000989441 -0.007470672 0.0020736195 0.005134463 -0.009926832 0.00069573964 0.005397868
0.0024002253 0.0015177223 0.0028787975 -0.00038812638 0.002712207 -0.008732318 -0.0043792445 0.00015600785
-0.0011830301 -0.0006053288 0.001055322 0.002436603 0.0005842908 0.0012092687 -0.027010147 0.0015490646
-0.00066029356 0.0022771503 -0.0044417083 0.004650324 0.0036538031 -0.00037710456 -0.003101488 -0.00024570085
0.0007425844 0.0011297698 0.00023044636 -0.002112061 0.0009476277 0.0007259219 0.0018173857 0.0012375186
0.002816482 0.0041982466 0.00031146096 0.0017166374 0.0022224232 -0.00025969525 -0.0016740381 0.0040275054
-0.00030377536 0.0005672283 0.0027513104 -0.0044927592 0.00079923647 0.003549006 0.0012232737 0.00083357445
-0.011945386 0.0012752264 0.00017888163 -0.0068083056 -0.010480089 0.0011302348 -0.005720401 0.0012617569
0.003073094 -0.0002701197 0.0010797754 0.0010820023 0.00097579585 -0.0006490379 0.001968904 0.0075444616
00000000: 0afd 163b 70d9 54bc 7644 563a 0694 8bba
00000010: ecac 943a 4cb2 223a e12b 643b 9764 963a
00000020: b650 3dba a366 103b 1eda 633a e668 843a
00000030: 194b 5b3b 8f26 683a fd81 093b ea94 4f39
00000040: 6dd4 c13b 06d2 60ba 9619 493a dc22 ff39
00000050: 8369 d0bb f0fd 97bb eee9 38ba 9727 5c3b
00000060: 10db d3b9 04cd 283b 4371 e1b9 7903 ea38
00000070: 25b0 40bb 1b08 6b3b f931 0cbb 30cf 4c3b
00000080: 0aee b2bb 49ab a53a 54f9 65bb 73c9 e139
00000090: 8ba2 1e3a a477 b33a 29d7 003a cafc 433b
000000a0: a8ba 15bc 225a 4d3b c12e 44ba be94 47b9
000000b0: 1c90 8dba 9299 483b dbec 633a a458 28b9
000000c0: 5a89 08bb f7f3 643a c7e1 2bba d99b 4dbc
000000d0: 69e9 abbb 2d0d 89bc 8e54 0b3b e813 023b
000000e0: 0d16 c63a c1db c13a ea98 cd3a a915 b838
000000f0: dba9 2e3b 142f afb9 b380 10bb 079b 0e3a
00000100: 0ec3 0db9 eab6 dabb 027d 7cba 7193 713c
00000110: 3e28 5639 b49f af39 54e2 8738 d9a3 0f3b
00000120: d3ed 1a3c 697b 263b 244a 1f3b 0bb9 8abb
00000130: b105 8dbb f310 4b39 f022 3bb7 fb16 57bc
00000140: 8e4d b83a 530d 6b3b 06a5 5fbb 1b46 c43a
00000150: 2a44 323b e592 7c3a 657b 683a 2ea5 ecbb
00000160: f1d5 9f3a c845 efba 0476 183b 9e9b 66bb
00000170: 6eb5 1ebb 64db 6ebb 2c96 543c 8580 a4bc
00000180: 109f 36ba d7cb 93b9 c327 fdbb 3f22 873b
00000190: ec45 3339 649c d539 0d44 a23a 77c9 e03a
000001a0: da2a b93a 7378 fbb9 f8bc 133b 2c51 ef3a
000001b0: 2cba 94bb 13b3 ff3a bf3c b1bb 1c0b f5ba
000001c0: 3ba4 9abb 819f 83ba 3625 1c3a eeac d73a
000001d0: 5da2 103a 5f21 4e3a dc49 28ba a175 123a
000001e0: 0d01 49b9 a35f 803a d237 123a 9b81 dab9
000001f0: de01 d3bb f176 193b dffb 593a c585 97bc
00000200: 0c05 8439 abc1 563b 4dfd 5f3a c713 90bb
00000210: 31db 8e39 8bca 983a f141 aa3b 8ec9 5139
00000220: 7da1 fd3a 935f cabb 1301 8abc 7a51 463a
00000230: 1050 803b a5ca adbb 8b4e a3bc c2f5 02b9
00000240: c410 513b 4a93 e2ba aa6e aaba 5aa5 9339
00000250: 10f6 f63a f1ba e63a 2b6f deb9 eb08 3e3b
00000260: 34a5 fd3a 0bd8 793a 4bbc 83bb b721 553b
00000270: 1182 033a b32a f73a c397 d2ba 5dc2 cc3b
00000280: f204 a03b 853b ec3a b35a d13a 6c8f 26ba
00000290: f7b2 193b 9be4 383b 271f b03a bdcd 9839
000002a0: 90fb eb39 b0a5 7eb9 2c7a 883b f167 fb3a
000002b0: 0cb2 44bc a385 ca3b 0f2f 6f3a ed43 8339
000002c0: 149e 5d3a 9629 5aba 30b6 823b 1b9c cbbb
000002d0: b084 163b 4f3d 943b dd8b bcbb 99c0 85bc
000002e0: 02aa 613b 21b0 813a 8acc f4bb 90e5 073b
000002f0: ff3e a83b 27a4 22bc 4c62 363a 99e0 b03b
00000300: 194d 1d3b 4fee c63a 35aa 3c3b 717d cbb9
00000310: 48bf 313b ff11 0fbc c47f 8fbb 0a96 2339
00000320: e70f 9bba eeae 1eba bb52 8a3a 6aaf 1f3b
00000330: 182b 193a 5380 9e3a 6244 ddbc fc09 cb3a
00000340: 8d17 2dba 3e3c 153b c08b 91bb bf61 983b
00000350: a574 6f3b 1eb6 c5b9 5642 4bbb 69d1 80b9
00000360: ffa9 423a c914 943a f9a3 7139 816a 0abb
00000370: 386a 783a cb4b 3e3a 5835 ee3a 3c34 a23a
00000380: ba94 383b 7291 893b 954b a339 cb00 e13a
00000390: 13a6 113b b527 88b9 666b dbba 2af9 833b
000003a0: 0a44 9fb9 0cb2 143a 544f 343b ff37 93bb
000003b0: da83 513a 7196 683b 4156 a03a 3c84 5a3a
000003c0: 95b6 43bc 7f25 a73a 2c92 3b39 3518 dfbb
000003d0: aeb4 2bbc 6324 943a 3472 bbbb 8961 a53a
000003e0: f665 493b da9e 8db9 4087 8d3a f9d1 8d3a
000003f0: 8dcc 7f3a 3224 2aba ba08 013b 8837 f73b
