mechinterp_research_project/models/sparse_probes/pythia-410m/reg_lambda0.6694329500821696/gpt_neox.layers.19.mlp.act.pt (torch, 18122 bytes, 1 tensors)

linear.weight f4 [1, 4096]
00000000: 4368 553a 9b9d 01bb 92b3 093b 6dd8 853a
00000010: ed55 893a b0ef bfba d950 dabb 8653 143b
00000020: 07bd aabc 380f f7bb 6a92 aaba 608e 8e39
00000030: 2398 70bc b35a 07bc 045d ad3a 4d19 fbba
00000040: aede dc3a ac96 c53a b0f5 7ab9 9599 18bc
00000050: 1d9f a5ba 2869 a1bb 4f4a dab9 7fdd 2237
00000060: d787 783a d54d 3dba ca51 b43a 760c 86bb
00000070: 7bfd adbb bf25 4bbb 9b88 62bb edac fcba
00000080: 4749 57bc 546c faba c35f 88bb 4d7f 273a
00000090: 34c5 c6ba 3f11 08bc 1c95 f9b9 0777 3cba
000000a0: 37d7 99b9 a04f 6cba 669a f43a 772e 673b
000000b0: b9b2 303b 81a1 e1ba 89a3 f43a 98af cfba
000000c0: a788 fb3a 8db2 5e3b 50ff 9cbb 8e84 96b9
000000d0: 106b b63a c628 93bb ff78 6cbb 5332 e3bb
000000e0: 56d9 d53a f5ee 6e3a d479 cbb8 2fff 04b9
000000f0: 847a 883a a1d4 b039 5e05 d53a d06b ddba
00000100: 9e31 0c3b b09b cdb9 6b95 6d3a 92a6 81bb
00000110: 61fe 22bc 0cb1 3bbc 04a9 00bc 494c 24bb
00000120: f789 4fbb 4758 dfbb dcef 5eba d1b4 5d39
00000130: 5a05 9a3a dcd5 80ba 76d4 24bc 51b9 1db7
00000140: 6176 9eba 3555 403a c606 8d3b 3417 c43a
00000150: f643 deba 3019 3fba 0578 2abb 8f1f 3d3a
00000160: ac20 1cbb 1b5b 46bb 2819 913a 40cc b53a
00000170: b149 b13a 1121 48b9 8e07 10bc b9d4 733b
00000180: dbc9 273a a00c d4bb 3f0d 723a 693e e33a
00000190: eeda 10bc e923 1a3c 85b1 05bc 201e 41bb
000001a0: bf83 8fba d3d1 423c 64fc f039 36eb d33a
000001b0: 2b43 18ba 9c80 8cba 0569 10b9 66ca 923a
000001c0: fbd7 333a 6568 83bb 09f6 37bc 20ef e8ba
000001d0: a8e2 143b 9afe 1c3b ad4c b9ba 57cb c43a
000001e0: 25aa 8c3a 16bb 2539 2a65 193b bcb0 cf3a
000001f0: 725f d6ba 0653 963a 885a a6bb 673e 17bc
00000200: 7214 18b8 907a 883a c52d ef39 abfa 8ebb
00000210: 911c 1fbc f802 cd3a c637 cf3a 83ea 8fbb
00000220: 5b5b e039 213e 75ba 024b 7abc a780 1e3a
00000230: 75e8 a5ba 1507 c838 5c08 eeb9 4acb fa3b
00000240: 22f7 393a 266c 83bb 3b5f 4ebb 0495 4d3b
00000250: 656d edb9 8c9e 87bb 1e19 b83a b7b0 2bbc
00000260: ee8b 2cbc 0a80 ad39 8ba4 55ba ccec 9dbb
00000270: bb6f 2b3b cb5f 7eba 1d41 973a 4bb6 f3bb
00000280: 1469 03bc d7e8 a5b7 02f5 c2b9 b385 8cbc
00000290: 47f6 c7ba 8093 8d39 8d8a a338 4e45 6cbb
000002a0: 9e74 97ba c7fd 61bb 7cd9 8b39 f38c 0c3b
000002b0: c237 4fba 3b26 e9b9 b0b0 0c3a b477 89bb
000002c0: a973 aabb ca6c a638 73b3 703c 7a61 3e3a
000002d0: 71e4 dfb8 646f cab7 0c79 36b9 b050 e1bb
000002e0: bd40 e5b9 0e3b b339 0d5e 7eba 5a93 6ab9
000002f0: 8e52 cdbb b61e c93a d0f0 823b 75db 35bb
00000300: f448 273a 8a17 faba d2fb 99ba 454d 05bc
00000310: 2036 10bc a36d 13ba ae05 49bb bd8b 37bb
00000320: e6e6 1e3a 2f16 083b 6982 08bb 2795 59b9
00000330: c0ee 4cbb b0ae c63b 49e7 203c 44da 4939
00000340: 7b0c e4b9 610c 24bc 36d5 c13a f458 80bb
00000350: 083e c93a cbbe 22bc 86a5 5bb7 2b91 fdba
00000360: ca6a 813a 5d16 fe3a 68a1 25bb 93e0 d9ba
00000370: f0b5 81bc 714b 01bb 7cbd 873b 3abd 8439
00000380: 348b 02bb 0032 f1ba 5506 5bbb b71a 26bc
00000390: 44e1 86bb 7fac d439 3c07 b4bb db22 903a
000003a0: 04c9 963b f360 a0bb a07c 54bb 81d7 183b
000003b0: 89d1 29ba fd52 39ba 50e6 74ba d08e 51ba
000003c0: 4aad a938 135a 35bb 026e 793b 91da 87bb
000003d0: 5d8d 36bb 492d 0f39 5638 9abb 68af 733a
000003e0: 2828 afba f9b0 133b 2cdc a33a dcef a03a
000003f0: c8dc fc3b fbf8 b9bb 10a7 90b7 994c 673a
0.00081408414 -0.0019777778 0.0021011573 0.0010211595 0.0010477878 -0.0014643576 -0.00666247 0.0022632792
-0.020842088 -0.007539656 -0.0013013605 0.00027190428 -0.01468471 -0.0082613705 0.0013226573 -0.001915732
0.0016851032 0.0015074811 -0.00023933384 -0.009313961 -0.001263592 -0.0049258657 -0.00041635564 9.7075235e-06
0.0009480691 -0.00072213757 0.0013757285 -0.004090841 -0.0053097582 -0.003099784 -0.0034566286 -0.001927761
-0.013140029 -0.0019105771 -0.0041618063 0.0006389514 -0.0015164972 -0.008304893 -0.00047604076 -0.00071893673
-0.00029342782 -0.00090145506 0.0018661737 0.0035275498 0.0026961996 -0.001721427 0.001866446 -0.0015845178
0.0019190506 0.0033980936 -0.004791178 -0.0002870899 0.0013917405 -0.0044909446 -0.0036082861 -0.0069334893
0.0016315382 0.0009114587 -9.7024866e-05 -0.00012683564 0.0010412489 0.00033727757 0.001625221 -0.0016893093
0.002139188 -0.00039216643 0.00090630975 -0.0039566243 -0.009948344 -0.0114557855 -0.007852796 -0.0025069884
-0.0031667927 -0.0068159434 -0.000850437 0.00021143562 0.0011750862 -0.000982936 -0.01006042 -9.401077e-06
-0.0012089723 0.00073369156 0.004303786 0.0014960528 -0.001695751 -0.0007289825 -0.0026011479 0.00072144804
-0.0023823185 -0.0030266705 0.0011070119 0.0013870075 0.001352599 -0.00019085805 -0.008790864 0.003720565
0.0006400623 -0.0064712316 0.0009233541 0.0017337325 -0.008841259 0.009407976 -0.00816 -0.0029467419
-0.0010949298 0.011890846 0.00045964413 0.0016168121 -0.00058083487 -0.0010719481 -0.00013772033 0.0011199235
0.00068604917 -0.0040102475 -0.011228093 -0.001777146 0.0022718105 0.0023955465 -0.0014137231 0.0015014213
0.0010731859 0.00015805321 0.0023406246 0.0015845518 -0.0016355349 0.0011468835 -0.00507671 -0.0092311865
-3.6258665e-05 0.0010412503 0.00045619733 -0.004363378 -0.009711401 0.0015641144 0.0015809468 -0.0043919696
0.00042792675 -0.0009355266 -0.015276672 0.00060463924 -0.0012657779 9.538062e-05 -0.00045401126 0.0076536285
0.00070940156 -0.004010695 -0.0031489867 0.0031369338 -0.00045285668 -0.0041387733 0.0014045571 -0.010479144
-0.010531409 0.00033092528 -0.0008149824 -0.004819488 0.0026159126 -0.00097036053 0.0011539791 -0.0074375025
-0.008020658 -1.9777957e-05 -0.00037185109 -0.017153597 -0.0015255891 0.00027003512 7.798253e-05 -0.003605205
-0.001155514 -0.0034483538 0.00026674184 0.0021446317 -0.0007904732 -0.00044469707 0.00053669047 -0.004195178
-0.005201776 7.9357604e-05 0.0146912215 0.000726245 -0.00010676019 -2.4132147e-05 -0.00017401966 -0.006876074
-0.00043726517 0.0003418554 -0.0009703346 -0.00022370872 -0.006265945 0.0015344236 0.0039959922 -0.0027749215
0.00063814153 -0.0019080502 -0.0011748022 -0.008136098 -0.008801967 -0.0005623942 -0.0030673551 -0.0028006874
0.0006061628 0.0020765176 -0.0020829684 -0.00020750296 -0.0031270236 0.006063305 0.009820768 0.00019250164
-0.00043496848 -0.010012717 0.0014788273 -0.003916854 0.001535357 -0.009933184 -1.3091956e-05 -0.0019345632
0.0009873745 0.0019385327 -0.0025273208 -0.0016622714 -0.015833825 -0.0019728804 0.0041424613 0.00025317987
-0.0019919397 -0.0018401742 -0.0033420522 -0.010138205 -0.004116209 0.0004056431 -0.0054940265 0.0010996716
0.0046015996 -0.0048943697 -0.0032422915 0.002332181 -0.00064780616 -0.0007069556 -0.00093421806 -0.0007993998
8.0908256e-05 -0.0027672097 0.0038059955 -0.004145928 -0.0027855255 0.00013654413 -0.004706423 0.0009295852
-0.0013363408 0.0022535904 0.001250153 0.0012278515 0.007716749 -0.0056754327 -1.7243932e-05 0.00088233646
