mechinterp_research_project/models/sparse_probes/pythia-2.8b/reg_lambda4.481404746557166/gpt_neox.layers.14.mlp.act.pt (torch, 42698 bytes, 1 tensors)

linear.weight f4 [1, 10240]
0	0xb6472e22	-2.9680164e-06
1	0xb4433daa	-1.8183223e-07
2	0x37df9d51	2.6656928e-05
3	0x38b4f1c5	8.628102e-05
4	0x3787c8c9	1.6186752e-05
5	0x389ad438	7.382821e-05
6	0x386d89c2	5.66335e-05
7	0x38e4c70e	0.00010908964
8	0x38fab985	0.00011955485
9	0x37c3777a	2.3301447e-05
10	0x381bda8e	3.7158425e-05
11	0x37cc65ea	2.4366153e-05
12	0x38d21f80	0.00010019448
13	0x3840bff5	4.595514e-05
14	0x380c0420	3.3382443e-05
15	0x3497657c	2.819978e-07
16	0x3886e630	6.432494e-05
17	0xb606ebc1	-2.0104783e-06
18	0x3902caf9	0.0001247338
19	0x3853201f	5.0336235e-05
20	0xb7e94915	-2.7809796e-05
21	0x3767cb06	1.3815943e-05
22	0x38417620	4.61248e-05
23	0x385ce329	5.2663647e-05
24	0x37fadff1	2.9906603e-05
25	0x39268dbb	0.00015883792
26	0x35de1276	1.6545662e-06
27	0x38957a2a	7.1276285e-05
28	0x389f9e5d	7.611208e-05
29	0x385a0a3c	5.198478e-05
30	0x3847be49	4.7622514e-05
31	0x38744712	5.8240323e-05
32	0xb783428c	-1.5647405e-05
33	0x3825c85f	3.9525676e-05
34	0xb6027bb5	-1.9443517e-06
35	0x35eb8981	1.7548883e-06
36	0x38558d37	5.0914674e-05
37	0x38d0943e	9.945825e-05
38	0x37fedf7c	3.0383228e-05
39	0x36ff8af6	7.6157694e-06
40	0x37b54834	2.1610504e-05
41	0x3863d1d9	5.4316453e-05
42	0x37b0f0ed	2.1093025e-05
43	0xb65bd08a	-3.2754929e-06
44	0x3800606e	3.0607385e-05
45	0xb88978e3	-6.555186e-05
46	0x38023daf	3.1051863e-05
47	0x3789d16c	1.6429192e-05
48	0x38d13ea2	9.977563e-05
49	0x38b55e32	8.648298e-05
50	0x388b7668	6.6500914e-05
51	0x38a9d02c	8.097323e-05
52	0x383f849a	4.5661443e-05
53	0x384945ba	4.7987072e-05
54	0x3861acbf	5.3805063e-05
55	0xb85c228d	-5.2484265e-05
56	0x37529d19	1.2553553e-05
57	0xb7b8d8f1	-2.203553e-05
58	0x38a56408	7.8864454e-05
59	0xb74a70d8	-1.2066412e-05
60	0x388e350f	6.7809706e-05
61	0xb862621e	-5.3973978e-05
62	0xb75df200	-1.32289715e-05
63	0x388b6d59	6.648404e-05
64	0x38dd1dd8	0.0001054366
65	0x3924d172	0.00015718283
66	0x38c56053	9.411634e-05
67	0xb7b18829	-2.1163449e-05
68	0x384f1f5c	4.938185e-05
69	0x388b356c	6.637987e-05
70	0x389a1b6b	7.348399e-05
71	0x38ac972e	8.2297585e-05
72	0x37014b91	7.706593e-06
73	0x37502a98	1.2407683e-05
74	0x384cd40f	4.8834885e-05
75	0x37bcb68e	2.2496355e-05
76	0xb735cf65	-1.08367285e-05
77	0xb6afae99	-5.2357323e-06
78	0xb7116657	-8.666501e-06
79	0xb3829427	-6.0805455e-08
80	0x383661bc	4.3483204e-05
81	0x38161d9e	3.579037e-05
82	0xb89360b0	-7.027516e-05
83	0x38b78862	8.751523e-05
84	0x38707d7f	5.7337336e-05
85	0x382072b0	3.8253784e-05
86	0x385d5340	5.276804e-05
87	0x37feb3fb	3.036297e-05
88	0xb691542e	-4.3311366e-06
89	0x35312509	6.599153e-07
90	0x38028124	3.1114687e-05
91	0x3616e401	2.2484458e-06
92	0x38763156	5.8696918e-05
93	0x386323ca	5.415435e-05
94	0xb73ce8bf	-1.1259864e-05
95	0xb824de1c	-3.9307502e-05
96	0x372244e4	9.671992e-06
97	0xb7e4de14	-2.7283131e-05
98	0x3843264b	4.6527286e-05
99	0x365814ae	3.2198545e-06
100	0x390080c1	0.00012254996
101	0x385b4630	5.2279036e-05
102	0x381e0eb4	3.768383e-05
103	0xb80a2c57	-3.294306e-05
104	0x38e516f8	0.00010923849
105	0x3885f9ea	6.388484e-05
106	0x38a7f621	8.0090256e-05
107	0xb808d525	-3.2623433e-05
108	0x383f2bf6	4.557889e-05
109	0x388286fa	6.2240244e-05
110	0x3849d47d	4.812003e-05
111	0x37336492	1.0692647e-05
112	0x38aefde6	8.344259e-05
113	0x38835575	6.2624844e-05
114	0x38f05eb0	0.00011461729
115	0xb83d015a	-4.506237e-05
116	0xb68db517	-4.223209e-06
117	0x3830a88d	4.2118645e-05
118	0x33c5ab88	9.204729e-08
119	0x383cc9a5	4.501049e-05
120	0x3834d90a	4.3117478e-05
121	0x3806ce1a	3.2140037e-05
122	0x3822a76a	3.8779726e-05
123	0x386559e8	5.4681586e-05
124	0xb815187e	-3.554718e-05
125	0xb6f12c0d	-7.187488e-06
126	0x38c97bc9	9.607484e-05
127	0x38a37e17	7.795932e-05
128	0x38be857f	9.0847716e-05
129	0x38997034	7.316508e-05
130	0x3863dd09	5.4326872e-05
131	0x3886212e	6.395798e-05
132	0x38c70e53	9.4917275e-05
133	0x38382d8b	4.3911434e-05
134	0x383ec667	4.5484307e-05
135	0x37af23a3	2.087822e-05
136	0x36fed2de	7.594338e-06
137	0xb702e540	-7.80198e-06
138	0xb5f3d834	-1.8167834e-06
139	0xb79cf4b4	-1.8710598e-05
140	0xb77cb369	-1.5062143e-05
141	0x38cf197a	9.8752746e-05
142	0x38b1b89e	8.474405e-05
143	0x3830e8b8	4.2178406e-05
144	0x386f18b2	5.700504e-05
145	0x38188167	3.636014e-05
146	0x387bd69e	6.004294e-05
147	0x3603c858	1.9637137e-06
148	0x385fa7dc	5.3323674e-05
149	0x380a1498	3.2920943e-05
150	0x36cd452c	6.1175288e-06
151	0x38d31bc1	0.000100664336
152	0x3891c601	6.95102e-05
153	0xb770c91b	-1.4351938e-05
154	0x386ac237	5.5970824e-05
155	0xb76bad27	-1.4047407e-05
156	0x388f049f	6.819632e-05
157	0x385d9b6c	5.2835254e-05
158	0x384b2217	4.843072e-05
159	0x38db2150	0.00010448939
160	0x372ad11f	1.0181479e-05
161	0x375b389a	1.3066596e-05
162	0xb8c6c47c	-9.477974e-05
163	0xb8076b57	-3.2286476e-05
164	0x37bc70ff	2.2463964e-05
165	0x38588a18	5.1627023e-05
166	0x38a9691e	8.0781276e-05
167	0x37820533	1.5499629e-05
168	0x38f69b60	0.00011759135
169	0x387b0a27	5.985252e-05
170	0x389638a1	7.163105e-05
171	0x382c45a7	4.1072864e-05
172	0x3890df82	6.908087e-05
173	0x37a194b7	1.9261946e-05
174	0x3807344a	3.2235206e-05
175	0x38839058	6.273453e-05
176	0xb883c141	-6.282563e-05
177	0x37c4a52c	2.3441935e-05
178	0x388d1503	6.727318e-05
179	0x38e014da	0.00010685036
180	0x385d2861	5.272811e-05
181	0x38667ba4	5.4951422e-05
182	0x38bbcf04	8.9554145e-05
183	0x373a8ac1	1.111877e-05
184	0x3858d8be	5.170027e-05
185	0x386e4db1	5.6815978e-05
186	0x3883f96a	6.293024e-05
187	0x3725b4fb	9.876904e-06
188	0x3874b65e	5.8343976e-05
189	0x3842284a	4.6290726e-05
190	0xb817d0b9	-3.6195594e-05
191	0x381ec041	3.7849186e-05
192	0x386335a0	5.417096e-05
193	0x38b2417e	8.4999e-05
194	0x36ad36e3	5.1621914e-06
195	0xb908b297	-0.000130365
196	0x369a74a5	4.603137e-06
197	0x37879831	1.6164124e-05
198	0x386900bd	5.5552217e-05
199	0x38af2b5d	8.352727e-05
200	0x3800d6ad	3.071751e-05
201	0x38aa6bb5	8.126294e-05
202	0x3799e120	1.8343853e-05
203	0x388e03b6	6.771779e-05
204	0x388bab6c	6.659966e-05
205	0x3878b2d3	5.929435e-05
206	0x3808adab	3.2586668e-05
207	0x375460e0	1.265874e-05
208	0x3783a38b	1.5692573e-05
209	0xb7b6454a	-2.1728356e-05
210	0x38273f60	3.9874925e-05
211	0xb6f4d22f	-7.2962353e-06
212	0x37d43881	2.5298681e-05
213	0x38830c25	6.248829e-05
214	0xb8269d82	-3.9724175e-05
215	0x3861591d	5.3727174e-05
216	0x388ad38f	6.619759e-05
217	0xb7a02d1d	-1.9094494e-05
218	0x3832f429	4.26659e-05
219	0x37c36f97	2.3297775e-05
220	0x38387779	4.3980286e-05
221	0x38600c08	5.3416967e-05
222	0xb68a7c42	-4.127186e-06
223	0x38610134	5.36453e-05
224	0x38c063d0	9.173865e-05
225	0x374cab6a	1.2199258e-05
226	0x3870064b	5.722632e-05
227	0x384f186e	4.9375398e-05
228	0x37f46319	2.9133213e-05
229	0xb7927928	-1.7460974e-05
230	0x339e680a	7.376373e-08
231	0x38439954	4.663442e-05
232	0x37358015	1.0818262e-05
233	0x3850707f	4.9695835e-05
234	0x38af29a1	8.352404e-05
235	0x38353405	4.320221e-05
236	0x382cab08	4.116728e-05
237	0xb81d6eb9	-3.7534835e-05
238	0x363058ae	2.6277662e-06
239	0x383c1563	4.484261e-05
240	0xb879ad54	-5.952765e-05
241	0x38e5ea32	0.00010963193
242	0x3844a613	4.688471e-05
243	0x37c7f70a	2.3837685e-05
244	0xb892aca0	-6.9939764e-05
245	0x384543a6	4.7031463e-05
246	0x37a98d5b	2.0212194e-05
247	0x388476e9	6.316399e-05
248	0x38653125	5.4643624e-05
249	0x38398a65	4.4236327e-05
250	0x3882efd0	6.2435516e-05
251	0x38819d7e	6.1805345e-05
252	0xb7ae38f7	-2.0768943e-05
253	0x388cb5d1	6.709586e-05
254	0xb85df2c2	-5.291659e-05
255	0x38275626	3.9896135e-05
