mechinterp_research_project/models/sparse_probes/pythia-410m/reg_lambda0.09999999999999999/gpt_neox.layers.18.mlp.act.pt (torch, 18122 bytes, 1 tensors)

linear.weight f4 [1, 4096]
-0.0115511045 -0.0034497015 0.0043509286 -0.050761975 -0.015517865 -0.01117784 -0.0044173305 0.0026555895
-0.01167199 -0.0131152775 0.02237035 0.0078401845 -0.0017187287 0.013211623 0.003688256 -0.0052133817
-0.003308984 0.046939183 0.0192118 0.0047331816 1.315644e-05 0.0098215705 0.0027180992 0.0036666077
-0.027291195 0.003153807 0.008131875 0.0019875958 -0.0028990395 -0.0069332467 0.009824665 0.0006466401
-0.021647137 -0.003693763 0.0034969957 -0.017613398 0.015943628 -0.011663112 0.003992113 -0.0045127138
0.0028044044 -0.014085624 -0.043054037 -0.020555101 -0.0052366867 0.00014784923 -0.00065094983 0.0024672481
0.025083253 -0.004171717 0.039228525 0.0021624402 -0.01099746 0.018869363 -0.027541019 0.0056868256
0.0050713685 0.026784694 0.009213544 -0.0006826204 0.004707932 0.01862321 -0.007515178 -0.006377939
0.010858105 0.0037595555 -0.015800001 0.0058028814 -0.0054533607 -0.023702329 -0.002494373 0.014203161
0.014083045 -0.0021376677 -0.052930277 -0.002953356 0.00055553013 -0.010373151 0.0029618244 -0.020190056
0.0050058872 -0.046527464 -0.020757142 0.002777109 -0.016329324 0.0063992795 0.004974917 -0.0046449923
-0.0061627147 -0.0162166 0.02984435 0.0028683662 0.0042663263 0.0038745422 -0.003166324 0.011910602
-6.656974e-05 0.008202736 0.026058638 -0.024368433 0.0055147964 0.0032965285 0.031058423 0.021139646
-0.007124891 -0.0027135245 0.0043143486 0.00032717438 -0.0021247847 -0.007502014 -0.02161023 0.005718753
0.013573214 -0.001931306 -0.025654262 -0.034600914 -0.008248988 -0.005620907 0.011668859 0.011541655
0.024107713 -0.03299866 0.011482669 0.0031631107 -0.019058928 0.001797298 0.0066874647 -0.025918482
-0.00848786 0.0018609356 0.015725942 0.004576606 0.0055774315 0.0102036055 0.005899359 -0.016384136
-0.048708614 0.0042262496 0.0040013674 -0.052381817 -0.008968201 -0.0027863646 0.006753363 0.0010163144
0.019139512 0.03402851 0.020529915 0.003174498 0.00786114 0.01555879 0.004469308 -0.00030301363
0.0021028323 0.009733947 -6.8456364e-05 -0.0018190617 0.00825676 -0.009219547 0.00062846136 0.007748212
0.002580193 0.014525327 -0.012437463 0.011348695 0.011163856 0.0002235705 -0.025730746 0.0074779717
0.004360001 0.009762063 0.0108401375 0.023643287 0.008560778 -0.051425263 -0.0014848148 0.018159429
0.0040024472 0.0006449983 0.0253912 0.0075362283 -0.038122207 0.0052065034 6.491292e-05 0.0041082175
0.002185285 -0.02480835 0.0047411057 0.009291418 0.016508557 0.035731103 -0.0023988024 0.004826002
-0.021715073 0.0126599055 0.008467924 0.011775399 0.012822478 -0.021859143 -0.0018253232 -0.015748959
-0.027051207 0.0039834115 -0.03097807 0.008490563 -0.038776956 0.004745111 -0.01099226 -0.020821761
-0.013726825 -0.011962554 -0.002305193 -0.0041731033 0.00050086604 -0.0014008972 0.012340117 -0.0054094
-0.003582051 -0.0023260778 0.010941507 -0.00080964743 -0.0019811152 -0.00046416098 0.012413481 0.012857038
0.024768524 0.008120462 -0.019935502 0.005640608 0.0011403153 0.0019048431 0.027490944 0.008883396
0.01406012 0.018125463 0.0044010356 0.009037719 -0.007152263 0.0013218424 -0.014258026 -0.010089563
-0.0010918411 -0.012830789 -0.053151455 -0.021595478 0.005575257 -0.06417012 -0.022408104 0.005801864
0.015247429 -0.0019236518 -0.014461862 0.0026302277 -0.007778357 -0.0044598808 -0.0017631509 0.01314529
00000000: d840 3dbc 6314 62bb 3c92 8e3b caeb 4fbd
00000010: a53e 7ebc 4223 37bc 41bf 90bb 6609 2e3b
00000020: e03b 3fbc 76e1 56bc 0642 b73c 1e74 003c
00000030: f746 e1ba 9075 583c abb6 713b 04d5 aabb
00000040: 8adb 58bb 4d43 403d 1162 9d3c ce18 9b3b
00000050: 7bba 5c37 a7ea 203c 2322 323b 784b 703b
00000060: c991 dfbc 1ab0 4e3b 8e3b 053c 5342 023b
00000070: d0fd 3dbb 4a30 e3bb a2f7 203c 4883 293a
00000080: 5655 b1bc 0f13 72bb da2d 653b f949 90bc
00000090: 369c 823c a316 3fbc 45d0 823b 63df 93bb
000000a0: 19ca 373b 64c7 66bc 6e59 30bd 2c63 a8bc
000000b0: 8398 abbb fa07 1b39 81a4 2aba 8eb1 213b
000000c0: 657b cd3c e6b2 88bb 17ae 203d bab7 0d3b
000000d0: b12e 34bc ec93 9a3c b49d e1bc 8d58 ba3b
000000e0: b92d a63b 936b db3c 68f4 163c e1f1 32ba
000000f0: ff44 9a3b b48f 983c e241 f6bb 08fe d0bb
00000100: 31e6 313c e062 763b 016f 81bc 1926 be3b
00000110: 1bb2 b2bb 632b c2bc a278 23bb 60b4 683c
00000120: 92bc 663c 1d18 0cbb 6bcd 58bd 178d 41bb
00000130: ffa0 113a 26f4 29bc 2b1b 423b 9e65 a5bc
00000140: 6d08 a43b 9593 3ebd e20a aabc 2800 363b
00000150: 13c5 85bc 0cb1 d13b a104 a33b 0535 98bb
00000160: 99f0 c9bb add8 84bc 237c f43c 33fb 3b3b
00000170: 8acc 8b3b 08ec 7d3b 1a82 4fbb b024 433c
00000180: 5b9b 8bb8 c564 063c ed78 d53c 4fa0 c7bc
00000190: 77b5 b43b 920a 583b 3c6e fe3c 0d2d ad3c
000001a0: eb77 e9bb 63d5 31bb 615f 8d3b 9a88 ab39
000001b0: f93f 0bbb 74d3 f5bb f007 b1bc 6164 bb3b
000001c0: 3062 5e3c e023 fdba e328 d2bc b0b9 0dbd
000001d0: c326 07bc 962f b8bb be2e 3f3c 3619 3d3c
000001e0: 8a7d c53c 9a29 07bd ce21 3c3c 314c 4f3b
000001f0: 7821 9cbc 5093 eb3a 8522 db3b ff52 d4bc
00000200: aa10 0bbc a3ea f33a b1d3 803c 5bf7 953b
00000210: e3c2 b63b 062d 273c 694f c13b 0638 86bc
00000220: af82 47bd 5a7c 8a3b e71d 833b 518e 56bd
00000230: 5cef 12bc 719b 36bb 514b dd3b da35 853a
00000240: 77ca 9c3c 7b61 0b3d 5a2e a83c 3d0b 503b
00000250: 03cc 003c 4cea 7e3c 4673 923b cddd 9eb9
00000260: accf 093b 227b 1f3c 3b90 8fb8 956d eeba
00000270: 5d47 073c 950d 17bc 54bf 243a b7e4 fd3b
00000280: 7518 293b a3fb 6d3c 80c6 4bbc e0ef 393c
00000290: 9be8 363c 406e 6a39 49c9 d2bc c609 f53b
000002a0: 57de 8e3b 0ff1 1f3c d59a 313c 91af c13c
000002b0: 8142 0c3c 4ca3 52bd 1e9e c2ba 15c3 943c
000002c0: f626 833b 1a15 293a 3501 d03c 77f2 f63b
000002d0: 0826 1cbd 519b aa3b dc21 8838 3a9e 863b
000002e0: 0037 0f3b e13a cbbc 475b 9b3b 083b 183c
000002f0: f43c 873c c75a 123d 3a35 1dbb 7023 9e3b
00000300: cfe3 b1bc 7e6b 4f3c 0cbd 0a3c 9aed 403c
00000310: 5f15 523c f211 b3bc af3f efba f603 81bc
00000320: 7e9a ddbc 4787 823b b9c5 fdbc 011c 0b3c
00000330: 96d4 1ebd e07c 9b3b e118 34bc 6692 aabc
00000340: 7ae6 60bc 97fe 43bc b912 17bb 87be 88bb
00000350: 8d4c 033a 4f9e b7ba 342e 4a3c 5641 b1bb
00000360: d8c0 6abb 1c71 18bb 0244 333c 853e 54ba
00000370: 99d5 01bb a25a f3b9 ea61 4b3c 53a6 523c
00000380: 5ce7 ca3c b00b 053c c74f a3bc d9d4 b83b
00000390: a276 953a eeab f93a b034 e13c aa8b 113c
000003a0: 6b5c 663c da7b 943c 9036 903b f112 143c
000003b0: 885d eabb ac41 ad3a 7f9a 69bc b24e 25bc
000003c0: 1c1c 8fba 3b38 52bc 57b5 59bd 00e9 b0bc
000003d0: a5b0 b63b a06b 83bd 3391 b7bc 901d be3b
000003e0: 5ad0 793c 0b23 fcba 72f1 6cbc e65f 2c3b
000003f0: 96e1 febb 3124 92bb 8719 e7ba 585f 573c
